eval_files/models/highway/models/_actor.pth (torch, 302415 bytes, 8 tensors)

l1.weight f4 [256, 31]
-0.105836704 -0.36922705 0.21660063 -0.14636779 -0.35584968 -0.21739176 -0.83344764 -1.597318
1.1141447 -0.35091785 -0.6754247 0.83495414 4.170671 -1.1375492 0.33021656 0.8167475
-0.3330894 -0.43205172 0.8963579 0.20064497 0.6269615 0.2851536 -1.3220654 0.19152533
-0.760768 -0.54275686 1.1449187 0.50395393 -0.579807 0.72630346 -0.63024926 0.15904106
0.09970293 -0.7275402 -0.5774017 -0.14102678 0.21470489 -0.05675244 0.86306524 -0.11717826
0.024338154 0.033411644 1.9704051 -6.0513573 -0.37041748 -0.8628493 -1.6672242 0.75472957
-0.21493681 -0.020631997 0.030636001 0.23444058 -0.058414336 -0.30466914 -0.37826705 2.420841
0.372363 -1.0077913 1.3626938 -1.528297 0.8017565 1.7063334 0.10413326 0.48005876
-0.08927684 -0.1613584 -0.053050168 -0.20580038 -0.16448414 -1.3102984 -5.0016966 -0.6207235
0.283414 -0.6548847 1.173513 0.08751297 0.05202941 -0.90888166 -3.1920877 0.25528955
0.9663536 0.0031631412 0.34010926 -0.26260847 0.09094426 0.5563611 1.5240417 0.34466332
-0.024621049 1.425059 -1.3051431 0.76910585 0.7383747 0.054913998 -0.62036395 0.046837516
0.05139003 0.029925425 0.011101961 -0.85849184 -1.8312389 0.2883922 1.2640282 -0.55823326
1.9813484 0.6837751 1.1783996 0.7000337 0.032751437 -0.11099539 0.9803042 0.65755266
0.8690292 0.47584066 -0.38887352 -1.0481638 0.047944617 -1.7690237 0.5054916 -0.19002011
0.60675544 -0.8909949 0.63837194 -0.5359973 -0.1066326 -0.65481627 -0.0423542 -0.24730141
-0.17268707 0.25898135 -1.0571415 -0.47848272 1.4676973 -0.1113663 1.1467531 1.2435666
1.9779786 -0.76154774 -0.067945376 -3.861155 -0.9715109 0.036657285 -0.020651618 0.038617853
-0.32583207 -0.2613588 -0.54141617 0.25747845 -0.06501143 1.4527962 0.17482753 -0.06040672
0.06589125 1.7478842 0.05722551 -0.20519838 -0.53370136 -0.18432705 -0.014249161 -0.13677673
0.11228505 0.32257694 -1.3493514 -0.25588703 -0.7060986 -1.122598 0.5693815 2.0466404
-0.5900837 -0.31521046 -4.4233804 -4.5342746 0.17759658 -0.6652099 0.88467515 0.6157597
0.26095256 -0.06035417 -0.99675673 -0.17122611 -0.029802745 -0.32132998 -0.12419838 1.7549013
-0.12909436 0.6993967 -0.19664069 -0.098649636 -0.033473596 -0.13848218 0.02289798 -0.08312667
-0.08435838 -0.031104699 0.171302 -0.08498983 0.042990476 0.073974416 0.13673747 -0.08437103
0.0021452466 -0.1464819 0.13982682 -0.05571137 0.09420971 0.033007678 0.013635699 0.021662654
0.003154636 0.08466524 0.028805079 0.05478948 -0.1615594 0.13084918 0.15659139 0.14846279
0.1327683 -0.43508452 0.006551281 0.10941428 -0.81992245 -0.11488356 -0.38859296 0.18615045
-0.4677768 0.50578403 -0.3014305 -0.2703621 0.7209188 1.9750664 -0.71997166 0.33655185
2.1128118 -0.17028816 -0.7587079 -0.06265847 0.28823695 0.35982466 0.20738955 0.9001599
0.1892298 -0.25505745 0.29176325 -0.57213116 -0.63374823 0.39359796 0.22212824 -0.662253
-0.2566324 2.0283833 0.3005381 -0.0724525 -0.04495958 -0.3571755 -0.42185795 -0.11086612
00000000: eac0 d8bd 540b bdbe 8ecc 5d3e 70e1 15be
00000010: ee31 b6be f29b 5ebe d35c 55bf eb74 ccbf
00000020: 4b9c 8e3f 81ab b3be a2e8 2cbf 8ebf 553f
00000030: 2376 8540 369b 91bf 2512 a93e 5d16 513f
00000040: b28a aabe e235 ddbe b677 653f e075 4d3e
00000050: 8d80 203f a7ff 913e 7039 a9bf 371f 443e
00000060: b1c1 42bf 1df2 0abf b28c 923f 2003 013f
00000070: 3b6e 14bf 06ef 393f 0458 21bf a9db 223e
00000080: 0d31 cc3d 1340 3abf 99d0 13bf 5369 10be
00000090: 99db 5b3e 3f75 68bd d8f1 5c3f 28fb efbd
000000a0: cf60 c73c a6da 083d 3c36 fc3f b8a4 c1c0
000000b0: 5ca7 bdbe b1e3 5cbf 9a67 d5bf f535 413f
000000c0: 6518 5cbe 6f04 a9bc 5af8 fa3c 3111 703e
000000d0: df43 6fbd 98fd 9bbe 38ac c1be 0fef 1a40
000000e0: 5da6 be3e 4eff 80bf c06c ae3f 3c9f c3bf
000000f0: ea3f 4d3f 2269 da3f d243 d53d 43ca f53e
00000100: c7d6 b6bd 233b 25be 224b 59bd 56bd 52be
00000110: 886e 28be dcb7 a7bf e60d a0c0 bce7 1ebf
00000120: a41b 913e 86a6 27bf ad35 963f 003a b33d
00000130: ca1c 553d 78ac 68bf 2a4b 4cc0 50b5 823e
00000140: f362 773f b44c 4f3b cd22 ae3e 9e74 86be
00000150: fc40 ba3d ae6d 0e3f cc13 c33f b677 b03e
00000160: 15b2 c9bc 5568 b63f ee0e a7bf 1fe4 443f
00000170: 2006 3d3f 80ed 603d 2cd0 1ebf b2d8 3f3d
00000180: 5a7e 523d 2a26 f53c 00e5 353c 1fc6 5bbf
00000190: 0966 eabf 24a8 933e adcb a13f 60e8 0ebf
000001a0: d39c fd3f e30b 2f3f ccd5 963f 6935 333f
000001b0: 5f26 063d 8d51 e3bd 37f5 7a3f 5f55 283f
000001c0: b378 5e3f 63a1 f33e 6e1a c7be 3b2a 86bf
000001d0: 9361 443d 5e6f e2bf e667 013f a294 42be
000001e0: 5354 1b3f 3e18 64bf 586c 233f 1e37 09bf
000001f0: 3162 dabd 0aa2 27bf 997b 2dbd 953c 7dbe
00000200: e1d4 30be 3499 843e 6a50 87bf b0fb f4be
00000210: 81dd bb3f 0414 e4bd cec8 923f 312d 9f3f
00000220: 672e fd3f cbf4 42bf f226 8bbd 2a1d 77c0
00000230: f0b4 78bf f325 163d 952d a9bc c12d 1e3d
00000240: 76d3 a6be d2d0 85be 409a 0abf 37d4 833e
00000250: b624 85bd 3af5 b93f fd05 333e 096d 77bd
00000260: fef1 863d abba df3f 4c65 6a3d 861f 52be
00000270: a7a0 08bf 3bc0 3cbe 5075 69bc 330f 0cbe
00000280: b4f5 e53d ce28 a53e 8cb7 acbf a003 83be
00000290: e1c2 34bf 4bb1 8fbf fcc2 113f 28fc 0240
000002a0: ba0f 17bf 4463 a1be 558c 8dc0 c718 91c0
000002b0: e1db 353e 324b 2abf 127a 623f 6da2 1d3f
000002c0: 939b 853e ef35 77bd 732b 7fbf e655 2fbe
000002d0: e324 f4bc 5d85 a4be b85b febd 9ba0 e03f
000002e0: 5031 04be aa0b 333f 2d5c 49be d208 cabd
000002f0: 9c1b 09bd 46ce 0dbe 8b94 bb3c 513e aabd
00000300: 16c4 acbd 48cf febc cb69 2f3e 260f aebd
00000310: c816 303d e67f 973d e804 0c3e b8ca acbd
00000320: 4497 0c3b 5aff 15be c32e 0f3e 9b31 64bd
00000330: 05f1 c03d 0f33 073d 4468 5f3c e175 b13c
00000340: 02be 4e3b f864 ad3d a1f8 eb3c ef6a 603d
00000350: d46f 25be 54fd 053e 7e59 203e a106 183e
00000360: 6af4 073e 66c3 debe 21ac d63b 9814 e03d
00000370: 70e6 51bf 1248 ebbd a8f5 c6be 399e 3e3e
00000380: 7180 efbe 107b 013f 1955 9abe e76c 8abe
00000390: 228e 383f face fc3f 1050 38bf 8650 ac3e
000003a0: 4f38 0740 0560 2ebe ae3a 42bf 1553 80bd
000003b0: cb93 933e f03a b83e ed5d 543e e170 663f
000003c0: 75c5 413e e496 82be fe61 953e 3077 12bf
000003d0: 533d 22bf ac85 c93e 9675 633e 6a89 29bf
000003e0: 5265 83be 08d1 0140 21e0 993e fa61 94bd
000003f0: 8927 38bd b5df b6be c4fd d7be c70d e3bd

l1.bias f4 [256]
-0.36585873 -0.2026837 0.028133595 0.05159451 -0.098066635 0.030739697 -0.15457112 -0.23945631
0.09421737 -0.13270639 -0.30195305 0.0023248552 0.007921888 0.0020332024 -0.10789858 -0.35158306
-0.10245114 -0.074825846 0.07449126 -0.09022099 -0.22020437 -0.0887707 -0.07579421 -0.087137274
-0.037846796 -0.133385 -0.0015979736 -0.08412026 -0.13481265 0.12377679 -0.051250108 -0.10629342
-0.24975269 -0.03780161 -0.1880413 0.12886804 0.012701851 -0.08348138 0.12099426 -0.16427341
-0.3374466 -0.1823736 -0.084243454 -0.2560931 -0.33907402 0.07765758 -0.18173946 -0.18611512
-0.12120294 -0.037496634 -0.11586263 -0.00032842474 -0.03404073 -0.4753618 -0.011011609 -0.084795184
-0.017584844 -0.11280102 0.020512715 -0.2640422 -0.26366588 0.0775789 0.050904933 0.019507708
0.02104065 -0.024093065 -0.24776942 -0.26667196 -0.24657817 -0.12885061 0.16784044 -0.070125185
0.06694704 -0.039054766 -0.10080057 -0.096048184 -0.44875833 -0.16395716 0.011637283 -0.0675765
0.030236412 -0.20586516 -0.08298775 -0.16224104 -0.04978239 -0.12142367 -0.2963823 -0.3195872
-0.074794315 0.008279466 -0.23579298 -0.22437295 -0.030928923 -0.24806066 -0.030820565 -0.12574108
-0.13495427 -0.012042208 -0.1900495 -0.06934742 -0.122156404 -0.17550677 -0.24185668 -0.14410721
-0.13942772 -0.20291835 0.08059102 -0.21396089 0.022269918 -0.17030357 -0.13946201 -0.018972196
-0.20274395 -0.4275453 0.031011725 -0.11824636 -0.09933037 -0.22753175 0.061324406 -0.013783967
-0.10986735 -0.12719712 0.049606714 0.1068732 -0.26043648 -0.08515224 0.020819161 -0.0021065683
-0.02437156 -0.2416893 -0.29315782 -0.17829148 -0.13473509 -0.1977697 -0.21799006 0.12468981
-0.05716637 -0.09813075 -0.1905817 0.11289939 -0.20498553 -0.15541269 0.0051665385 -0.12163735
-0.062213745 0.010334062 -0.12728113 -0.34689635 -0.15461214 -0.2452847 -0.15901184 0.015097388
-0.3338317 -0.033139803 -0.17852724 -0.11842751 -0.29877007 0.08402052 0.104165405 -0.118887946
-0.06540716 -0.1870643 -0.20325115 -0.05668393 -0.383313 -0.16651335 -0.1796297 -0.13108742
0.17097293 0.0051185032 -0.13263747 -0.06592638 -0.12521943 -0.09143769 -0.25263762 -0.13190067
-0.118813194 -0.16209823 -0.057938915 -0.07372647 -0.070657946 -0.04408146 -0.0007631709 0.1613365
-0.022310168 -0.122620836 -0.041727655 -0.3220261 0.022672119 0.09763195 -0.25498566 -0.00843718
-0.07332947 -0.013279458 -0.120904036 -0.31692848 -0.33932236 -0.1471551 -0.10738066 0.0040684748
-0.1730927 -0.17362419 -0.20010146 -0.100238115 -0.0108259255 0.1133867 -0.004748805 -0.21843381
-0.46564335 -0.042905875 -0.0017403665 -0.12954089 -0.00041345024 -0.06373977 -0.1830478 -0.011613411
-0.19299011 0.06042369 -0.08401887 0.07675868 -0.34528908 -0.14243011 0.18577433 -0.10289353
-0.15783435 -0.15365417 -0.06777179 -0.15890317 -0.08489456 -0.19127385 0.20643246 -0.058194116
-0.079085164 -0.24957506 -0.19922264 0.013524782 -0.47366142 -0.16458844 -0.20880328 -0.14267348
-0.09468059 -0.044318922 0.1444244 -0.103660576 0.0063081137 -0.121363506 -0.022533232 -0.09516176
-0.24224183 -0.17378339 -0.027476743 -0.15192826 -0.14830905 0.02872443 -0.24272072 -0.18415572
00000000: d651 bbbe 518c 4fbe 6d78 e63c c454 533d
00000010: 29d7 c8bd d1d1 fb3c e447 1ebe 0934 75be
00000020: 09f5 c03d 2fe4 07be 9799 9abe 995c 183b
00000030: ceca 013c 7a3f 053b eef9 dcbd b202 b4be
00000040: e7d1 d1bd 4b3e 99bd e08e 983d c8c5 b8bd
00000050: 417d 61be 6acd b5bd ff39 9bbd 0775 b2bd
00000060: 3e05 1bbd 1496 08be 1973 d1ba 3e47 acbd
00000070: 540c 0abe b07e fd3d a2eb 51bd 5db0 d9bd
00000080: 2bbf 7fbe dcd5 1abd e68d 40be fcf5 033e
00000090: 6d1b 503c 49f8 aabd d7cb f73d 4a37 28be
000000a0: cdc5 acbe 25c0 3abe d587 acbd a31e 83be
000000b0: 1c9b adbe f00a 9f3d e919 3abe f694 3ebe
000000c0: 3f39 f8bd 1296 19bd 6349 edbd 6c30 acb9
000000d0: 4b6e 0bbd 9f62 f3be 096a 34bc 19a9 adbd
000000e0: 170e 90bc 3904 e7bd 480a a83c 8a30 87be
000000f0: 37ff 86be b0e1 9e3d b181 503d a1ce 9f3c
00000100: 715d ac3c d25e c5bc 44b7 7dbe 3a89 88be
00000110: fd7e 7cbe 6af1 03be 5dde 2b3e cb9d 8fbd
00000120: 881b 893d e4f7 1fbd 8770 cebd e9b4 c4bd
00000130: a7c3 e5be 63e4 27be 4daa 3e3c 8c65 8abd
00000140: 5ab2 f73c 51ce 52be 7bf5 a9bd 8422 26be
00000150: 9fe8 4bbd f9ac f8bd 6cbf 97be efa0 a3be
00000160: c32d 99bd 99a6 073c b773 71be 06c2 65be
00000170: a75e fdbc 9d03 7ebe 697b fcbc 45c2 00be
00000180: 7431 0abe ae4c 45bc 569c 42be 0506 8ebd
00000190: 232d fabd 0cb8 33be 47a9 77be d790 13be
000001a0: 24c6 0ebe d4c9 4fbe e80c a53d 9018 5bbe
000001b0: 676f b63c 0f64 2ebe 21cf 0ebe 946b 9bbc
000001c0: 1c9c 4fbe 38e7 dabe 4d0c fe3c 262b f2bd
000001d0: b96d cbbd 15fe 68be 4d2f 7b3d 26d6 61bc
000001e0: 2202 e1bd f63f 02be 6930 4b3d 56e0 da3d
000001f0: ee57 85be 4c64 aebd f28c aa3c 5a0e 0abb
00000200: dea6 c7bc 667d 77be c818 96be 0b92 36be
00000210: fff7 09be 2484 4abe c938 5fbe 5f5d ff3d
00000220: 4927 6abd c6f8 c8bd d927 43be cc37 e73d
00000230: bae7 51be 8124 1fbe 114c a93b 011d f9bd
00000240: d7d3 7ebd 3350 293c fc55 02be 669c b1be
00000250: a552 1ebe ea2b 7bbe 00d4 22be 095b 773c
00000260: fdeb aabe 9abd 07bd d8cf 36be 1f8a f2bd
00000270: 64f8 98be f312 ac3d ac54 d53d 867b f3bd
00000280: 30f4 85bd c98d 3fbe 1221 50be 692d 68bd
00000290: 9a41 c4be 7a82 2abe d9f0 37be c83b 06be
000002a0: 8713 2f3e 1eb9 a73b 1ed2 07be 6904 87bd
000002b0: 8639 00be af43 bbbd b859 81be f810 07be
000002c0: 5554 f3bd 14fd 25be 5b51 6dbd e7fd 96bd
000002d0: 1db5 90bd c38e 34bd 880f 48ba 6535 253e
000002e0: d0c3 b6bc a220 fbbd 9eea 2abd 9be0 a4be
000002f0: e1ba b93c 43f3 c73d 7b8d 82be 193c 0abc
00000300: c32d 96bd 1592 59bc 899c f7bd 7344 a2be
00000310: a9bb adbe d4af 16be 64ea dbbd d750 853b
00000320: 363f 31be 8aca 31be 66e7 4cbe a449 cdbd
00000330: 395f 31bc 4937 e83d dd9b 9bbb 1dad 5fbe
00000340: ce68 eebe 12be 2fbd 021d e4ba 5ea6 04be
00000350: 5ac4 d8b9 ff89 82bd e270 3bbe 2d46 3ebc
00000360: 339f 45be d57e 773d 1612 acbd a833 9d3d
00000370: bbc9 b0be 33d9 11be a03b 3e3e d8b9 d2bd
00000380: 549f 21be 8557 1dbe f0cb 8abd 83b7 22be
00000390: 33dd adbd 4bdd 43be 0863 533e f45c 6ebd
000003a0: 67f7 a1bd 9b90 7fbe 0501 4cbe 0c97 5d3c
000003b0: c083 f2be df89 28be 87d0 55be ff18 12be
000003c0: e6e7 c1bd c287 35bd fde3 133e ff4b d4bd
000003d0: 4bb4 ce3b 6e8d f8bd 9d97 b8bc 2be4 c2bd
000003e0: 3e0e 78be 46f4 31be e816 e1bc 1593 1bbe
000003f0: 54de 17be 7f4f eb3c c88b 78be 5193 3cbe

l2.weight f4 [256, 256]
-0.55931365 0.104062244 0.42527342 -1.9903635 0.39104262 -0.06309541 -0.027143419 0.24150129
-0.44616643 -0.17905435 -0.2008066 -0.5263047 0.9736243 0.092978425 -0.8561851 -0.32423824
-0.110742584 -1.3395375 -0.03221839 -0.3456868 0.269102 0.48672256 -0.01366201 -0.017077439
-1.2044865 0.0416501 -0.621845 -0.012989743 -1.035794 -2.1362026 -0.89262444 -1.858199
-0.25213522 0.0006932616 -0.19482599 0.22701989 0.20880133 -0.04327002 0.06558026 -0.48351654
0.13462806 -0.2170419 -0.04647744 0.020962039 -1.713863 -0.6064454 0.1743505 -0.0870843
0.46786436 0.490783 -0.009223327 -0.28637537 -0.30417058 0.13651437 -0.45300353 -0.29318923
-1.1959409 -0.71694577 -2.400926 0.2537951 -0.15707411 -1.9975835 -0.42147887 0.29209456
0.30866343 -0.96902275 -0.4461827 -0.7673952 0.67300916 0.057036728 -0.09108881 0.45685038
0.42185828 -0.3909311 -0.029924676 -0.8835185 -0.58684903 -0.016304493 -0.5081908 0.15007001
0.094367914 0.023905449 -0.1685986 -0.24551794 -0.44165853 -0.0042229914 -1.157587 -0.15451522
0.45248738 -0.19965668 -0.35172015 -0.19907273 -0.16740671 -0.46542004 0.6080285 -0.012009218
-0.2163969 -0.047116324 -0.40059292 -0.8329579 -0.1940634 -0.13569199 0.061798546 -1.1773146
0.023397967 0.26190868 0.8539936 -0.26852635 0.24573113 0.45449945 -0.28453168 -0.52795345
-0.56861246 -0.17303169 0.039315205 -0.04146509 0.05739081 0.1207726 0.6084383 0.37913516
0.07622189 -0.1794055 0.17181888 -0.034466203 -0.837568 -0.4134669 0.41025096 0.030031897
0.031977795 -0.18903399 -2.3800647 -0.0051553324 -0.80088794 -0.013154369 0.015522471 -0.08102155
-0.058252417 -1.4710846 -0.67358655 0.54981804 -0.72844815 -0.015796172 0.676607 0.27369082
-0.03892503 -0.7202969 -0.19240975 -0.5611886 -0.9615634 0.4234458 -0.038762867 0.24231258
-0.38633478 -2.801809 0.042073444 0.45541456 0.27891558 -0.16691639 -1.9414895 -0.06346463
-0.13196675 -0.23491909 -1.3676968 -0.6912181 -0.0769693 0.38301748 -0.031357236 -0.2866392
-0.57725835 -0.3994857 0.037423722 -0.004874827 0.010626137 0.8847417 -0.58386916 -0.6069543
0.2601975 0.33128166 -0.11443107 0.016375221 -0.4730239 0.62647253 0.09602653 0.60888356
0.42636934 -0.82880557 -0.77440137 0.49059305 -0.93445474 0.1998269 -0.82925457 0.46751606
-0.75115734 0.048164107 -0.30255345 -0.76556295 0.58026797 -0.45111072 0.26321554 -0.1186851
-0.67865413 -0.65432143 0.102458134 0.84564775 -0.37667274 -0.27520838 0.20082955 0.74558425
-0.027616274 -0.2475189 -2.978658 0.012162081 -0.65566075 -0.6458519 0.21524914 0.1943515
-0.02066078 -0.15645167 -0.84734374 -0.42728704 0.044605047 -0.19520004 -0.2933912 0.008914754
-0.017070964 -0.045666836 0.2749235 -1.0315207 -0.02644123 -0.01815971 0.19125329 0.5198306
0.00025869746 -0.5567213 -0.5653615 0.06021729 0.3024318 -0.1219645 -0.10065372 0.06704734
-0.03872316 -0.30022082 -4.524061 -0.11337175 -1.1460253 0.29247305 -1.1573813 -0.11757895
-0.10879451 0.01674658 0.15780805 -0.021214565 -0.014587209 -0.73667866 -1.4449823 -1.5589019
00000000: 2e2f 0fbf 961e d53d 70bd d93e 3bc4 febf
00000010: bd36 c83e 2b38 81bd e05b debc 1d4c 773e
00000020: ed6f e4be 065a 37be 3fa0 4dbe e8bb 06bf
00000030: 713f 793f 796b be3d f22e 5bbf 8e02 a6be
00000040: 02cd e2bd f775 abbf 6ef7 03bd dcfd b0be
00000050: bdc7 893e b333 f93e a0d6 5fbc fce5 8bbc
00000060: 9d2c 9abf 4c99 2a3d 3c31 1fbf eed2 54bc
00000070: e694 84bf 8bb7 08c0 0983 64bf 77d9 edbf
00000080: de17 81be 00bc 353a 7780 47be e777 683e
00000090: 04d0 553e e83b 31bd f14e 863d 7b8f f7be
000000a0: f0db 093e 3b40 5ebe 215f 3ebd 95b8 ab3c
000000b0: dd5f dbbf 0140 1bbf f088 323e 4159 b2bd
000000c0: eb8b ef3e e947 fb3e 701d 17bc cb9f 92be
000000d0: 3fbc 9bbe 6cca 0b3e 14f0 e7be e61c 96be
000000e0: 9714 99bf c289 37bf c6a8 19c0 6ef1 813e
000000f0: 09d8 20be d1b0 ffbf 14cc d7be 6b8d 953e
00000100: 2209 9e3e e011 78bf 0f72 e4be 0374 44bf
00000110: 544a 2c3f 589f 693d c58c babd 4be8 e93e
00000120: cffd d73e 1f28 c8be 9824 f5bc 452e 62bf
00000130: bd3b 16bf 0091 85bc cb18 02bf f4ab 193e
00000140: f743 c13d 5cd5 c33c 1da5 2cbe 0e69 7bbe
00000150: 1121 e2be 0561 8abb d02b 94bf 3d39 1ebe
00000160: 6dac e73e cd72 4cbe aa14 b4be b9d9 4bbe
00000170: aa6c 2bbe 894b eebe c1a7 1b3f 50c2 44bc
00000180: 2697 5dbe 0cfd 40bd 841a cdbe bb3c 55bf
00000190: 8eb8 46be d7f2 0abe 7920 7d3d 3fb2 96bf
000001a0: 18ad bf3c e518 863e 539f 5a3f 497c 89be
000001b0: f1a0 7b3e 27b4 e83e 23ae 91be f527 07bf
000001c0: 9690 11bf 382f 31be fb08 213d 4cd7 29bd
000001d0: a012 6b3d a057 f73d 9dc2 1b3f 011e c23e
000001e0: 391a 9c3d 13b6 37be 4af1 2f3e 6f2c 0dbd
000001f0: db6a 56bf efb1 d3be 6a0c d23e 7405 f63c
00000200: 26fb 023d 2092 41be fb52 18c0 10ee a8bb
00000210: fe06 4dbf 6c85 57bc f651 7e3c a0ee a5bd
00000220: 169a 6ebd 804c bcbf 2b70 2cbf e0c0 0c3f
00000230: 947b 3abf f966 81bc 1e36 2d3f 3421 8c3e
00000240: da6f 1fbd 6165 38bf 1007 45be 0eaa 0fbf
00000250: 0529 76bf e3cd d83e d0c5 1ebd ca20 783e
00000260: accd c5be d750 33c0 3455 2c3d 192c e93e
00000270: 06ce 8e3e 21ec 2abe ba82 f8bf bef9 81bd
00000280: 4b22 07be a18e 70be b010 afbf abf3 30bf
00000290: 15a2 9dbd de1a c43e 7270 00bd 60c2 92be
000002a0: 34c7 13bf 6489 ccbe 9e49 193d 03bd 9fbb
000002b0: 4019 2e3c 6f7e 623f 7378 15bf 5b61 1bbf
000002c0: 9b38 853e c09d a93e d65a eabd 5425 863c
000002d0: 3030 f2be 8160 203f 8fa9 c43d cbdf 1b3f
000002e0: 154d da3e 9a2c 54bf 2b3f 46bf 032f fb3e
000002f0: 6d38 6fbf 6c9f 4c3e 074a 54bf 445e ef3e
00000300: d94b 40bf ba47 453d 49e8 9abe effb 43bf
00000310: 718c 143f fcf7 e6be 30c4 863e 2c11 f3bd
00000320: 47bc 2dbf 9c81 27bf 92d5 d13d 5f7c 583f
00000330: 40db c0be 1de8 8cbe 43a6 4d3e 9cde 3e3f
00000340: 863b e2bc 9875 7dbe 55a2 3ec0 7743 473c
00000350: 62d9 27bf 8d56 25bf 456a 5c3e 1404 473e
00000360: cc40 a9bc de34 20be 85eb 58bf 5ec5 dabe
00000370: c8b3 363d 85e2 47be 5f37 96be 300f 123c
00000380: 68d8 8bbc 260d 3bbd c6c2 8c3e df08 84bf
00000390: 479b d8bc acc3 94bc e7d7 433e 9e13 053f
000003a0: c9a1 8739 4a85 0ebf 88bb 10bf 68a6 763d
000003b0: 57d8 9a3e 86c8 f9bd 8a23 cebd 1e50 893d
000003c0: 2d9c 1ebd 8bb6 99be 1cc5 90c0 732f e8bd
000003d0: f5b0 92bf 07bf 953e 1225 94bf 3ccd f0bd
000003e0: a8cf debd 2030 893c 6f98 213e 2bca adbc
000003f0: 30ff 6ebc f996 3cbf 2ef5 b8bf 198a c7bf

l2.bias f4 [256]
0.029393442 -0.093206644 -0.019456385 -0.32282117 -0.09838503 0.12439688 -0.15067048 -0.055468164
-0.06945312 -0.043066878 0.004855531 -0.099594116 -0.55128217 -0.01312136 0.039767392 -0.12484133
0.017925411 -0.08793432 0.29939097 -0.04354016 -0.056540735 0.07334215 -0.0464283 -0.12294869
0.30047274 -0.4583572 -0.08154375 -0.254012 -0.02634484 -0.108095475 0.04264199 -0.07471882
-0.27804703 -0.54126483 -0.14432567 -0.07427212 -0.0043261074 -0.13621126 -0.04280502 -0.15213317
0.40766746 -0.4419369 -0.07761989 -0.20663346 -0.11439793 -0.04801125 -0.007343677 -0.04367852
0.008603157 -0.096797146 0.19416612 0.43503875 -0.10250889 -0.100636005 -1.2655753 -0.070770144
-0.050542194 0.38725466 -0.055312872 0.017274862 -0.3297484 -0.021026792 -0.07698221 -0.09746891
-0.13452516 -0.03075456 -0.5317702 -0.07182169 -0.023871176 -0.2584238 0.17609258 -0.0923413
-0.5443745 -0.09329471 -0.03422144 -0.1682789 -0.03922757 -0.07963247 0.1711345 -0.5108328
-0.06607149 -0.06457548 0.101280496 -0.0504377 -0.20404051 -0.04717346 -0.05350309 0.2154078
-0.031176385 -0.095745854 0.02484462 -0.05433743 -0.030786442 -0.2891458 -0.00091679394 -0.14214957
0.3811019 -0.08524088 -0.07863301 -0.3394027 -0.023870425 -0.16388673 0.26859102 -0.22441313
0.18962799 -0.22357373 -0.03592342 -0.09219907 -0.08979229 -0.08578484 -0.35049945 -0.08709729
0.31496048 0.13072999 -0.08110584 -0.09439422 -0.08307292 -0.042386815 -0.1158688 -0.40438318
-0.11611438 -0.038827654 -0.054926366 -0.08181793 0.5770635 -0.10825379 0.055081915 -0.014780428
-0.07894556 0.14611106 -0.19470076 -0.056694373 -0.03577104 -0.053408924 -0.086402185 -0.05070116
-0.07726371 -0.2564506 0.06591054 -0.078638874 -0.06875012 0.14560086 -0.06289371 0.21271323
-0.09903171 0.6410349 -0.030637318 0.36096993 -0.10822496 0.2940863 0.0645246 -0.11789172
-0.05291641 -0.47160792 -0.08722288 -0.07442753 -0.094786435 -0.6136976 -0.09041103 -0.019989813
-0.020781292 -0.06677419 -0.42598614 0.2654672 -0.13832098 -0.08577064 -0.015696624 -0.09455173
-0.039736908 0.1570596 -0.23372287 -0.46629193 -0.021494335 0.12123782 -0.11106482 -0.13242869
-0.06604162 -0.08534534 -0.13750002 -0.2703105 -0.20661157 -0.060706098 -0.044136807 -0.011099987
-0.057548884 0.3687862 -0.37119368 0.3450621 -0.6283838 0.11623643 -0.10865314 0.18098208
-0.08188044 -0.06800505 -0.74420714 -0.15164591 -0.07789059 -0.03836335 -0.049889915 -0.07018516
-0.04242596 -0.06914686 -0.18992049 -0.0149931125 -0.09580402 0.41753858 0.1865307 -0.69917816
-0.08900819 -0.033600993 -0.10710441 -0.044698823 0.2466648 -0.033917416 -0.0038409869 -0.16156599
-0.10033907 -0.02759825 -0.13684736 -0.08129228 -0.02874405 -0.0014947241 -0.06495504 -0.39847237
0.03020635 0.2799468 -0.11897563 -0.025764404 -0.12335899 -0.1216502 0.08701449 -0.028253308
-0.04176728 -0.09564716 0.34821007 0.04687892 -0.22429639 -0.27774215 -0.048572414 0.15046307
0.024853384 -0.08760495 -0.051102087 -0.07538708 0.23232162 -0.0614277 0.2681515 -0.046281964
-0.027751861 -0.013367381 -0.03770416 -0.08859182 -0.16002667 -0.07400308 0.067390904 0.01950704
00000000: 84ca f03c 20e3 bebd ff62 9fbc d148 a5be
00000010: 177e c9bd cbc3 fe3d 5d49 1abe 9632 63bd
00000020: 703d 8ebd e566 30bd 251b 9f3b 00f8 cbbd
00000030: d420 0dbf f9fa 56bc 22e3 223d d0ac ffbd
00000040: 50d8 923c e916 b4bd c649 993e 2b57 32bd
00000050: 4297 67bd 6934 963d 9a2b 3ebd 86cc fbbd
00000060: 90d7 993e cbad eabe 6900 a7bd dc0d 82be
00000070: 22d1 d7bc 2961 ddbd 5ea9 2e3d 2e06 99bd
00000080: 2e5c 8ebe 5590 0abf 1cca 13be fb1b 98bd
00000090: 05c2 8dbb f77a 0bbe 5154 2fbd ccc8 1bbe
000000a0: cab9 d03e 8e45 e2be 2df7 9ebd b997 53be
000000b0: 7649 eabd 72a7 44bd 3aa3 f0bb 3fe8 32bd
000000c0: 41f4 0c3c 953d c6bd 7cd3 463e 66bd de3e
000000d0: 2ef0 d1bd 401a cebd 5ffe a1bf f0ef 90bd
000000e0: 5505 4fbd 3e46 c63e c08f 62bd 0384 8d3c
000000f0: c8d4 a8be 6140 acbc d9a8 9dbd c89d c7bd
00000100: f7c0 09be fdf0 fbbc 1822 08bf 4017 93bd
00000110: 7c8d c3bc 2050 84be 9d51 343e 6f1d bdbd
00000120: 215c 0bbf 4c11 bfbd c82b 0cbd 4e51 2cbe
00000130: 17ad 20bd 5916 a3bd e23d 2f3e f0c5 02bf
00000140: 7d50 87bd 2640 84bd 266c cf3d c397 4ebd
00000150: ffef 50be f538 41bd 0e26 5bbd dd93 5c3e
00000160: 9e65 ffbc 6716 c4bd f286 cb3c ed90 5ebd
00000170: d933 fcbc eb0a 94be 0055 70ba a88f 11be
00000180: ca1f c33e c592 aebd 580a a1bd 31c6 adbe
00000190: e98b c3bc ecd1 27be c384 893e 8ecc 65be
000001a0: d72d 423e 83f0 64be 7024 13bd ded2 bcbd
000001b0: 05e5 b7bd f6af afbd aa74 b3be 1060 b2bd
000001c0: 8042 a13e 15de 053e d21a a6bd c251 c1bd
000001d0: 2322 aabd cc9d 2dbd 9f4c edbd 500b cfbe
000001e0: 60cd edbd bf09 1fbd 78fa 60bd 2990 a7bd
000001f0: 6fba 133f 2ab4 ddbd 939d 613d 9c29 72bc
00000200: 36ae a1bd 239e 153e a35f 47be 5c38 68bd
00000210: a784 12bd 51c3 5abd a1f3 b0bd 05ac 4fbd
00000220: 703c 9ebd 7e4d 83be 1bfc 863d 6b0d a1bd
00000230: ddcc 8cbd 6418 153e 6bce 80bd 7fd1 593e
00000240: 23d1 cabd dd1a 243f 1dfb fabc 0dd1 b83e
00000250: 0ca5 ddbd 7b92 963e 7925 843d 3771 f1bd
00000260: e1be 58bd 9876 f1be e9a1 b2bd 766d 98bd
00000270: 641f c2bd 491b 1dbf 6b29 b9bd adc1 a3bc
00000280: 873d aabc e8c0 88bd db1a dabe 51eb 873e
00000290: 04a4 0dbe 84a8 afbd 3596 80bc 56a4 c1bd
000002a0: 2bc3 22bd 3bd4 203e 0c55 6fbe d1bd eebe
000002b0: e314 b0bc 894b f83d f475 e3bd 639b 07be
000002c0: d440 87bd 8ac9 aebd cecc 0cbe 2366 8abe
000002d0: fc91 53be f5a6 78bd ccc8 34bd b8dc 35bc
000002e0: 61b8 6bbd 8bd1 bc3e 190d bebe fbab b03e
000002f0: c3dd 20bf 5e0d ee3d 8a85 debd 5e53 393e
00000300: efb0 a7bd 3b46 8bbd 5c84 3ebf 1149 1bbe
00000310: 1a85 9fbd e322 1dbd 5e59 4cbd 3dbd 8fbd
00000320: d8c6 2dbd de9c 8dbd 847a 42be aca5 75bc
00000330: e634 c4bd 9ec7 d53e e701 3f3e 57fd 32bf
00000340: ed49 b6bd 32a1 09bd 8f59 dbbd 1d16 37bd
00000350: b395 7c3e fdec 0abd 11b9 7bbb 8e71 25be
00000360: 927e cdbd ba15 e2bc b721 0cbe 917c a6bd
00000370: a478 ebbc 9eea c3ba 2607 85bd 9204 ccbe
00000380: 4f73 f73c 3055 8f3e 7fa9 f3bd df0f d3bc
00000390: a3a3 fcbd bd23 f9bd a734 b23d 7b73 e7bc
000003a0: 2b14 2bbd a9e2 c3bd 9748 b23e 1c04 403d
000003b0: f4ad 65be 3834 8ebe def3 46bd fe12 1a3e
000003c0: 5399 cb3c 396a b3bd 6c50 51bd 8b64 9abd
000003d0: b8e5 6d3e 9d9b 7bbd 274b 893e 2892 3dbd
000003e0: df57 e3bc dc02 5bbc ad6f 1abd a16f b5bd
000003f0: 08de 23be ed8e 97bd 3e04 8a3d 3acd 9f3c

mean_layer.weight f4 [2, 256]
0.38009286 -0.029290128 0.11899642 0.90515506 -0.06765834 0.34364375 0.026118036 -0.26807225
0.030074885 -0.020476978 -0.28890723 -0.054504443 -0.109357975 0.031402018 -0.2980955 0.063389465
0.2713942 0.067658454 0.45742488 -1.3144184 0.045242954 0.9664607 -0.0026995381 -0.02294443
-0.17334646 0.64990973 0.01682268 -0.25288814 0.97493905 0.0022918067 0.40330845 -0.081009
-0.012262365 0.014613868 -0.05815672 0.06835199 0.18995455 -0.052868944 -0.013811364 -0.21095657
0.09451421 -0.35356084 -0.009214363 0.32559857 -0.0024366286 -0.043668266 0.028058406 0.0026500162
0.42230147 -0.026064463 0.46777755 -2.211472 -0.008683529 -0.028336408 -0.016196877 0.008518721
0.007990893 0.3489521 -0.05228511 -0.35932198 -0.503607 0.06508805 0.15284044 0.013436395
0.027754482 -0.044664957 -0.098889075 0.00034484416 0.01946133 0.6391477 -0.73802334 -0.050700136
0.021508604 0.010490002 -0.0008109833 0.07067746 -0.009209765 -0.038983602 0.41627344 -0.5319112
0.027900612 0.009009928 0.64424986 0.06441257 0.19387828 -0.05696574 -0.0878459 0.089590594
-0.014447411 -0.030379945 0.15419713 0.0194068 0.65832645 -0.32746482 -0.0012059656 0.40717408
-0.31369522 0.5094621 -0.049808953 1.0307945 0.07956538 -0.4559722 0.048286162 0.7711506
0.26572746 -0.0667886 -0.00037628456 0.009709049 0.018736852 -0.008603445 0.2362441 -0.041420843
0.17560668 -0.7653462 -0.04247067 -0.0022904233 0.0040385146 -0.964901 0.046933226 1.4806036
0.015135416 0.053653605 -0.07186481 -0.019819986 -0.610531 0.03806919 0.31457788 -0.05705196
0.020696644 0.23268266 0.015210678 -0.021602696 0.0018326488 -0.026040252 0.008928909 -0.017611613
0.03388537 -0.1306985 -0.81815434 0.042138025 -0.044194132 -0.090494834 -0.012867218 -0.025431182
-0.004961534 0.00896347 0.055465773 0.023215773 -0.042167526 -0.04614518 0.43757525 0.04133266
-0.011987651 0.3545876 -0.23583442 -0.0023505283 0.42117918 0.026190689 -0.525426 -0.0054265535
-0.046423737 0.03477054 0.6306024 -0.08538647 0.02285029 0.05386148 0.013681849 0.059724618
0.05998361 0.29237464 0.27209342 -0.4564022 0.01563581 -0.08861796 0.009880211 -0.36519352
-0.017738262 0.03807284 0.030917041 -0.13328628 -0.024977475 -0.019764058 0.051872745 0.020174837
0.0077247154 -0.685315 1.368304 -0.6395522 1.191727 -0.4133493 0.013635974 0.12712665
0.022542996 0.092752315 -0.98381644 0.07579716 0.008173973 -0.0735826 -0.024207389 -0.1146605
-0.009285544 0.037161108 0.45161784 0.011391151 -0.019269768 -0.5569676 0.23317438 -0.10375306
0.055082604 -0.050486296 0.039966732 0.005262563 -0.06341928 -0.001404344 -0.0029336058 -0.022668298
-0.0003245809 0.0002060937 0.37718603 -0.015000195 -0.24828567 0.656339 -0.0010947925 -0.8013164
0.7549614 -0.7244479 0.005904081 -0.07598625 0.5212352 0.007404279 0.2410834 -0.012082417
0.13598622 0.006661873 -0.059857633 -0.6974384 0.21692304 -0.37456793 0.40866375 -0.45809668
-0.31193244 0.03483699 -0.0499439 -0.029903095 -0.9185498 0.02528202 -0.27757257 0.03861205
-0.019217147 0.027003504 0.019359369 0.02888243 -0.19390452 0.26515692 -0.414982 0.25629205
00000000: 889b c23e daf1 efbc 65b4 f33d 3eb8 673f
00000010: 7590 8abd 13f2 af3e 7ef5 d53c c440 89be
00000020: 9b5f f63c 56bf a7bc a6eb 93be 0d40 5fbd
00000030: 13f7 dfbd 679f 003d f99f 98be 56d2 813d
00000040: 2ef4 8a3e 8490 8a3d 9833 ea3e dd3e a8bf
00000050: ad50 393d f869 773f bcea 30bb f5f5 bbbc
00000060: bc81 31be 7c60 263f b8cf 893c 8e7a 81be
00000070: 9b95 793f 2332 163b 727e ce3e 0ce8 a5bd
00000080: 16e8 48bc 016f 6f3c be35 6ebd 21fc 8b3d
00000090: 7283 423e 1b8d 58bd 0f49 62bc 0005 58be
000000a0: ab90 c13d ed05 b5be d7f7 16bc dbb4 a63e
000000b0: d8af 1fbb 7fdd 32bd beda e53c e5ab 2d3b
000000c0: e637 d83e 2485 d5bc 8a80 ef3e c288 0dc0
000000d0: 5c45 0ebc c121 e8bc 50af 84bc 1b92 0b3c
000000e0: 3cec 023c daa9 b23e e928 56bd 0df9 b7be
000000f0: 63ec 00bf e24c 853d 3482 1c3e 5324 5c3c
00000100: 5e5d e33c 9af2 36bd 5b86 cabd 33cc b439
00000110: 5e6d 9f3c 2f9f 233f 19ef 3cbf f2aa 4fbd
00000120: d032 b03c 42de 2b3c 2b98 54ba 58bf 903d
00000130: 8ee4 16bc 45ad 1fbd cb21 d53e 552b 08bf
00000140: d38f e43c 619e 133c 8fed 243f bdea 833d
00000150: 0788 463e e854 69bd 8de8 b3bd 467b b73d
00000160: d5b4 6cbc 5ddf f8bc dae5 1d3e 02fb 9e3c
00000170: 1588 283f 78a9 a7be 7e11 9eba 1f79 d03e
00000180: a99c a0be 1c6c 023f 7904 4cbd 13f1 833f
00000190: 2df3 a23d 3075 e9be b6c7 453d 206a 453f
000001a0: 6e0d 883e 76c8 88bd 0f48 c5b9 b412 1f3c
000001b0: 077e 993c 77f5 0cbc f9e9 713e e7a8 29bd
000001c0: 3dd2 333e bbed 43bf baf5 2dbd ed1a 16bb
000001d0: 8455 843b c003 77bf 0e3d 403d 6b84 bd3f
000001e0: 89fa 773c e2c3 5b3d dc2d 93bd 865d a2bc
000001f0: c24b 1cbf 70ee 1b3d 5a10 a13e 51af 69bd
00000200: 028c a93c 5d44 6e3e 3536 793c 23f8 b0bc
00000210: 7d35 f03a 5e52 d5bc 8f4a 123c 3b46 90bc
00000220: 63cb 0a3d d4d5 05be 9072 51bf ec98 2c3d
00000230: e804 35bd 5b55 b9bd 06d1 52bc 0e55 d0bc
00000240: 5d94 a2bb 85db 123c 1430 633d 012f be3c
00000250: dbb7 2cbd ba02 3dbd dd09 e03e 6f4c 293d
00000260: da67 44bc 828c b53e 947e 71be 520b 1abb
00000270: cca4 d73e db8d d63c 5182 06bf 3bd1 b1bb
00000280: d126 3ebd 8e6b 0e3d 296f 213f 1adf aebd
00000290: 8830 bb3c db9d 5c3d d629 603c cda1 743d
000002a0: 60b1 753d 21b2 953e d44f 8b3e 8dad e9be
000002b0: ac16 803c 557d b5bd 9ce0 213c a5fa babe
000002c0: d54f 91bc 44f2 1b3d bc45 fd3c 337c 08be
000002d0: 909d ccbc 3ce8 a1bc 8478 543d b345 a53c
000002e0: 9c1f fd3b ce70 2fbf 9624 af3f b1b9 23bf
000002f0: 838a 983f 85a2 d3be 6c69 5f3c 7d2d 023e
00000300: 17ac b83c edf4 bd3d 65db 7bbf 8b3b 9b3d
00000310: 21ec 053c 79b2 96bd 934e c6bc 20d3 eabd
00000320: 6522 18bc 3f36 183d 743a e73e f3a1 3a3c
00000330: a2db 9dbc 6e95 0ebf 44c5 6e3e 7c7c d4bd
00000340: 4c9e 613d b8ca 4ebd 28b4 233d 9471 ac3b
00000350: f8e1 81bd f711 b8ba bd41 40bb deb2 b9bc
00000360: 832c aab9 db1a 5839 871e c13e 61c3 75bc
00000370: 993e 7ebe d505 283f 247f 8fba 1223 4dbf
00000380: 2645 413f 6b75 39bf 0577 c13b ae9e 9bbd
00000390: ac6f 053f 989f f23b 91de 763e 54f5 45bc
000003a0: f93f 0b3e d74b da3b 472d 75bd 538b 32bf
000003b0: 1321 5e3e 5ec7 bfbe 603c d13e a68b eabe
000003c0: 9cb5 9fbe 3bb1 0e3d fa91 4cbd 56f7 f4bc
000003d0: 1426 6bbf 3d1c cf3c fe1d 8ebe ab27 1e3d
000003e0: 476d 9dbc 7436 dd3c 8a97 9e3c d99a ec3c
000003f0: e88e 46be a6c2 873e 8578 d4be b638 833e

mean_layer.bias f4 [2]
-0.002057856 -0.054245036
00000000: 18dd 06bb 0b30 5ebd

log_std_layer.weight f4 [2, 256]
-0.35365465 -0.076371565 0.04902386 -0.44925237 0.02744531 0.15713795 0.32862794 0.039039783
0.10233638 -0.02714235 0.09755909 0.08141333 0.16505463 0.016990745 0.3219729 0.016142959
-0.23960039 0.021972734 -0.43401974 1.0575396 0.06782114 1.2567927 0.100776695 0.00090298476
-0.45042306 -0.27488846 0.06209099 0.08810926 0.59058166 0.040154096 0.3733497 0.03808286
-0.20629086 -0.10501583 0.014223525 0.033631504 -0.4179573 -0.018736143 0.06418888 0.02014197
-0.30444762 0.17614697 -0.010116924 0.034949917 0.016767131 -5.224494e-06 0.18206988 0.06971952
0.12265842 0.04054589 -0.14526585 2.0734394 0.04772168 -0.0741156 0.45190823 -0.02811749
-0.018944401 0.5717233 0.04594582 0.14196314 0.24274802 -0.0134544065 -1.1825762 0.016813012
0.1550325 0.035949484 0.26566106 -0.018980563 0.07978197 0.5299774 0.3513832 -0.019279687
-0.75735176 0.034732427 -0.019567257 -0.08230551 0.007018853 -0.0802335 -0.03067231 0.567209
-0.01446442 -0.016427921 0.043300126 -0.026300378 -0.41278708 0.030904386 0.0059322356 0.045224566
0.013757892 0.028006215 -0.037692025 0.0047851647 0.49218065 0.17235148 0.012730546 0.5499665
0.26596618 0.46354017 0.03572878 0.8584146 0.028635675 -0.011387257 -0.9636179 0.5358033
-0.46037617 0.6976073 0.02578558 -0.022496007 -0.01707404 0.0165975 0.029065441 0.08606158
-0.5024078 0.49005526 0.0960054 0.011769923 -0.027712638 0.0007524045 0.0008455518 0.6451706
0.042361807 0.03508651 -0.050383445 -0.09919978 0.23129791 -0.001302116 0.047419496 -0.077289045
0.028155752 0.19393447 0.004564387 -0.051952563 -0.04369219 0.040486008 -0.037886333 0.02739923
0.029257102 0.003837277 0.050765965 -0.032017145 0.035962 -0.36752763 0.013731528 -0.29858297
-0.047709193 -0.9961463 0.07190981 -0.26703164 0.0533851 -0.052723274 0.12736131 0.024412157
0.01866478 0.5297262 -0.32271683 0.014909183 -0.062831804 0.35288474 0.15499344 0.040333666
0.030815667 -0.06796542 0.530215 -1.0314647 0.4966936 0.0076379105 -0.009251667 -0.06741518
0.04649113 0.026032476 0.18456861 0.3028738 0.00033265623 -0.014321739 -0.0632584 0.35405964
-0.014033603 0.052274957 -0.023078404 -0.41595754 0.13367718 0.060573258 -0.0042327903 0.01175863
0.034456387 0.043255176 0.4751361 0.39930218 0.49918926 -0.22601916 0.014720922 -0.5077281
0.017305879 0.040711533 0.9784499 0.13963309 -0.056575175 0.07840713 0.10288286 0.017220376
0.008634714 0.038576037 -0.20774703 -0.038784314 -0.018487545 0.08014535 -0.19065726 0.5010571
0.092585646 -0.032309648 -0.030646842 0.17278707 0.65220034 -0.035982415 0.07136458 -0.027315304
-0.01291005 -0.050696123 -0.24814767 0.0037235122 -0.003656863 0.35951528 -0.020496443 0.35314488
0.38073543 0.1411885 0.029709816 -0.031161986 0.06529859 0.072241075 -0.14466082 0.054018326
-0.021939153 -0.0023818954 -0.027894385 0.6282201 0.080573775 0.21221165 -0.19129346 0.40756312
0.026664738 0.0076286313 0.054668695 -0.0090193795 0.32853317 0.1825099 -0.04899275 -0.060629148
0.026115958 0.059057187 -0.06144382 0.005701282 0.1711725 0.14441931 -0.27059627 -0.015526203
00000000: 3912 b5be b268 9cbd 3ecd 483d 6804 e6be
00000010: fdd4 e03c c5e8 203e ec41 a83e 2ee8 1f3d
00000020: bc95 d13d a259 debc 0fcd c73d 08bc a63d
00000030: 1504 293e 2d30 8b3c a2d9 a43e 3d3e 843c
00000040: ce59 75be 2a00 b43c d637 debe 755d 873f
00000050: cfe5 8a3d 95de a03f 0364 ce3d 48b6 6c3a
00000060: da9d e6be 2ebe 8cbe 1f53 7e3d a172 b43d
00000070: 5c30 173f 9f78 243d b127 bf3e c6fc 1b3d
00000080: e93d 53be 8a12 d7bd ca09 693c 30c1 093d
00000090: 80fe d5be 8a7c 99bc 7675 833d c600 a53c
000000a0: 8fe0 9bbe df5f 343e 74c1 25bc a527 0f3d
000000b0: 395b 893c 104e afb6 8770 3a3e 1cc9 8e3d
000000c0: 5634 fb3d 7213 263d 92c0 14be 3bb3 0440
000000d0: cf77 433d ebc9 97bd 8460 e73e a656 e6bc
000000e0: 4a31 9bbc 755c 123f af31 3c3d c95e 113e
000000f0: f092 783e df6f 5cbc a85e 97bf 71bb 893c
00000100: d7c0 1e3e c43f 133d ba04 883e 207d 9bbc
00000110: bb64 a33d 99ac 073f 80e8 b33e 6ff0 9dbc
00000120: cee1 41bf 9743 0e3d 834b a0bc cb8f a8bd
00000130: 68fe e53b 7651 a4bd 7f44 fbbc 9c34 113f
00000140: 2dfc 6cbc d993 86bc 795b 313d e473 d7bc
00000150: d458 d3be 322b fd3c 3363 c23b 653d 393d
00000160: c868 613c 4a6d e53c f462 1abd dfcc 9c3b
00000170: 1aff fb3e e87c 303e c893 503c 9bca 0c3f
00000180: b82c 883e 2355 ed3e 5758 123d 0fc1 5b3f
00000190: 5d95 ea3c 9e91 3abc aaaf 76bf 682a 093f
000001a0: 6db6 ebbe 6496 323f 483c d33c 8c49 b8bc
000001b0: dbde 8bbc 7bf7 873c a61a ee3c 0e41 b03d
000001c0: cc9d 00bf 86e8 fa3e 7b9e c43d a3d6 403c
000001d0: 9d05 e3bc 033d 453a 05a8 5d3a e729 253f
000001e0: 9383 2d3d dfb6 0f3d df5e 4ebd 4129 cbbd
000001f0: 5cd9 6c3e c3ab aaba f23a 423d b849 9ebd
00000200: e4a6 e63c c296 463e da90 953b 36cc 54bd
00000210: 95f6 32bd a8d4 253d b32e 1bbd 5a74 e03c
00000220: 97ac ef3c d37a 7b3b f9ef 4f3d 6924 03bd
00000230: e44c 133d 952c bcbe 34fa 603c dedf 98be
00000240: b76a 43bd 7203 7fbf 7345 933d 5fb8 88be
00000250: 56aa 5a3d 5cf4 57bd 016b 023e 01fc c73c
00000260: e1e6 983c 239c 073f 243b a5be a545 743c
00000270: f6ad 80bd 4fad b43e 9ab6 1e3e ea34 253d
00000280: 2371 fc3c 7431 8bbd 2cbc 073f 0907 84bf
00000290: a04e fe3e 7047 fa3b 4e94 17bc f810 8abd
000002a0: 7c6d 3e3d 0f42 d53c 8eff 3c3e 4612 9b3e
000002b0: 5d68 ae39 baa5 6abc 9f8d 81bd 4e47 b53e
000002c0: 32ed 65bc 441e 563d ec0e bdbc 63f8 d4be
000002d0: ace2 083e aa1b 783d 38b3 8abb 45a7 403c
000002e0: 2422 0d3d 572c 313d 0a45 f33e 5671 cc3e
000002f0: bc95 ff3e 9171 67be 0630 713c 78fa 01bf
00000300: 0fc5 8d3c 23c1 263d b17b 7a3f fafb 0e3e
00000310: 5fbb 67bd eb93 a03d 40b4 d23d bf11 8d3c
00000320: 9e78 0d3c e801 1e3d a3bb 54be 4ddc 1ebd
00000330: 3173 97bc 3f23 a43d a83b 43be 4745 003f
00000340: 8b9d bd3d 1f57 04bd 160f fbbc 18ef 303e
00000350: 9af6 263f 4c62 13bd 9827 923d 58c4 dfbc
00000360: ad84 53bc bda6 4fbd 6c1a 7ebe 2b06 743b
00000370: fba7 6fbb 6312 b83e 28e8 a7bc 68cf b43e
00000380: c1ef c23e b893 103e 0062 f33c 6c47 ffbc
00000390: 44bb 853d 21f3 933d f721 14be 5242 5d3d
000003a0: bdb9 b3bc 9319 1cbb c482 e4bc 08d3 203f
000003b0: dd03 a53d 034e 593e 6fe2 43be 1dac d03e
000003c0: 0270 da3c 99f9 f93b 48ec 5f3d 05c6 13bc
000003d0: 8035 a83e e0e3 3a3e 9fac 48bd 4556 78bd
000003e0: 22f1 d53c f3e5 713d 84ac 7bbd d2d1 ba3b
000003f0: d847 2f3e a8e2 133e 988b 8abe 9e61 7ebc

log_std_layer.bias f4 [2]
-0.86860484 -2.7040923
00000000: e35c 5ebf d90f 2dc0
