eval_files/models/highway/models/_critic.pth (torch, 601345 bytes, 10 tensors)

l1.weight f4 [256, 33]
00000000: 2662 17be 2f3c 9dbd d0fb 4abd b320 223e
00000010: db83 0bbe 9b56 0bbe c84c 89bd 1629 1d3e
00000020: 46f6 0bbd 3e61 9d3d 4264 263d 5030 c5bd
00000030: 46b4 af3c 3453 1a3e b5f7 6abd 6dce 8c3d
00000040: 62e0 99bd 607d 9c3d 4828 dabd 16bc 12bd
00000050: 6b98 febb 2716 1b3c 7d27 f53d 823c fc3d
00000060: cd20 fabd 2e2e 22be 034d fc3d 0137 d03d
00000070: 3be4 09be 9a5e 2f3e 72d4 fc3d 6025 983d
00000080: df05 dfbd 22e3 21be 0f8f a0ba ed8a e0bc
00000090: 6c7a 383d 1e10 2ebe b49c 6fbd 7aa2 063d
000000a0: d8a5 acbd c50b e7bd 10f0 423d 96ef d3bd
000000b0: 0422 e03c 9ad7 d63d 52df 0a3d ed96 ce3d
000000c0: 1eae 12bd a153 29be 81da 2e3e 7150 2fbd
000000d0: 5403 8b3d 74d3 1fbe 4f65 8ebd 5090 5e3c
000000e0: 05a1 d53d f100 eabd 7dc9 e63d c9b8 4fbd
000000f0: 8fdf 8dbc 7d93 42be a959 da3d b9c2 04bd
00000100: 9c96 e2bc 1bf7 9bbc 1c8c a0bc 84f0 0e3f
00000110: c55e fb3d 51ad 9cbd 0a17 a13c d4e8 57be
00000120: 6f40 07be c4e9 e3bf 5794 d4be 1a6d 893c
00000130: cdaf 2e3e 92ca 3c3f 0a9f ce40 e0d0 6f3e
00000140: d9f1 f93e a87a 71be b08e 39bf 3f3f 49bd
00000150: b35f bebe 2a29 91bf ca4d a7be 98a9 09be
00000160: debd e5bd 956e 3b3f 1f3f 26c0 2125 27bc
00000170: a7e6 853f 5d9c 403f acef 16c0 9348 a63e
00000180: 4dd0 8cbf 2b4d 29be 7ece 78bc 04fa 85be
00000190: 34c9 35bf 74fe 083e 19d1 b23c 7e78 95bd
000001a0: 8855 47bf 38b1 e83e 5947 e43e e4a8 86bf
000001b0: 49f8 c53e ef75 a2bf 4369 dd3f a4ee 15c0
000001c0: f6ed 39be 7d3b e83d 020a a8bc a4a8 2a3e
000001d0: 00e4 55bf e996 ae3e 21de d83f 30fb aa3f
000001e0: 3c55 313e 67a5 083f c84d 65bf 1e6b babf
000001f0: 517b 443e 726e 9e3f d052 613f bca6 08c0
00000200: b285 083f afa0 b53c 35f8 e53e f6ac 8bbf
00000210: 5346 2c3d a119 75bf ce57 32be 043f 96be
00000220: 1a02 113e 8a01 313d 34ab 01be 4b99 8e3f
00000230: caee 48bf f24d a23e f071 50bf 431c aabf
00000240: ef2a bb3f 5de8 84bd 6ee4 b73d c74c 55bf
00000250: a32d 09c0 16fb 06bf 2914 4abd d9a1 8c3f
00000260: 0eb3 b0be 2579 863e 53fa cc3e e148 7d3f
00000270: 11c4 2b40 50c1 9a3f 1ba3 a5bf 0dfe 7dbf
00000280: 9935 b23e fda7 ddbd 3106 953e 2299 33bf
00000290: f374 75bf 7c05 5dbc f5a3 5d3e 2747 72be
000002a0: 79c7 843d 2422 c0bd 38e5 82bd 0496 2e3e
000002b0: ac50 713f 1f9d bec0 213d ff3e 8234 39bf
000002c0: bf86 16bf 2417 ae3e da95 52be 793e 3fbe
000002d0: 8196 9cbf 203c 10c0 1169 0ebe 9b35 30bf
000002e0: c3cc 04bf 8a80 833e c25a 84bd 9c0e eabd
000002f0: 6fe9 a43f d6ac 9c40 0e69 87be 4a30 23bf
00000300: 1113 bd3e 1959 12be 0301 cebd 2b97 913f
00000310: c016 07bd 7ff7 d23e f0b2 ecbc 1203 f8be
00000320: 4367 063e c0a5 9ebe 7510 1dbd ca18 12bd
00000330: 5d94 873e f52e 213f 3bf3 1fc0 2287 f43e
00000340: 5209 4abf b078 2bbe f967 c540 1573 5dbf
00000350: bc8e 013f 6e0f 7e3e 5de2 083e 4f0a f93f
00000360: fce4 3bba 3e7a 8fbd 232a df3e 31ed ef3e
00000370: c2fd 8abe cd63 39c0 d16a ca3f 563c 053f
00000380: 8847 233e 1fd5 c1be 75d1 173f fd64 ae3e
00000390: c898 803f 1599 b13e 5383 0ac0 ad5e 21bd
000003a0: caa2 d93f f8ff 803a 9567 85be a992 333e
000003b0: 7ba1 6bbe 10c5 34be 99f1 8cbd 03b6 d93f
000003c0: cc0d ce3d f1a4 833f c0bf 5dbf 7631 2440
000003d0: 7097 5dbf 896f 0fbf d40e babe 71b3 2d40
000003e0: 4c25 0d3e 481c 533f 6d47 5dbf 31cf f03f
000003f0: 1955 983e d886 c0be 87f1 ed3e 6f91 6940
-0.14783534 -0.07677495 -0.049556553 0.15832786 -0.13624518 -0.13607256 -0.06704098 0.15347704
-0.03417041 0.07684563 0.040622957 -0.096283555 0.021448266 0.15070802 -0.057365138 0.0687531
-0.07513501 0.07641101 -0.10652214 -0.035823904 -0.0077696345 0.009465731 0.119704224 0.123162284
-0.122132875 -0.15837929 0.12319376 0.10166741 -0.1346597 0.17125931 0.12345208 0.07429004
-0.10889792 -0.158093 -0.0012249666 -0.027409995 0.045038626 -0.16998336 -0.058499053 0.032869793
-0.0843007 -0.11281542 0.047592223 -0.10348432 0.02735997 0.104903415 0.03390438 0.100873806
-0.035810582 -0.16535808 0.1707554 -0.042801324 0.06787744 -0.15608007 -0.06952917 0.0135842115
0.10431103 -0.11425961 0.112688996 -0.050713334 -0.017318515 -0.19001575 0.106616326 -0.032412264
-0.027659707 -0.019038728 -0.01959806 0.5583575 0.12273935 -0.07650245 0.019664306 -0.2108491
-0.13208173 -1.7805715 -0.41519424 0.016775656 0.1705925 0.737466 6.456914 0.23419523
0.48817328 -0.23581946 -0.7248335 -0.04913258 -0.37182388 -1.1340687 -0.32676536 -0.13443601
-0.11217855 0.7321561 -2.5976026 -0.010201723 1.0461015 0.7523859 -2.3583784 0.32477245
-1.1001068 -0.16533343 -0.01518595 -0.2616731 -0.71010137 0.13378316 0.021828221 -0.07298373
-0.77864885 0.45447707 0.44585684 -1.0520291 0.3866599 -1.269224 1.7297748 -2.3426905
-0.18157181 0.113394715 -0.020512585 0.16665894 -0.83551025 0.3409951 1.6942788 1.3357906
0.1731767 0.53377384 -0.8957181 -1.456394 0.19187666 1.2377455 0.88016987 -2.1351767
0.53329 0.022171346 0.4491593 -1.0912158 0.042059254 -0.9574223 -0.17416307 -0.29344952
0.14160958 0.04321436 -0.12662965 1.1140531 -0.78489363 0.31700093 -0.81423855 -1.3289875
1.4622477 -0.06489632 0.089791164 -0.8332028 -2.1434104 -0.52726877 -0.049335632 1.0986892
-0.34511608 0.262643 0.40034732 0.9893933 2.683842 1.2090244 -1.2940401 -0.99215776
0.34806517 -0.10823057 0.29106286 -0.7015554 -0.95881575 -0.013490077 0.21644576 -0.23659955
0.06483359 -0.09381512 -0.06391376 0.17049414 0.9426372 -5.95668 0.49851325 -0.72345746
-0.58799356 0.3400203 -0.20564976 -0.18676175 -1.223343 -2.2536697 -0.13907267 -0.68831795
-0.5187494 0.25684005 -0.06462623 -0.11428568 1.2883738 4.896098 -0.26447338 -0.6374556
0.3692861 -0.142918 -0.10058787 1.1374258 -0.03298068 0.4120445 -0.028893918 -0.48439842
0.13125329 -0.30985832 -0.038345773 -0.035668172 0.2648038 0.62962276 -2.4992206 0.47759348
-0.7892047 -0.16745257 6.168942 -0.86503726 0.5060842 0.24810573 0.133676 1.9456271
-0.0007167605 -0.07005738 0.43586835 0.4686065 -0.27146727 -2.8967164 1.5813848 0.5204519
0.15945256 -0.3785791 0.5930398 0.34061423 1.0046625 0.34687105 -2.1642654 -0.03939693
1.7002804 0.000984191 -0.2605559 0.17536415 -0.23010819 -0.17653298 -0.068820186 1.700867
0.10061225 1.0284711 -0.8662071 2.5655189 -0.865592 -0.56029564 -0.36339438 2.7140772
0.13783759 0.8246503 -0.8643711 1.881323 0.29752424 -0.37602878 0.46473333 3.6495016

l1.bias f4 [256]
00000000: 7f6a 74bd 65da c3bd aa07 373e 92c5 eabc
00000010: 97f8 993d f187 07be 5326 babd 72b5 ec3c
00000020: 3531 a1bc b0f9 8abd 9c12 cc3c 360e d93d
00000030: ad38 c33c 86ac eb3d e7c9 a03c 9a5f 87bd
00000040: 9d6e 27be 346e b0bd d17e 5ebe 177a 8b3d
00000050: 0ca2 0cbe 376f 74be e7b9 aabc efc9 95bd
00000060: 7eed 8f3d ded9 47be 29e3 193d 76c1 9f3c
00000070: 3b10 383e 4258 65be 1e99 e03d 95ff d73d
00000080: 4a79 62be 7490 fd3d ac33 243e eb41 86be
00000090: 5218 03bd df36 72be 91e9 7dbd 2989 3fbe
000000a0: 5382 bebd 8fff d33a f685 5d3d e338 94be
000000b0: 3d9d 08be 36ab cabd 377b 72bd bce8 46be
000000c0: a9d3 a5bd 4272 1bbc 2fa8 39be 4c0b 443c
000000d0: 557e 25be 57b9 f53c 4a1e 9fbd fc9e 58bd
000000e0: 841e edbd 8172 f53d c030 853d 9aae 0fbd
000000f0: 608a 53be afe4 53be e661 edbd 1152 5cbe
00000100: ef4d 7cbe 2942 283e 72e3 92bb 2d61 953d
00000110: cd49 9abd 2317 a33c 5d32 83bb 269e 3bbe
00000120: 901a 61be 2714 51be 15bc 473d 033b b5bd
00000130: e219 fb3d 3803 063e 8ef7 0abe e835 0b3c
00000140: b84b 6cbd bfc8 3fbe 29c7 5abd 021e e13c
00000150: 9b1e 2dbe e7dc 473e 1526 edbd a8b6 f43d
00000160: 74a5 8ebd 84f0 93bb c525 e7bd ad49 413c
00000170: d56c efbb cef2 1fbd 753d 2cbc 48d9 32bc
00000180: 48d6 e5bd 26fc 31be 95e3 9ebe 24f6 08be
00000190: f0f6 8bbd a007 41bd 7e1a 47be 1896 c1be
000001a0: 385a 94be 0a8e 0cbe cc60 4dbd 787c 20be
000001b0: 0a9a c4bd 367b f53d bfb0 86be ba26 b03d
000001c0: dc01 03be ddcb 82be b11b f73d 0fdb 2d3d
000001d0: e21d 04be c792 83be 9ae1 35be c117 d4bd
000001e0: 8946 223d 13eb 88be 793c 5b3b 6e3e 4dbd
000001f0: 5522 9c3d cfc7 023e c2d3 3cbd 3591 cd3c
00000200: 7446 f5bd 5d11 883b 04a6 ce3d 156a 483d
00000210: eeef 5a3d feb4 8b3e 0b41 493d 3e32 a6be
00000220: e4f0 64be 818c 1bbe 6190 9ebd cbea 50be
00000230: 0490 1d3e 1fe8 b43d 1aae 15be 4805 a83d
00000240: b645 fabd 3232 debc d6d3 87bd 90e5 0bbe
00000250: 5946 9b3d 7f11 903d bc88 4ebd ff03 73bd
00000260: f2f3 1cbe 156c 1b3d dc8d 913d eb07 623a
00000270: 7f34 21bd 3550 0abe ee45 873d 8b50 bcbd
00000280: f378 82be c22d 913d 8eb2 f13b de5b 48bd
00000290: 93a9 0d3d 2b5f debd 7249 3abe 91d0 c2be
000002a0: a899 60be 8c5d 1bbe 1811 da3c 382a c6ba
000002b0: e872 933d 850b 0d3e a41d 11bd 72a2 b43c
000002c0: 1d12 c3bd 34ca 14bd 0967 fe3c 5791 b33d
000002d0: 6828 403d 4838 533d 1fa9 75bd 073b c53d
000002e0: 0520 1abd 49fe 973d 2ac8 853d b144 303e
000002f0: 0acc 163d f65c bdbd b074 43bc bf77 f2bc
00000300: a987 683d 8d67 a1be 9d18 0abd a383 ca3d
00000310: 32af 60be 5793 0dbe 69f8 fbbd ab83 3b3d
00000320: bc4b afbd 155f cbbc 3edd 90be 7a87 8dbc
00000330: e09b 1abe 6868 cdbd e8e7 023e 41e5 743d
00000340: c3f3 2abe 7fc0 3dbe 2baa db3d 3276 043d
00000350: 7463 98be dd60 a0be ec71 a4bd 0f42 cbbc
00000360: 928a 3abd 716c 18be 411c 983d edb8 643e
00000370: df7f df3d 09f8 ddbd 38c0 08be e2f7 973c
00000380: c09e 1cbe 9049 1c3e 0573 95bd 166c 42be
00000390: 10bb 3ebc b654 87bd 910e 4dbe 1199 ad3d
000003a0: 495b e0be 9085 aebc 30d2 1ebd 5223 3a3d
000003b0: fcb3 9c3d 9719 3abe 7df8 8b3c 3c4a 46be
000003c0: b766 48be 6892 a6bd 26d0 85bd 54d5 23bd
000003d0: 912a ccbd 0877 93bd 9c1d 4fbe f6a9 88bd
000003e0: d6fe f8bd c54f 933d ae4a 803d 02b8 163d
000003f0: 6896 fc3d 2be6 bfbd 4dc7 70bd 1ccf b9bd
-0.059671875 -0.0956314 0.17874017 -0.028658662 0.07518118 -0.13235451 -0.09089341 0.028895114
-0.019676784 -0.06785905 0.024911217 0.10598414 0.023830736 0.115075156 0.019627525 -0.066100314
-0.1635079 -0.086147696 -0.21728064 0.06810396 -0.13733691 -0.2387055 -0.020840598 -0.073139064
0.0702772 -0.19516703 0.037570152 0.019501429 0.17974941 -0.22396949 0.10966705 0.10546795
-0.2211658 0.12381068 0.16035336 -0.26222166 -0.032005616 -0.23653744 -0.061990324 -0.18704666
-0.09302201 0.0016174185 0.054082833 -0.2894965 -0.13341232 -0.09895937 -0.059199538 -0.19424719
-0.080970116 -0.00948769 -0.18130563 0.011965584 -0.16161473 0.029995603 -0.07769449 -0.052885994
-0.11578086 0.119847305 0.06503439 -0.035078622 -0.20658255 -0.20692705 -0.11590938 -0.21515681
-0.24639104 0.16431488 -0.00448268 0.072939254 -0.07533608 0.019908493 -0.0040038065 -0.18322048
-0.21982789 -0.20417844 0.048763353 -0.08849146 0.12260796 0.13087165 -0.13570997 0.008496739
-0.0576894 -0.18728922 -0.05341259 0.02748013 -0.16906206 0.19517861 -0.11579529 0.119489014
-0.069651514 -0.0045147557 -0.11286501 0.011797351 -0.007306675 -0.039049916 -0.010512699 -0.010916062
-0.112225115 -0.17381343 -0.31033006 -0.13375145 -0.06834209 -0.047126412 -0.194437 -0.37809825
-0.2897508 -0.13726059 -0.05014114 -0.15672481 -0.09599693 0.11986391 -0.26306722 0.086011365
-0.12793678 -0.2554616 0.120658286 0.04244524 -0.12902024 -0.2569792 -0.17761841 -0.10356093
0.03961805 -0.26741847 0.0033452793 -0.050108366 0.07623736 0.12771533 -0.046100385 0.025093654
-0.119763285 0.0041524605 0.10090259 0.048929293 0.05345147 0.27286524 0.049134295 -0.32460207
-0.22357517 -0.15190317 -0.07742382 -0.20402066 0.15386969 0.08833336 -0.14617196 0.08204132
-0.122203276 -0.027123544 -0.066322014 -0.1366179 0.07581777 0.07034587 -0.05042337 -0.059329983
-0.15327433 0.037944872 0.07107136 0.00086223957 -0.039356705 -0.13507159 0.06605135 -0.0919505
-0.25482902 0.07088806 0.0073760217 -0.048915736 0.034585547 -0.108579956 -0.1819208 -0.3804975
-0.21933615 -0.15172404 0.026619479 -0.0015118783 0.07199651 0.13773926 -0.035428658 0.022050116
-0.09524939 -0.03632565 0.03105499 0.08767956 0.046913534 0.051567346 -0.05997574 0.09630399
-0.037628192 0.07421548 0.06532319 0.17213704 0.03681568 -0.092462465 -0.011929676 -0.029598115
0.05677 -0.31524315 -0.03371488 0.09888389 -0.21941832 -0.13825737 -0.1230324 0.045779865
-0.08559367 -0.024825612 -0.28293794 -0.017276514 -0.15098524 -0.100296795 0.12783778 0.059788946
-0.1669455 -0.18530463 0.10725816 0.032339282 -0.29763377 -0.313239 -0.080295414 -0.024811773
-0.045542307 -0.14885117 0.07427264 0.22336169 0.10913061 -0.108383246 -0.13354576 0.018550817
-0.15294933 0.15262437 -0.07297329 -0.18986544 -0.011641279 -0.06607954 -0.20025088 0.08476461
-0.43819645 -0.021303922 -0.03877467 0.04544384 0.07651517 -0.18173824 0.017086262 -0.19364256
-0.19570433 -0.081333935 -0.06533842 -0.039998367 -0.099690564 -0.07200438 -0.20226139 -0.066730425
-0.12157981 0.07192949 0.06264244 0.036796577 0.12333375 -0.09370073 -0.058783818 -0.09072706

l2.weight f4 [256, 256]
00000000: f095 c23c 83d6 8e3d c7db 003e 4e4b f1bd
00000010: 7f37 293e 9159 06bf f4ca 59be ce32 b83d
00000020: 0495 ac3d 5a94 cebd ce70 da3e c68e 3fbf
00000030: 283d 1a3e c794 84be bb3a 08bf 7617 abbe
00000040: e839 463d 6f4f 8ebf 1c84 f43d 852e 073f
00000050: b0c1 873c b2d9 cabe e201 89be 3c22 34bf
00000060: 9eed f5be 7fe5 7ebf 3f4b 26bc acfc 94bf
00000070: bd33 593d 03bf 85be fe5e 91bf 1c1b 133f
00000080: e1c2 b83e 1fea b6be 4a27 7f3f c646 403d
00000090: a15a 52bf beee 29be 3644 bfbf 92e8 c8bf
000000a0: 2181 3cbe 2cb6 a2be 99cf 77be aba0 9ebf
000000b0: f84d 53be 5a17 573e 9295 00bd 22ae fb3e
000000c0: 5089 5cbf af3c 9bbd 9d6f 4bbf 1214 f6be
000000d0: fd00 27bf e3f5 65bf adc9 1ebe 5ca8 2bbd
000000e0: c98f bfbe bf44 e03e e18a 2e3f a756 93be
000000f0: 6b49 16bf 64b0 d13e 76a5 313e cb2d a2bf
00000100: bd76 97bf 18e9 dabd 5a6b 8bbc 1a8b 173c
00000110: 74da 423f 878d fdbf a0db f0be b963 87bf
00000120: fec0 dfba ec5a ab3e a12d 883e 6c15 c3bc
00000130: 7e48 09be 8130 08bf 56e4 8c3d 245d 623e
00000140: abd1 3bbf 999e d2be c881 0bbd f4d8 d5be
00000150: 80be 78bc 5229 5fbf 4f9e 463e 264d 343c
00000160: abef 8d3c 97c7 ecbf 9f02 563e 2ab0 a2bc
00000170: fc34 b0be 922b 8d3e 270a 233e 45a3 6c3e
00000180: a7dd 91bd 12f3 8e3d 7a64 c7bd e2ee 29bd
00000190: db04 36be 39a1 87be a6c8 bbbf f139 bfbe
000001a0: d20b 5bbf 00a5 00bd 4234 9dbe a249 acbf
000001b0: 2604 d7be ff43 93bf c48e 53bf 83a6 b8be
000001c0: f1bf acbf 6e3c ca3e e69a 98be eead 463f
000001d0: a5f5 11bf 37ee 49bd 7385 23bd 4d96 0c3e
000001e0: 79ff f2be 035c 79bc 0e78 debf 290f 65bd
000001f0: 82fd 4bbf f42e 18bf 6869 1ebe f62f 56be
00000200: a82b 5bbd b7e8 59bd 4917 853e 5f4a debd
00000210: dd13 5fbd 3189 3bbf eaf9 cdbd 7f84 f3be
00000220: fd4e 9ebf c8a9 1bbf bb98 9fbd 88b0 92b8
00000230: a387 abbf e77c 96bf b99c 543d 84eb 153f
00000240: bcb7 c7be dcc4 ba3e 528b 423c cf11 ba3d
00000250: 3292 883e 7a27 423d dbcc bdbf a36e a13e
00000260: 120e 993c e80e 56be 8417 8bbf 5c41 953c
00000270: 3c93 033f 262a 79bf 7ab5 a938 a6c4 71bd
00000280: 9b89 7b3d 662b c03e c84d 15bf 35bc e0be
00000290: d092 03bf cb0a 64bf d38d 4ebf eca3 cdbe
000002a0: ab2c d7be a83c 523f 3b9e d73e 852a 8abf
000002b0: dda7 283f 0ec5 dfbc aea5 863e 0a38 7dbe
000002c0: 90ad fc3c 55d4 1a3e e706 75be 001c 5db9
000002d0: 052d 013f 820d dbbe bbdc 9fbf 981d e8bc
000002e0: 31c6 c8be 967b 02bf 3b99 13bf 4702 a93e
000002f0: 6ba3 1abe ce23 c2bd 3db8 3abc 1493 11bf
00000300: 5629 58bf e3f4 3ebf dcc8 c7bf d223 a6bf
00000310: 2da0 4abe a445 9abf 5ea7 9d3c f01b 33bf
00000320: 2099 a7bf 8978 003f 8a4b fdbe 86f1 053f
00000330: f078 a2bd 0652 c3bf dcd6 413d 80d9 7bbf
00000340: 41e1 0a3e de7c 943e b2ca 18be d59f b3bf
00000350: 9243 a5bf de0e 5c3e b937 0d3e e6b9 86bd
00000360: 3e0a 92bf 2023 93bf 5402 2ebd 3394 25bf
00000370: 74fb 81bf 60a6 47be db88 403f 3468 f43e
00000380: 7fb6 683e 29c2 a03e c13a 81bf 7d80 b4bc
00000390: bdb0 e0be 3108 a1bf eef8 edbe 4b42 803e
000003a0: 7f76 8abe f4e4 20bd 697c ec3c 9dc0 d0bf
000003b0: ab62 93be 051c cd3e d878 49bf d690 87bd
000003c0: 8e18 703e 5608 8b3e b252 2b3e a26d ed3e
000003d0: 96e1 323d 1c52 133e cea6 07bf dbe8 5ebf
000003e0: 8416 d23e fc4a 4abf df47 59bf 70ca 223d
000003f0: 381f c53c 84fe a4bd a772 6a3d c2a5 07bf
0.023753136 0.069745086 0.12583838 -0.11781941 0.16525076 -0.5248042 -0.21268827 0.08994065
0.0842686 -0.100868896 0.42664188 -0.7482723 0.15062392 -0.25894758 -0.53214616 -0.33416337
0.048395067 -1.1117991 0.1193926 0.5280536 0.01657185 -0.39619213 -0.2675925 -0.7036474
-0.4803285 -0.99568933 -0.010149776 -1.1639609 0.053027857 -0.26122293 -1.1357114 0.5746324
0.3608618 -0.35725495 0.99669325 0.046942495 -0.8216954 -0.16594979 -1.4942691 -1.5695975
-0.18408634 -0.3177961 -0.24200286 -1.2392782 -0.20635211 0.21005002 -0.03139264 0.4915629
-0.8614702 -0.07579934 -0.79467183 -0.48062187 -0.65235883 -0.8982832 -0.1550662 -0.041908607
-0.37414387 0.4380245 0.6818066 -0.28777048 -0.58705777 0.40954888 0.17348275 -1.2670225
-1.1833111 -0.1068899 -0.017018963 0.009249473 0.76114583 -1.9808816 -0.4704256 -1.0577308
-0.0017071066 0.33467805 0.26597312 -0.023813926 -0.1340656 -0.5319901 0.06879489 0.22105843
-0.733668 -0.41136625 -0.034059316 -0.41767085 -0.0151821375 -0.87172425 0.19396327 0.011004722
0.017326197 -1.849841 0.20899437 -0.019859392 -0.34415424 0.27572304 0.15921842 0.23109157
-0.07122355 0.06979956 -0.09735961 -0.041487582 -0.1777529 -0.2649019 -1.4670608 -0.37348893
-0.8556491 -0.031407356 -0.30703932 -1.3459971 -0.41995353 -1.1505126 -0.8263972 -0.36064538
-1.3496076 0.3949923 -0.29805678 0.77609146 -0.5701545 -0.049299445 -0.03992219 0.1372921
-0.47460535 -0.015219691 -1.7380388 -0.05592266 -0.796837 -0.59446645 -0.15469897 -0.20916733
-0.05350843 -0.05320045 0.25994328 -0.10854029 -0.054462302 -0.7325621 -0.10057433 -0.47562024
-1.2367855 -0.6080594 -0.07792803 -6.994704e-05 -1.3400768 -1.1756867 0.051907275 0.58562493
-0.39007366 0.36478317 0.011874037 0.09085428 0.26674038 0.04740093 -1.4828142 0.31529722
0.018683467 -0.20904124 -1.0866551 0.018219642 0.51396537 -0.9732994 8.0923506e-05 -0.05902543
0.061410528 0.3753311 -0.5832181 -0.4389359 -0.51395893 -0.8907897 -0.80685157 -0.40164125
-0.42026266 0.82123804 0.42112908 -1.0794226 0.6588114 -0.027315643 0.2629828 -0.24728408
0.03084448 0.1512006 -0.23928414 -0.00021086633 0.5045932 -0.42783743 -1.2489237 -0.028334424
-0.39213708 -0.5096983 -0.57655686 0.3300955 -0.15101402 -0.094794855 -0.011396465 -0.5686505
-0.84438074 -0.7459242 -1.5608172 -1.2979681 -0.19787665 -1.2052503 0.019244846 -0.69964504
-1.3093605 0.5018392 -0.49471694 0.5232166 -0.07933223 -1.5259407 0.047324046 -0.98378754
0.1356249 0.29001516 -0.14921072 -1.4033152 -1.2911246 0.21490046 0.13790788 -0.06578426
-1.1409376 -1.1495094 -0.04248269 -0.6467926 -1.0154862 -0.19497061 0.75208825 0.4773575
0.22725867 0.31398132 -1.0096055 -0.022033924 -0.4388484 -1.2580625 -0.4647898 0.25050578
-0.2704353 -0.039280847 0.028867917 -1.6308781 -0.28786215 0.4006044 -0.7870002 -0.06619422
0.23446867 0.27154797 0.16730765 0.46372706 0.043672167 0.14386791 -0.529889 -0.8707406
0.41032803 -0.7902067 -0.8487529 0.03974384 0.024062738 -0.080563575 0.057238247 -0.529873

l2.bias f4 [256]
00000000: 7f6f 063f 8a52 35bd f09a a7be 18f4 7f3c
00000010: a363 0c3e 1af1 033e be5c adbd 3d82 9dbd
00000020: 6dc5 a9bb 4c08 8bbd 998c 1dbd 13ff 16bd
00000030: bf35 203e 2d78 4f3f a871 10be 4e85 053f
00000040: 8718 903e 64d2 8fbe e582 e7bd c541 babd
00000050: 7023 c2bd 98b8 10bd 5b8f 2bbd 50d1 91bd
00000060: 3ea4 5bbd 0a78 773f 65f7 723f 621b 62bd
00000070: ef0e a7bc 8d3b c6bc 04ac 91bd 6db7 67bd
00000080: 3457 2e3f 33a2 30bd c147 b9bd c97b d4be
00000090: 2098 253f be1b 34bd 3194 083d 6761 42bd
000000a0: cbfa 533f d688 11bd 2c2c ee3e d43b 26bd
000000b0: 8ccc 1a3e f9a0 b03e 996e c7bd 2234 143e
000000c0: 47cd 8ebd 63bb 48bd adaa e6bd 8eb3 f1bd
000000d0: a4e8 0b3f 67b5 c1bd 533c 6e3e bda2 003f
000000e0: 807f debb a45d 093f bc37 0b3c ab05 bb3e
000000f0: 597c 6c3e 1924 9d3e bbbb 8bbd 3ef5 713e
00000100: b604 a7bd 39ec d93d 3c1e bfbd 9ca1 83bd
00000110: 26e3 c3bd 1597 a3bd f6cb 263e ff23 71bd
00000120: 9fc6 8fbd 58f5 3a3e b6f8 6c3f 42ac 2bbe
00000130: 162a 3a3f 1779 94be 089a d33d 5330 f43d
00000140: 3a97 c3bd 3904 d13e e888 5c3e d46b e3bd
00000150: 45dc 013e 2f58 b03d e3c1 dcbe 1289 12bd
00000160: e936 2abd bccf 50bd 5db9 253f 7aac a13c
00000170: 9abb 7abd 2428 a83e 45f7 7fbd 4407 603f
00000180: 5347 02bf 0839 cebc 51da bf3e 8f53 c1bd
00000190: db6c ee3d bf6e b33e 4f7e 31be aa94 44bc
000001a0: 02a7 2a3f 1947 973c 59f6 543f b4dc b2be
000001b0: 1e6e 9abd a160 5fbd bb82 1b3e 1e03 37bd
000001c0: 7712 77be 2e97 8ebc 4361 42bd 59a4 5c3f
000001d0: cd12 51bc 60f5 82bc 384e 063f 1839 0dbf
000001e0: 1f2a 59bd e74d 543e a22a 16be 9338 2c3f
000001f0: bd91 f6bd 694d e33d d15c 1abd 4c4e 3a3f
00000200: 443a d7bb 48b6 ae3e 09e8 bb3e fb9f 7a3f
00000210: a515 b2bc 3193 9ebd 3c7b 9bbd 05e0 f73d
00000220: 6783 ae3e ecfd 483e c382 b83e ba4e d8be
00000230: ea5f 89be 1ab7 3e3e 6f40 733f 279c 41bd
00000240: 2480 4bbd 39c4 2bbe a1af 713c 6a71 333f
00000250: 613e 123f 4626 4abd 1efa 353f 8035 583f
00000260: e2ab cdbd 44eb b6bd 2292 9bbe 1a52 89be
00000270: 0487 08bd f332 45bf 3a3d 1fbf 2059 913e
00000280: 92f4 213f e7f4 6bbd a7b2 9dbe f6ce cebd
00000290: e079 a93b 5ff0 aebd f441 f73e 8b7a ac3b
000002a0: 6fc6 bbbd 3148 58bd 4085 92bd ceb5 a9bc
000002b0: 28e4 8dbd 07f4 dabd 0ac3 91be 195f 3ebd
000002c0: 0ac0 05be 0f96 bbbd 2468 233f 688a 3bbd
000002d0: 8ee4 f93d 86c5 2a3f 83a9 cdbc 030d 60bd
000002e0: 6ce0 28be abd8 6fba d467 63bd 73ad ecbc
000002f0: ff4c 1d3e 0f28 d1bd d37c 303f f725 623f
00000300: 9ee2 b5bc a1b4 bebe b51d 883e 8228 18bd
00000310: e7fa eabc 4201 983e 5666 c2bd 5d88 263f
00000320: 1c33 a4bd 153b 8bbd 3979 093e 349d 2a3e
00000330: 9ceb 3f3f 1e02 15bf e55a e6bb 0fac 4d3f
00000340: c7d3 e4be de6b a7bd 2d54 a7bd 8b04 8abb
00000350: e239 a8bd 1b21 c1bd de33 81bd aeeb 74bc
00000360: 0a15 48bd 9dfb 82bd ab5f 9ebd fb78 a83e
00000370: 11c7 7cbd 1b4f 9bbe e367 4e3f 5aee 2b3e
00000380: 4d94 8dbd aa03 60bd 95d4 29be 99b7 b237
00000390: de7d c93e f380 6d3c 2070 fdbc 101b 64bd
000003a0: e34d f23e f364 7f3e 8c55 183f c356 f8bd
000003b0: d142 ebbd b2a8 2f3f 6dc2 453f 07fe 99be
000003c0: db6a 333f 3280 30be 8e76 c13b 84cb 073f
000003d0: 4c90 043e fee8 75bd 8447 25bc 4d39 963d
000003e0: 08a0 203d a325 b1bd 7507 febb f9a5 d9bd
000003f0: c7f1 2dbe d1f9 75bc d177 333f 074a a2be
0.5251388 -0.04426817 -0.32735395 0.015622161 0.13709883 0.12884942 -0.08464955 -0.076908566
-0.0051810057 -0.06788692 -0.038464162 -0.03686435 0.15645503 0.8104275 -0.14105856 0.5215653
0.28143713 -0.28090203 -0.11304263 -0.09094576 -0.094794154 -0.035332292 -0.04188476 -0.07120001
-0.05362343 0.9666754 0.94908744 -0.055201896 -0.020392863 -0.024198318 -0.071128875 -0.056571413
0.6810181 -0.043123435 -0.09046889 -0.4150069 0.6468525 -0.04397177 0.03334445 -0.04745617
0.82804555 -0.035530888 0.46518075 -0.0405844 0.15117091 0.34497812 -0.09737892 0.14473012
-0.06972747 -0.04900683 -0.112630226 -0.118018255 0.54651856 -0.09458428 0.232652 0.5024832
-0.0067901015 0.5365851 0.008497175 0.36527762 0.2309431 0.30691603 -0.06822916 0.23628709
-0.081551954 0.10640759 -0.093319386 -0.06427309 -0.095648095 -0.07987801 0.16288742 -0.05887222
-0.07020306 0.18257654 0.92567 -0.1676493 0.7272047 -0.28998634 0.103321135 0.119232796
-0.095503286 0.40823534 0.215366 -0.11104551 0.12681682 0.0861057 -0.43116674 -0.03577525
-0.041556273 -0.05097936 0.64735967 0.019735564 -0.061214067 0.32843125 -0.062491674 0.87511086
-0.5089008 -0.025173679 0.3747125 -0.09439766 0.11641856 0.3504543 -0.17333339 -0.011998335
0.66661084 0.01846652 0.83188397 -0.34934008 -0.075405344 -0.054535512 0.15186588 -0.044680707
-0.24128138 -0.017406072 -0.047456037 0.86188275 -0.01276083 -0.015986145 0.524631 -0.55165243
-0.053018685 0.20732842 -0.146647 0.67273825 -0.12039516 0.11098749 -0.037686173 0.7277572
-0.006568225 0.34123445 0.36700466 0.9790036 -0.021738837 -0.07742918 -0.075918645 0.12103275
0.34084627 0.19628114 0.36037263 -0.42247564 -0.2683099 0.18624535 0.9502019 -0.04726806
-0.04968275 -0.16774072 0.014751346 0.7009493 0.5712643 -0.049352907 0.71084774 0.84456635
-0.1004255 -0.08931592 -0.30384928 -0.2682045 -0.033331886 -0.7703087 -0.622028 0.2838831
0.6326381 -0.057606604 -0.30800363 -0.100980684 0.0051719993 -0.08541941 0.48292506 0.0052636317
-0.091687076 -0.052803222 -0.07154322 -0.020716574 -0.06928283 -0.10691076 -0.28469115 -0.04647741
-0.13061538 -0.09159481 0.6383078 -0.04578629 0.122017965 0.66707647 -0.025105244 -0.05469991
-0.1649186 -0.00091494125 -0.05551894 -0.0288913 0.15361403 -0.10212719 0.68940467 0.8833918
-0.022202786 -0.37247184 0.26585165 -0.037148006 -0.028684093 0.2968846 -0.09492175 0.65051824
-0.08017561 -0.067983784 0.13425149 0.1666153 0.74968886 -0.58206356 -0.0070298784 0.80340666
-0.44692823 -0.08174871 -0.08170352 -0.0042119673 -0.08214165 -0.094301425 -0.06308721 -0.014948769
-0.04884819 -0.06395648 -0.07733091 0.329048 -0.061713282 -0.3033379 0.8062727 0.16790143
-0.06913052 -0.054690994 -0.16585 2.1304748e-05 0.39353842 0.014496076 -0.030937254 -0.05568987
0.47325048 0.24940853 0.59505534 -0.121259235 -0.114873536 0.68616784 0.77249795 -0.3007662
0.70084924 -0.17236403 0.0059040254 0.53044915 0.1294567 -0.06003665 -0.010087851 0.07335148
0.039215118 -0.08649757 -0.007752354 -0.1062736 -0.16986762 -0.015013174 0.701047 -0.31697103

l3.weight f4 [1, 256]
00000000: ca91 e7bf a0d1 bc3c 058a b1c0 7dfc c23c
00000010: 5800 b9c0 c209 8dc0 cc61 923c be36 253d
00000020: 0d12 1d3c 2799 84ba 20e7 92c0 004f 263c
00000030: fdeb ae3f 8ecd 0c3e 1c91 5c3c 9032 263f
00000040: ee15 763f 3349 7cc0 dede 0f3c b18d f63c
00000050: da4f 103c e6e1 dcbc 8a0a f43b 0f9c dabb
00000060: f092 113c 366e 3c3e eef0 2b3d 9bd7 f5bc
00000070: 597f 193d 8dc9 923c acf2 15bc 4956 833c
00000080: 4978 f6bf 8224 8bbc 6510 1abc a554 e8bf
00000090: 4fbf be3e 91fa 963c b30b 0040 292e 903b
000000a0: 00e8 193f cd0d 7b3c e408 9d3e 43f9 aebb
000000b0: 52e6 923f 82ae 57c0 5aad 033d d384 bec0
000000c0: 2d88 913c 337f bac0 f739 ff3f a2d3 3d40
000000d0: d317 3ec0 93b0 d0bc d8a1 7ac0 1372 c83e
000000e0: 6218 78bc 9b53 85bf 6134 2240 45af 1cc0
000000f0: d881 7740 5870 863f 14ec ed3f c710 a83f
00000100: b486 8a3c c350 263c 6796 cd3f afa6 b8bc
00000110: 685e 1a3d 815b b2bc aa13 063f b2b2 a03c
00000120: 996c fdbc af38 93c0 4e56 543e 568c 3ec0
00000130: bdd5 c13d f0e3 54c0 2ae9 aebf 9dfd 5bc0
00000140: 3b90 2bb9 2593 2740 f64a b6c0 c87c 923c
00000150: 7809 cbc0 9463 923f 30de f7be 0ef0 613b
00000160: f5fc 37bf fa20 39c0 fbe1 963e 370f 7f3f
00000170: af30 6c3a 48a2 b8c0 1639 9ebb 416e 723e
00000180: ba39 a9bf 8c19 293c e7ed 54c0 5cc2 36bf
00000190: 1439 3bc0 2186 a0c0 dfd2 acc0 9a07 9fbc
000001a0: 8b9a af3e 67ee b4c0 ccaa 3d3e 2248 06c0
000001b0: 8a98 7ec0 4f21 8fbc 38fe 873f d6bf a7bc
000001c0: a726 c13f df2b ddbf ea21 27bb 9059 723e
000001d0: 19f9 46bc b84c 4a3f 5c51 573f 6d52 92c0
000001e0: d34e a33c 646c 933f 289b a1c0 8a3f f3be
000001f0: 7375 9e3e 5f80 7f3f 6762 54bc e556 b83e
00000200: 54ee bc3c 63df f93e 7dcb 113f 0f10 653e
00000210: f5b3 1cbd ab48 923c 9038 a3bb 45ba adbf
00000220: fe09 3840 b7f6 bfc0 228e fa3f 6951 9fc0
00000230: d36d 66c0 44f7 7cc0 7da6 d93d b638 03bf
00000240: cf89 243a d0c1 dcc0 efed 4cbc 0e4d 91bf
00000250: e262 a03e 315c ef3b 3a23 213e 8f4e 393e
00000260: d2e4 9ac0 7338 203b a878 8bc0 527f 2dc0
00000270: c71d 0bbc bb75 afbf bacb b1c0 5afc 6c40
00000280: 4763 bb3e 78c7 5ebb 9c9e 3abf 253b e0bc
00000290: 418a 3f3c 195b 6b3c 4ffe c1c0 3bd8 c53b
000002a0: afa7 89bc 2776 2d3c dc78 2bc0 d076 aabb
000002b0: 4a76 2bbc 69e6 80bf 22bd a7c0 8d0f ecc0
000002c0: 2d31 1fbf ee82 b73b b1a1 b73e 576d 30c0
000002d0: 09ba 97c0 c7a2 413f 199f c1bc 0889 11bc
000002e0: aca8 2740 0eaf 58bc aa82 293c f968 d23b
000002f0: 301a 79c0 e433 e4bc e274 983e 9ef9 713e
00000300: 2400 053c a72d 43c0 ba3a d43f ec63 d63c
00000310: 9787 ec3c ae3e 123f cce4 3b3b 3b2c 563e
00000320: eaaa 9b3c 9d0f 963c 3b63 d9c0 01ce e9c0
00000330: 89ea 1f3e ceb6 56bf 1d34 813b 8c3c 553e
00000340: dbbf e1bf b835 cdbc b418 003a 652c cb3b
00000350: 1d78 7e3c dbc2 0c3a d561 d93b a5cd 1dbd
00000360: 928e 26bc c564 d7bc 12b9 9f3c 1baf 563f
00000370: db4c da3c 66dc 94bf 2366 903e 118d edc0
00000380: ae43 debc c2e1 293d 84f8 f8bf b59d 863c
00000390: 226e 3ac0 160c 06bc 58a2 37bc a111 1e3a
000003a0: 6bd3 ca3e 7355 3c3f 4667 20c0 83db c9bc
000003b0: 1df5 ed3c 67f5 fb3d ead5 463e ba96 63c0
000003c0: 7950 843e 96c4 3940 2a30 35bb 283b 1140
000003d0: f347 c3bf e8bf 7d3b dc7c 42bc 783f 5c3f
000003e0: e77c 20c0 e125 b33b 7e9f 913c 0bf3 fe3c
000003f0: 3879 54bf 5184 5ebc 3e54 3f3e 4e41 70c0
-1.8091366 0.023049176 -5.548098 0.023802036 -5.781292 -4.407441 0.017868899 0.04033541
0.009586823 -0.0010116444 -4.5907135 0.010150671 1.3665768 0.13750288 0.013462331 0.649209
0.9612721 -3.9419677 0.008781163 0.03009686 0.008808101 -0.026963186 0.0074475454 -0.0066714357
0.00888513 0.18401417 0.041977815 -0.030010035 0.037474964 0.017918373 -0.009152096 0.016032355
-1.9255458 -0.016985182 -0.009403323 -1.8150831 0.37255332 0.018430026 2.000714 0.004400034
0.6011963 0.015323115 0.30670846 -0.005339773 1.1476538 -3.370026 0.032147743 -5.953714
0.017765129 -5.8280272 1.9939564 2.966042 -2.970204 -0.025474822 -3.9161282 0.39149532
-0.015142532 -1.0416139 2.534447 -2.4481976 3.8673 1.0503035 1.858767 1.313012
0.016909935 0.010151091 1.6061524 -0.022540418 0.03768769 -0.021772148 0.52373755 0.019616459
-0.030935572 -4.6006694 0.20736048 -2.9773154 0.094645955 -3.3264122 -1.3664906 -3.4373543
-0.00016361561 2.618356 -5.6966505 0.017881766 -6.344906 1.1436639 -0.48411703 0.003447536
-0.71870357 -2.8926377 0.29469284 0.9963259 0.000900994 -5.7698097 -0.0048285825 0.23674871
-1.3220742 0.010321032 -3.3270204 -0.7139032 -2.9253588 -5.016373 -5.400741 -0.019412804
0.34297594 -5.654102 0.18522185 -2.0981526 -3.9780602 -0.017471937 1.0624456 -0.020477217
1.5089921 -1.7279013 -0.0025502392 0.23666978 -0.01214435 0.79023314 0.8410852 -4.5725617
0.019935047 1.1517453 -5.05019 -0.47509414 0.30948982 0.99805254 -0.012962914 0.36003795
0.023062862 0.48803243 0.56951123 0.22369407 -0.038257558 0.017856916 -0.004981108 -1.357247
2.8756099 -5.9988666 1.9574625 -4.978688 -3.6004531 -3.952592 0.10627458 -0.5125841
0.00062766386 -6.8986588 -0.0125079 -1.135164 0.31325442 0.0073046912 0.15736094 0.18096374
-4.840432 0.002444771 -4.3584785 -2.710896 -0.008490986 -1.3707803 -5.556119 3.7029023
0.3659918 -0.0033993404 -0.7289827 -0.027371952 0.011690677 0.014364981 -6.0622935 0.0060377396
-0.01680359 0.010587252 -2.6792517 -0.005202152 -0.010465214 -1.0070316 -5.2418375 -7.3768983
-0.6218441 0.005600325 0.35865548 -2.7566736 -4.7414594 0.75639004 -0.023635434 -0.008882768
2.61967 -0.01322533 0.010346094 0.006421205 -3.8922234 -0.027856775 0.29776675 0.23630378
0.008117709 -3.0496614 1.6580422 0.026170693 0.028873248 0.5712689 0.002867031 0.2091531
0.019002397 0.018317992 -6.793363 -7.306397 0.15616812 -0.8387269 0.00394298 0.20823878
-1.7636675 -0.02505003 0.00048864936 0.0062003606 0.015531567 0.0005369612 0.006633977 -0.038526196
-0.010165827 -0.026293168 0.019497428 0.8386094 0.026647976 -1.162976 0.28202924 -7.42347
-0.027131882 0.041475065 -1.9450841 0.016432622 -2.912972 -0.008181592 -0.011208139 0.00060298486
0.39614424 0.73567885 -2.5063033 -0.024640804 0.029047543 0.12302666 0.19417539 -3.5560746
0.25842646 2.9026237 -0.0027647116 2.2692356 -1.5256332 0.0038719121 -0.011870589 0.86034346
-2.5076234 0.005467162 0.017776247 0.031121751 -0.82997465 -0.013581351 0.1868448 -3.753986

l4.weight f4 [256, 33]
00000000: 133c 7dbd 4c3c 23bf aefc e33d 8eae 25bb
00000010: 598f 0abe 4487 7d3d dc9f 373c ee07 54bf
00000020: f765 e4bc 48c2 a4be fea2 3a3e abfd 13bf
00000030: b1f1 863f c1ec 15be a96c 253d c1fe 4bc0
00000040: 8dac a7bf aa56 2bbf edba 89be 0aac a4bf
00000050: fc99 07c0 7035 ab3c c2dc 033e 51ac 99bf
00000060: 18e2 1abf 36a6 1e3f 96d2 933f c01e cf3e
00000070: 50a7 5abf c487 54bd 1c06 d9bd 16f7 e3bc
00000080: 9342 04c0 71dd edbd 7bdc e03c 5eb5 3f3d
00000090: 730d ddbd 5ced 25be cef0 febd be3e bf3d
000000a0: 67a5 8ebd 403e 5bbd 4404 ecba d19f 023d
000000b0: d202 52bd b671 d73d ace2 1e3e 4192 08be
000000c0: f0e7 f7bd 655e 22be df2d ec3b b459 f6bd
000000d0: f0b0 153e 8cd6 0c3e d76e 453c 4689 0ebe
000000e0: 57c4 893d 5d66 2b3c be9a 2c3c 2c5a 0cbe
000000f0: 810b 94bd 7016 12be c236 b83d 36b7 c5bd
00000100: 8e65 b1bd 8f10 ef3d 4804 80be 9e3d 563d
00000110: a446 b2be 6218 ed3d 0673 2bbd c958 803e
00000120: 32ba 7d3e bc4d 863f 842c 53bf c986 34be
00000130: f31c 4dbf e9c8 b9be a4d9 8340 a1a9 6fbe
00000140: cce5 09bf c82a 2fbf e0d8 3fc0 b00b d83d
00000150: 71ff 8cbf 11ab a13e 89e5 b0bf 2efd 9abf
00000160: 10dc c8be 1217 04be 4202 d8bf 7bfd 493d
00000170: d11f 6f3f 2432 c43f 1fc0 313f ac85 07bb
00000180: a709 a13e e3b8 f73e f4d7 20bf f238 613d
00000190: fefd 0c3e 5531 60be 655b bfbd 3c86 2abe
000001a0: 4e26 963e 7fca 88bd efab 26bf 16ea efbe
000001b0: 65d2 e3be 0254 1c3e 739b 08c1 70b3 bf3f
000001c0: af37 263f 4776 c5be 5719 32bf 35ef 8540
000001d0: 6dd6 b0be 3398 d23d 9169 4dbf c898 14bf
000001e0: 38eb 71bd bcac 303f 4443 7cbe 9288 ebbf
000001f0: c81a c5bd 7e67 c1be 0b24 b43d c312 88be
00000200: 7548 bfbe a611 c5be d2ad 703e 286f 6fbf
00000210: 5d57 6bbe e166 e9bd 7942 3abe 99c8 38bd
00000220: 4ec1 6fbe dd62 ecbe f0e1 993e b5eb b03f
00000230: 673c b43f 6493 84bf a0c3 47be 7e51 153e
00000240: e49b 5e40 62e0 fd3e 9c85 283f f4e2 09bf
00000250: 03f0 84bf 0bb7 a63e 24d4 b4be 0033 c8be
00000260: c434 1f3f 7b07 a43e ce1e e53f fbab 063e
00000270: 5e34 1ebe f654 21be 6090 2cbe c3bf bebf
00000280: e10d 89bb e92d 44bf eb6f 113e a9e2 2b3e
00000290: 5bdd ec3e 90e1 2abe cd32 5c3f 564b d63d
000002a0: bb27 d53c 88fc 01be 2fb9 2a3e d8f7 1abe
000002b0: 5f75 86bf 1675 f73e f6d0 f2bd 1116 5b3d
000002c0: 3c39 813f 85e6 5bbf de15 1dbf df3c c73d
000002d0: f8cb 2dbf 2e59 a7bd 2967 b1bc 004d f0be
000002e0: 74bf 8a3f b8d4 843f ab25 8d3f e763 e33e
000002f0: b59f bf3e a8eb 803f a772 2c3d c5b9 d33c
00000300: fbf9 6fbf 6f53 cb3f 2471 853e b6ad 853f
00000310: 1bbb 863e efc9 e9bf ba70 9e3d df5f b23e
00000320: a9ab c9bd 7064 3cbd 2cdb 513d 6b66 f73d
00000330: 1590 9abe e97c 22c0 bcd6 323e 9d8f c6be
00000340: 390d d03e 8593 8abf 05a1 d5be ac1e b3be
00000350: 4ecd 17bf 9a04 d93d c4d1 2ac0 c82d f6bb
00000360: 4a02 69bf da57 173f c001 593f ad63 a63d
00000370: 93a9 ec3e 754f 4bbd 2d87 03c0 9d69 b13e
00000380: 1d6c 0c3f b4c6 503e 0c50 953f a4c7 b23f
00000390: 04de 4dbf 654b e6bb 0ba9 e63f be6c 04be
000003a0: 42a1 e53d 594f 4bbd d1f7 023d c663 19be
000003b0: f041 dbbd b994 1cbe 9aac 863d bba5 1a3e
000003c0: 431f 143e 9203 b93d 0722 003d 31d0 e83d
000003d0: c332 91bd b621 d93b bc96 e5bd 9b75 ae3d
000003e0: 77bf 223d cbee 0dbc 7c70 333e 0b97 3e3e
000003f0: fb25 99bd f5a8 833d c7f6 ddbc 6e44 a83c
-0.06182487 -0.6376388 0.11132179 -0.0025281045 -0.13531245 0.061896577 0.011207547 -0.828246
-0.027880652 -0.32179475 0.18226239 -0.5780894 1.0542508 -0.14641096 0.04038683 -3.187424
-1.3099533 -0.66929114 -0.26900426 -1.2865002 -2.1187735 0.020899504 0.12877181 -1.2005712
-0.6050124 0.6197237 1.1548641 0.40453148 -0.8541155 -0.05188729 -0.105968684 -0.02782778
-2.0665634 -0.11614502 0.027448883 0.046803825 -0.10793581 -0.16203827 -0.124482736 0.09338139
-0.06965142 -0.053526163 -0.0018006642 0.031890694 -0.05127222 0.105197355 0.15516156 -0.13337041
-0.121047854 -0.15856321 0.0072076167 -0.12028828 0.14618278 0.13753718 0.012050352 -0.13919553
0.06726902 0.010461417 0.01053494 -0.13706273 -0.07228757 -0.14266372 0.08994819 -0.09654085
-0.08661948 0.1167308 -0.25003266 0.052304856 -0.3481952 0.11576916 -0.04185774 0.25067738
0.24778059 1.0492473 -0.824898 -0.17629541 -0.801223 -0.36286095 4.1203175 -0.23404552
-0.5386627 -0.68424654 -2.997612 0.10549104 -1.1015455 0.31575826 -1.3820049 -1.2108514
-0.39230394 -0.12899426 -1.6875689 0.049314003 0.93407923 1.5327802 0.6943378 -0.002067904
0.31452677 0.48383245 -0.6282952 0.054985948 0.13768765 -0.21893819 -0.09343604 -0.16652769
0.293261 -0.06679248 -0.651061 -0.4685828 -0.44496456 0.15266421 -8.537951 1.4976635
0.64928716 -0.385668 -0.69569916 4.18545 -0.34538594 0.10282936 -0.80239207 -0.58045626
-0.059062213 0.6901357 -0.24635035 -1.8401053 -0.09624249 -0.3777427 0.08795937 -0.26576814
-0.37359968 -0.38490027 0.23503807 -0.93528986 -0.22982545 -0.11396576 -0.1818942 -0.04511318
-0.23413584 -0.46169177 0.3005519 1.3821932 1.4080933 -1.035748 -0.19508219 0.14581868
3.4782648 0.49585253 0.6582887 -0.5386193 -1.0385746 0.32561526 -0.353181 -0.3910141
0.6218989 0.32036957 1.7900026 0.13151543 -0.15449664 -0.15755066 -0.1685195 -1.4902271
-0.0041825627 -0.76632553 0.1420285 0.16785683 0.4626263 -0.16687608 0.86015016 0.10463588
0.026019922 -0.1269399 0.16672204 -0.15133607 -1.0504569 0.48331517 -0.118562624 0.05348784
1.0095592 -0.8589862 -0.6136149 0.09728407 -0.67889357 -0.081713066 -0.021655636 -0.46933746
1.0839677 1.0377417 1.102712 0.44412157 0.37426534 1.0071917 0.04210153 0.025845418
-0.93740815 1.5884837 0.26062882 1.0443637 0.26314625 -1.826475 0.07736345 0.3483877
-0.09847195 -0.045994222 0.05123441 0.120800816 -0.3018805 -2.538874 0.17464727 -0.38781443
0.40635088 -1.0826269 -0.4172441 -0.34984338 -0.59297645 0.10596581 -2.669053 -0.007512782
-0.9101912 0.59118426 0.84768295 0.081244804 0.46223125 -0.049636323 -2.0551255 0.3465089
0.5485247 0.20388299 1.1665053 1.3967175 -0.80416894 -0.0070280307 1.8020338 -0.12932107
0.11212398 -0.04963622 0.031974617 -0.14979467 -0.10705936 -0.15291108 0.0657589 0.15102284
0.1446505 0.09033884 0.03128245 0.11367834 -0.0708976 0.006626333 -0.11210391 0.08518525
0.039733376 -0.00866289 0.17523378 0.18612306 -0.07477947 0.0642871 -0.027095212 0.020540442

l4.bias f4 [256]
00000000: b6b8 5f3d b56d 9c3d 2d9c d9bd c0eb 333d
00000010: 66aa dbbc b576 2fbd be21 1a3e 44ff c8bc
00000020: e5bb 243d 4913 913d 0e77 3f3d a396 2ebe
00000030: 6c6b c7bd 2885 62be 21fc 23be 12d7 72bc
00000040: bb2a 0cbd f5e2 c13d 8cd3 cdbd 61f6 d73c
00000050: e2a6 0d3b 5120 48be 11b0 18bd f3ce a8be
00000060: eee1 373d abd0 5abd 1a95 09be aed3 78bd
00000070: 5f29 943d d8bf debd 728e 3ebe c8c8 2e3e
00000080: a33e 49be c7a8 b03d aa9f 913c 5f5c 49be
00000090: 6057 2bbd a9c5 44be 1885 a63b 3a57 60be
000000a0: b327 1abe c87c 96be b354 bcbe b8b2 35be
000000b0: 038d 4bbe 780f 083d 5d73 98bd cc85 c53d
000000c0: e4c8 a7bc 8afe 013d 3571 6ebc 6721 f53d
000000d0: eadb cd3d e218 89bc 8976 6abe 3097 f2bd
000000e0: aafc 013e 70d1 803d 54ac 9dbe 9212 533e
000000f0: f5c6 21be 6381 99bb ab35 cebc 112e 34be
00000100: 0cb4 0d3e ceb7 5abe f541 fe3c 12cc 67be
00000110: c89c 8bbc ed6f 4dbc d764 893d 943c e5bd
00000120: 99fb 043d c2c3 00be f01c 05be 9eb8 8fbe
00000130: 6cd0 15bd fa5a 853d 75dc 593d c32c 26be
00000140: 54fd 2a3d c572 68bd 01f8 cdbd 1c6f d7bd
00000150: 6e22 b1bd 70b7 d23d 09c4 9fbc a577 85bc
00000160: 9545 bc3b 33f0 02be 6b2d 423c 7506 f43d
00000170: 9c57 db3d 172b 9e3b 72f5 b0bd 5706 f4bb
00000180: 76de 2fbe f839 36be 97be 99be 38a8 40be
00000190: 5fd8 3cbe bc1f 113e f6c6 29be cd0e 51bc
000001a0: 9d15 933d e9a4 9abe 6ad1 09be 2a3b aabe
000001b0: 0be9 9fbd a523 83bd e371 1cbe 1732 8bbd
000001c0: 0a66 663e a20e 623e 9bf4 e13c 725a a53d
000001d0: 69b2 8b3d ad8f 343d de36 efbc fb4d 38be
000001e0: 6144 15bb d074 22be b918 adbe a9c2 b83d
000001f0: 3d69 7dbe f151 083e 0dfc cf3d 535b a33d
00000200: b88e be3d e3c3 0fbe 7fb5 a6be 8007 4fbe
00000210: 8184 cc3c 6045 b93d f984 16be 4b56 8dbd
00000220: bf50 84be 6fda 36bd 0aa4 b5bc df2c 9b3c
00000230: 931a c93d 08ee 18bd 9a85 083e 014e 44bd
00000240: b2e9 fdbd d170 1fbd 8c22 56be 0a54 82be
00000250: 71c8 d3be cdea 2a3b 14f2 5dbc c64c a3bd
00000260: ab12 8bbd f7c5 85bd fc3c 12be e076 e3bd
00000270: 8db7 96bd a78b ff3d b989 57be d0f5 74bd
00000280: c10e 0fbd b4bf 57be 6a1f 863d 4a97 823d
00000290: 09e5 e2bc 373f a9be b793 b4bb e547 ca3d
000002a0: ee38 14be 3e53 c6bd fd98 05be e263 9d3d
000002b0: c742 ad3d d813 53be aa4a 34be 8b41 bcbd
000002c0: 766b 0e3e 9aa9 82bd 3c96 5fbe 31fc c03d
000002d0: 1420 69bd fb5e 6ebe ad10 71bc 9e88 293e
000002e0: a40b 8dba 76ed d13c 0a97 7a3d b42a 06be
000002f0: 526b 7cbe 69c3 b7bd e17b 7cbe 79d1 4bbd
00000300: cc5a dbbc 6430 17be 5297 82bd db52 afbd
00000310: c1c1 2dbe 3647 983c f07e 033c 0505 61be
00000320: 9d55 23bd 8afe 81be 04fd 74bd d776 0cbe
00000330: b8e6 d43d 40ae 9cbd 53e0 da3c aa5e 08be
00000340: 58ad 84bd d80d 89be 56d0 473e 92af 2bbe
00000350: 623c b7bb c41a 1dbe 850e d5bd 4ebb abbe
00000360: da36 883d 88f8 0ebd 9ee4 c5bd 51fc 1d3c
00000370: 3310 d53c 9afd 03bc ec4d 993c e80c 84be
00000380: ba22 8c3c 4af9 213d 4c1a 2fbd 0fa7 21be
00000390: 61c5 26ba e039 30be 9f4a 5fbe 8550 103d
000003a0: a48c fe3d 5232 1dbd 7213 1b3e ece1 17bd
000003b0: cb91 d4bd 4af4 ea3d bfac 35bd e0c2 8cbe
000003c0: d175 e8bd ed99 50be da05 eebd 60e6 61be
000003d0: 10dd 1f3c 305f 013e 29d5 c3bd b895 babb
000003e0: 7b24 8bbd 9b57 1abe 7fb3 c93d 00ab 773d
000003f0: 9c73 8b3d 3b50 e3bc b060 a4bb fb4b 12be
0.054619513 0.076381125 -0.10625491 0.043926 -0.02681465 -0.042837817 0.15051934 -0.024535783
0.040218253 0.070837565 0.0467444 -0.17049651 -0.09737286 -0.22121108 -0.16014148 -0.014821785
-0.03422044 0.09467117 -0.10050115 0.0263626 0.0021614362 -0.19543578 -0.037277285 -0.3297039
0.044893198 -0.053421658 -0.13435784 -0.06074875 0.072344534 -0.10876435 -0.18609026 0.1706878
-0.196528 0.08625942 0.01777633 -0.19664143 -0.041831374 -0.19216026 0.005081784 -0.21908274
-0.15054207 -0.29392076 -0.3678337 -0.17743957 -0.1987801 0.033217877 -0.07443879 0.0964466
-0.020481534 0.031736888 -0.014553358 0.119692616 0.10051711 -0.016735498 -0.2289678 -0.11845243
0.1269404 0.06289947 -0.30795538 0.20612553 -0.15798552 -0.0046846136 -0.025172075 -0.17595698
0.13838214 -0.21359178 0.03103731 -0.2263644 -0.017042533 -0.012538892 0.06708687 -0.11193195
0.032466505 -0.12574676 -0.1299932 -0.2807054 -0.03657572 0.06511493 0.05318876 -0.16228013
0.0417455 -0.056750078 -0.100570686 -0.10519239 -0.08649145 0.10288894 -0.019502657 -0.016292403
0.0057455995 -0.12786941 0.011851649 0.11915294 0.107100695 0.004826914 -0.08640565 -0.007447045
-0.17174706 -0.17795551 -0.3002822 -0.1881417 -0.18441914 0.14172262 -0.16579804 -0.012759876
0.07181857 -0.3020394 -0.13458791 -0.33248264 -0.07808121 -0.06403283 -0.1527782 -0.06796663
0.22499862 0.22075894 0.027582457 0.08073892 0.068211384 0.044082332 -0.029200967 -0.17998497
-0.0022776353 -0.15864873 -0.33807924 0.090215035 -0.24747176 0.13312508 0.10155497 0.07976403
0.09304565 -0.14039569 -0.32560346 -0.20217705 0.024965527 0.09046435 -0.14699163 -0.06901225
-0.25842854 -0.04464191 -0.022172946 0.018942295 0.09819522 -0.03733638 0.13332215 -0.047925953
-0.123980895 -0.03892595 -0.20911616 -0.25454742 -0.41363862 0.0026079894 -0.013546485 -0.07973628
-0.0679067 -0.065318994 -0.14281076 -0.11106658 -0.07359228 0.124778084 -0.21048631 -0.059804738
-0.03492618 -0.21069223 0.065489605 0.06376512 -0.027697103 -0.33056042 -0.005510773 0.09876994
-0.14474842 -0.09683846 -0.13046642 0.07685067 0.084600024 -0.20613039 -0.17606607 -0.09192189
0.1390818 -0.06380005 -0.21834654 0.09423102 -0.056915358 -0.2327842 -0.0147134485 0.16556022
-0.0010760915 0.025625926 0.0611792 -0.13102227 -0.24650314 -0.089728184 -0.24656631 -0.049760316
-0.026776694 -0.14764553 -0.06376518 -0.08560725 -0.16968442 0.018588644 0.00802587 -0.21974571
-0.03987657 -0.2538951 -0.059811607 -0.13717209 0.103955686 -0.07650423 0.026718294 -0.13317361
-0.06478375 -0.26768374 0.19513068 -0.16766194 -0.005591915 -0.15342242 -0.1040316 -0.3354134
0.06651087 -0.034904987 -0.09662746 0.009642676 0.026008701 -0.008056069 0.018713914 -0.25791097
0.017106403 0.03954438 -0.042749688 -0.15786384 -0.0006361809 -0.17209578 -0.2180581 0.03523304
0.12429169 -0.038378067 0.15144137 -0.03708069 -0.1037937 0.11472376 -0.044354197 -0.27492428
-0.11350597 -0.20371218 -0.1162221 -0.22060537 0.009757295 0.12633967 -0.095621414 -0.0056941174
-0.067940675 -0.15072481 0.09848689 0.060465813 0.0680916 -0.027748218 -0.005016409 -0.14286797

l5.weight f4 [256, 256]
00000000: d58c ccbe 6035 8ebb 480e 0bbf b7bd 253f
00000010: 81bc 11bf 5705 72be c19b 63be d05e 413c
00000020: f99c 06bf 14b1 1abf 5bcd 033e 668a 1abd
00000030: fa16 e0be 9ed6 f9bf 80c0 fd3c b62c 08bf
00000040: 75dc b43e 9034 08bf 2ec1 6abe 408b 053d
00000050: 112e 71bd 5071 fd3c 502b 52bd f6ad 4cc0
00000060: 0d8a e7be 443c 753d 709c 8f3e 5c22 1ec0
00000070: ead7 01bf fd6b 8e3e 73a0 0dbf 4cbb 22bd
00000080: e7ef cd3e 90ba 80be 1bb9 73be 6cd3 11bc
00000090: ddf8 babc 84bb 3f3e 4b41 1fbf 4ae6 1abf
000000a0: 882e febd f7ab 6ebe 92bf 4a3d 67ea a0bd
000000b0: 52be f83e e66a 78bd 91c7 8e3e 7139 21be
000000c0: a557 fcbc d914 85bd c141 6dbd 88ca 20bf
000000d0: dcf7 cf3e 509b 2ebf 881b 683f d1f6 da3e
000000e0: 2e7d 5fbc e909 a1bc df20 363e 0c9e 073d
000000f0: 78fe 493d f50a 91bf eddc 45bf 6ee8 983e
00000100: 285e adbf 1427 673f 5857 77be 72b1 273f
00000110: c1d9 173b db59 aebd e641 83be 5674 98bf
00000120: fba0 b3be 5212 b6be cd1b 6e3e 9e3d 5abf
00000130: 0047 e4bd 624a df3e 4044 0c3d 696c 5b3e
00000140: 36b2 d5be 7328 323d 4436 4c3d b0e2 29bd
00000150: 3125 aabc 98b5 303c 5c30 873c f28f d3be
00000160: d8a2 03bf 654e 9e3d 16c6 533d 0689 82be
00000170: 61a8 f73e 6f31 c43e 9c5b e8be cc79 b03e
00000180: 2c43 8a3d c11e 89bd 846d 19bf e35d cb3e
00000190: 7127 553f 0c2f 783e 596c 9f3e cd11 b83e
000001a0: bc93 03be 81c3 86bf 2812 80be 0629 6dbf
000001b0: 392e a73e 308d 1dbe ebd7 ad3e 7481 ce3d
000001c0: 03d6 283d 49ab 993e 63c9 263e c3ab b4bf
000001d0: 4254 26be 6372 1ebe 0290 393e 282c 6c3d
000001e0: f36d 603e 50c8 d2ba b9a6 273f ba63 123c
000001f0: 1165 9b3d 83bd a7bd 34a0 6a3e 3f1c 9bbd
00000200: b015 0fbe 9c21 223e 404f 273c 16de 1fbe
00000210: 9754 743e 4180 08be 42f9 cb3f 8d77 373c
00000220: a788 1bbf 87a4 e23d 645a 0bbf 49cc 1abe
00000230: 3c82 8cbf dd6d e73c 48d2 3dbe d724 46be
00000240: 63f9 7ebf f4b4 debe c127 483e 864d f63e
00000250: a498 533f 41a5 5e3e 88f9 f9be d94f 05bf
00000260: 1818 b43e 367b ff3e 4156 743e 9f53 2b3e
00000270: bb9a 86be de47 e3be b0a9 213e 456e a23e
00000280: bbb8 1c3f 37ad 443d 1a26 26be e563 cf3b
00000290: cc48 82bd e60d 4b3e f6eb 1dbd 44de 3a3e
000002a0: 8f35 f0bd b7bf 55bc 50db 52bd 36d0 63bd
000002b0: de67 0bbf c17c 8a3e 70d6 853e 98b9 96bd
000002c0: 60d9 6ebe 75de 2e3f e7c7 bbbf 93e7 bcbf
000002d0: aa43 8abe a0a2 c23e 10ac 0abe 3949 a4be
000002e0: f39d ac3e 216b 2abd ad1d 1bbe 56a8 2bbe
000002f0: 398a 583f 9650 853e 087f 6cbf 3f17 3b3d
00000300: 46f5 c1be 18d5 9bbd 6713 aebd d8a3 bebc
00000310: d329 413e 8123 51be 64c9 24bd 1030 94bd
00000320: d52b b83e 0273 b6bf 78ec f1be 6ce1 113e
00000330: 5da0 0ebd a459 a43c 3b82 c63e 15e6 0ebe
00000340: a661 c1be 6654 153e d84d c5be d9d7 863e
00000350: 387c 153e d037 ac3c 03eb 223e ef39 e3be
00000360: 6bf3 4cbf 0694 b23d fb6f 893e 0962 873e
00000370: ddb0 f3be 2187 efbc 4210 8c3d 7dda 683f
00000380: fde3 263d 374e 5abc 4a6b b13e 148f 24bf
00000390: 49f0 23be 20f9 ecbb 9cc3 f2bd 68d5 4bbd
000003a0: 48d3 84bd e9e6 c5bd f10e acbd 102e b63d
000003b0: 26b8 493e 6436 7b3e b02d 79bf f8bd 38bf
000003c0: 7d07 78be a486 88bf 1b38 713d 3c4f 36be
000003d0: 8975 f53d 9661 49bf 8727 8dbd 59ee b63e
000003e0: 30f1 fcbd e838 ca3e afa3 f63d 6326 a43e
000003f0: e440 943e 564b 22be fbf0 cb3b e2e5 033f
-0.39951196 -0.004339859 -0.54318666 0.64742607 -0.5692826 -0.2363485 -0.22227384 0.01180239
-0.5258327 -0.6042645 0.12871306 -0.037729643 -0.4376753 -1.9518621 0.03097558 -0.53193223
0.35324445 -0.53205204 -0.22925255 0.032603502 -0.058881823 0.03093782 -0.051310837 -3.1981177
-0.45222512 0.059871927 0.2804904 -2.4708471 -0.50720084 0.27816764 -0.5532295 -0.0397294
0.40222093 -0.25142336 -0.23801081 -0.008900505 -0.022823745 0.18723875 -0.62209004 -0.60507643
-0.12411219 -0.23307787 0.049499102 -0.07857209 0.48582703 -0.06064882 0.27886632 -0.15744568
-0.03080351 -0.06498117 -0.057924036 -0.6280904 0.4061879 -0.6820574 0.9066701 0.4276643
-0.013640685 -0.019658046 0.17785977 0.03310971 0.049314946 -1.1331469 -0.7729023 0.2986483
-1.3544359 0.90294003 -0.24154413 0.65505135 0.0023170563 -0.08513232 -0.25636214 -1.1910503
-0.35083756 -0.35560852 0.23252793 -0.8525027 -0.11146355 0.43611437 0.034244776 0.21428074
-0.41737527 0.043495607 0.04985644 -0.04147595 -0.020769687 0.010785483 0.016502552 -0.4132076
-0.51420355 0.07729796 0.05170258 -0.25495166 0.4837065 0.38318965 -0.45382392 0.34467924
0.06751093 -0.06695319 -0.5993273 0.39720067 0.8326331 0.24236697 0.3113735 0.3595108
-0.12849325 -1.0528413 -0.25013852 -0.9264072 0.32652453 -0.1538589 0.33953795 0.10083285
0.041219722 0.30013493 0.1628776 -1.4114918 -0.1624308 -0.15473323 0.18121341 0.0576593
0.21916942 -0.0016081426 0.65488774 0.0089349095 0.07587636 -0.08190443 0.22912675 -0.07573747
-0.13973117 0.15833133 0.010211766 -0.15612063 0.23860393 -0.13330175 1.5935442 0.011197937
-0.6075539 0.11066537 -0.544348 -0.15116991 -1.0977244 0.02825063 -0.18537247 -0.19349991
-0.99599284 -0.4349743 0.19546415 0.4810602 0.82654786 0.21742727 -0.4882319 -0.5207496
0.35174632 0.4989869 0.23861028 0.16731118 -0.26289925 -0.44390768 0.15787387 0.31724754
0.61219376 0.048016753 -0.16225472 0.006329047 -0.06361541 0.1982952 -0.038555108 0.1824885
-0.117289655 -0.013046197 -0.051478684 -0.055618487 -0.54455364 0.27048305 0.26140165 -0.07359618
-0.2332511 0.6830819 -1.467038 -1.4758171 -0.2700475 0.38014698 -0.13542199 -0.32087114
0.33714256 -0.041606072 -0.15148039 -0.16763434 0.8458591 0.26038045 -0.92381334 0.045676466
-0.3788244 -0.07609004 -0.084997945 -0.023271486 0.18863611 -0.204237 -0.040231124 -0.0723573
0.3597094 -1.4253848 -0.47250724 0.14246148 -0.034820903 0.020062275 0.38771233 -0.13954957
-0.37769812 0.14582977 -0.38535953 0.26336554 0.14598167 0.021022707 0.15909962 -0.44380137
-0.80058926 0.087196395 0.26843247 0.26441982 -0.47595873 -0.02923924 0.068390384 0.90958387
0.04074477 -0.013324312 0.34652168 -0.6428082 -0.1600963 -0.0072318465 -0.11853716 -0.049764067
-0.06485611 -0.09663183 -0.08401287 0.088955045 0.19699153 0.24532467 -0.9733534 -0.7216487
-0.24221607 -1.0666089 0.058891397 -0.17803663 0.11985309 -0.7866453 -0.06892305 0.3572872
-0.1235069 0.3949654 0.12042939 0.32060537 0.28955758 -0.15849051 0.0062237955 0.5152265
