eval_files/models/racetrack/models/_actor.pth (torch, 310597 bytes, 6 tensors)

l1.weight f4 [256, 41]
-0.06873567 0.011225045 0.20471616 -0.21914174 -0.35358632 0.02557389 -0.012785334 0.11163181
-0.25641495 -0.098605655 -0.04847999 -0.007353506 -0.060476188 0.13386072 0.27550504 -0.04949112
0.041005045 0.058799442 0.38574022 -0.015566759 -0.5573532 -0.036252372 -0.23156582 -0.2810088
0.28655136 -0.11003759 -0.024415994 0.08488617 -0.1526678 0.09681532 0.043629307 0.44090775
0.29352614 -0.4221194 -0.8959932 0.36885884 -0.008207107 0.091167085 -0.6096677 -0.04931815
0.41215768 -0.5354948 0.4710892 -0.8308572 -0.5053754 0.12675041 0.19816744 -0.14312053
0.03688652 -0.04208189 -0.49462366 -0.2846842 0.044784408 -0.14827639 0.18219894 0.34093973
-1.1421821 -0.451051 -0.058702853 0.0233186 0.21075828 -0.0052839867 0.19036344 0.0975459
-0.1741053 -0.061938316 -0.113339245 -0.08750491 -0.11852313 -0.1108244 0.08495924 -0.03662149
-0.048634693 -0.2025417 0.05197882 0.011042748 -0.89984196 -0.473191 -0.4010158 0.16393584
-0.24975277 0.13181551 -0.41547346 0.22890656 0.15173522 -0.013115441 -0.36373624 0.16746518
0.15710625 0.41063195 -0.26646537 -0.19830498 0.02547665 0.03688547 -0.17744537 -0.31029275
0.124104254 -0.4633298 0.025300786 0.032101903 0.21151575 -0.15375495 -0.22873832 -0.0035666034
-0.1955207 -0.14767529 0.04350839 -0.064724766 0.034170784 0.032364108 0.05022903 0.11665534
0.14808625 -0.59150004 0.44093204 0.018180635 -0.037242025 -0.35350713 -2.117073 -0.058767356
0.09065194 0.17343271 0.34792274 -0.6490227 0.070485614 -0.2021849 -0.34792018 0.3613867
-0.2303707 0.14239752 -0.14512028 0.2934538 0.12396012 -0.07138035 0.0022765612 0.03775442
0.1452847 -0.14955224 -0.75095165 -0.3109612 0.07005154 -0.07159001 -1.0820563 0.24844944
0.18713738 -0.42562526 0.09469029 -0.07077987 0.022122838 0.031947423 -0.052888673 0.15258577
-0.018054895 -0.005365506 -0.3470498 -0.3803474 -0.06403686 -0.0030543678 1.2503835 -0.4493732
0.0134720635 0.41634187 0.2894006 0.32830307 -0.12817809 0.13867645 -0.11646663 -0.25397635
-0.26294732 -0.19026461 0.08956915 0.029927105 -0.11311641 0.007836678 0.1632969 0.2220314
0.072129644 -0.11514065 -0.111099795 0.22858438 -0.21230903 -0.27039418 -0.044553358 0.1441615
-0.36536855 -0.26377234 -0.41366118 -0.3573982 0.005370928 -0.118834056 0.021492215 -0.06011528
-0.07335288 0.008845314 0.113053866 0.019243535 0.65238625 0.2563237 0.23181175 -2.6189418
-0.6411903 -0.36516923 -0.21439579 -0.0019567194 -0.11672526 -0.35366032 -0.25026685 0.1453832
-0.034870345 0.07806406 -0.17685296 0.05837827 0.071240015 0.12916227 0.28370315 -0.14112785
0.3109317 -0.15531047 -0.0039718375 0.057802502 -0.68900615 -0.3354998 -0.115139045 -0.27881813
-0.015919745 -0.30956376 -0.17354241 0.11278343 0.13494405 -0.21735288 -0.07430141 -0.16399844
0.15377039 -0.0332691 -0.06425537 0.038071074 -0.9675524 0.5583967 0.06509948 -0.012234504
0.4343707 -0.46814817 0.53386664 -0.17261985 0.09543704 -0.18918104 -0.37793905 -0.2500088
-0.36378065 0.28874362 0.18864475 -0.37579146 -0.09281025 0.11055469 -0.36790305 -0.1489999
00000000: 49c5 8cbd 40e9 373c 1da1 513e b166 60be
00000010: 4409 b5be 5680 d13c 9479 51bc 389f e43d
00000020: d248 83be c3f1 c9bd f492 46bd aef5 f0bb
00000030: e1b5 77bd c912 093e ff0e 8d3e 33b7 4abd
00000040: e8f4 273d afd7 703d be7f c53e b80b 7fbc
00000050: b3ae 0ebf 5e7d 14bd 971f 6dbe 63e0 8fbe
00000060: dcb6 923e 635b e1bd 0d04 c8bc cdd8 ad3d
00000070: f354 1cbe 1c47 c63d a5b4 323d a9be e13e
00000080: 0f49 963e 0920 d8be cf5f 65bf 11db bc3e
00000090: 1a77 06bc cfb5 ba3d 2f13 1cbf d401 4abd
000000a0: 5506 d33e 3016 09bf 9b32 f13e 0fb3 54bf
000000b0: 4860 01bf dcca 013e 68ec 4a3e 308e 12be
000000c0: 5216 173d 0f5e 2cbd 503f fdbe 21c2 91be
000000d0: db6f 373d c4d5 17be 5c92 3a3e a78f ae3e
000000e0: 0633 92bf 28f0 e6be 6772 70bd a606 bf3c
000000f0: 05d1 573e 4b25 adbb a2ee 423e 25c6 c73d
00000100: a948 32be 08b3 7dbd 681e e8bd c635 b3bd
00000110: 41bc f2bd e7f7 e2bd 1cff ad3d 6a00 16bd
00000120: 2c35 47bd 1767 4fbe bee7 543d a4ec 343c
00000130: 0b5c 66bf 1746 f2be f151 cdbe ccde 273e
00000140: 31bf 7fbe a5fa 063e f0b8 d4be 7b66 6a3e
00000150: 7a60 1b3e 26e2 56bc a33b babe fe7b 2b3e
00000160: 76e0 203e 5a3e d23e 266e 88be 7610 4bbe
00000170: 68b4 d03c 3815 173d 3db4 35be b1de 9ebe
00000180: 5f2a fe3d 9039 edbe 9843 cf3c 497d 033d
00000190: 9697 583e f071 1dbe 613a 6abe adbd 69bb
000001a0: 9436 48be 3138 17be db35 323d 6b8e 84bd
000001b0: aaf6 0b3d 3a90 043d f5bc 4d3d ffe8 ee3d
000001c0: eca3 173e 8c6c 17bf d8c1 e13e 8eef 943c
000001d0: 188b 18bd e3fe b4be 207e 07c0 0ab6 70bd
000001e0: b9a7 b93d 5898 313e ee22 b23e 5a26 26bf
000001f0: c35a 903d 8f09 4fbe 9822 b2be ad07 b93e
00000200: 4ce6 6bbe a8d0 113e 699a 14be 943f 963e
00000210: cede fd3d dc2f 92bd 5c32 153b 61a4 1a3d
00000220: 83c5 143e 3924 19be 5e3e 40bf 4e36 9fbe
00000230: 2f77 8f3d c89d 92bd d280 8abf 8869 7e3e
00000240: f1a0 3f3e 8eeb d9be fcec c13d 09f5 90bd
00000250: f43a b53c 4ddb 023d cba1 58bd 723f 1c3e
00000260: dce7 93bc 20d1 afbb 83b0 b1be e5bc c2be
00000270: c225 83bd ca2b 48bb 910c a03f 3e14 e6be
00000280: eeb9 5c3c c32a d53e 512c 943e 5717 a83e
00000290: 1e41 03be 3301 0e3e 0e86 eebd 3009 82be
000002a0: 08a1 86be bad4 42be 0870 b73d b029 f53c
000002b0: 94a9 e7bd 6965 003c 4d37 273e 335c 633e
000002c0: b5b8 933d dcce ebbd 4a88 e3bd 0612 6a3e
000002d0: 8a67 59be 1b71 8abe 957d 36bd 129f 133e
000002e0: 9611 bbbe 2b0d 87be 66cb d3be e6fc b6be
000002f0: 9cfe af3b 455f f3bd 7110 b03c 713b 76bd
00000300: 093a 96bd f0eb 103c c988 e73d 9ea4 9d3c
00000310: c902 273f dc3c 833e 0f60 6d3e be9c 27c0
00000320: 0c25 24bf 76f7 babe 928a 5bbe 4e3c 00bb
00000330: a70d efbd f712 b5be fa22 80be 55df 143e
00000340: 35d4 0ebd 0de0 9f3d f118 35be 0e1e 6f3d
00000350: 49e6 913d 1d43 043e 8a41 913e d283 10be
00000360: 7132 9f3e b509 1fbe 3026 82bb 51c2 6c3d
00000370: b562 30bf a1c6 abbe 05ce ebbd 40c1 8ebe
00000380: 206a 82bc 247f 9ebe 1ab5 31be 00fb e63d
00000390: c62e 0a3e c191 5ebe 562b 98bd 35ef 27be
000003a0: fc75 1d3e 2e45 08bd 5298 83bd 6af0 1b3d
000003b0: 84b1 77bf 16f3 0e3f e052 853d 3b73 48bc
000003c0: d665 de3e 1eb1 efbe 7cab 083f 42c3 30be
000003d0: 7f74 c33d adb8 41be 3a81 c1be 2701 80be
000003e0: 7541 babe 34d6 933e 172c 413e bd67 c0be
000003f0: 4d13 bebd 7f6a e23d ca5d bcbe 6e93 18be

l1.bias f4 [256]
-0.22891799 -0.026810788 0.038986426 -0.013030429 -0.037227735 -0.018243108 -0.19430694 -0.0650208
-0.008555047 -0.0042949305 0.029769607 -0.012442683 0.099960536 -0.1707548 -0.09131954 -0.061129358
-0.14758511 -0.30115196 0.07188809 -0.06324325 -0.2480113 -0.0945844 -0.07161633 -0.03425074
-8.1488484e-05 -0.08038922 -0.09581366 -0.028887594 -0.047135 -0.030160118 -0.15372358 -0.2110966
-0.075992316 -0.22916709 -0.10080645 -0.10542964 0.041241497 0.017973427 -0.14071374 0.071585335
-0.17579916 0.14972651 0.010871019 -0.116918415 -0.1103836 -0.1763059 0.10145957 -0.08357007
-0.13142326 -0.20030333 -0.012932196 -0.036635876 -0.098775126 -0.0408514 -0.024253353 -0.039384753
0.019105382 -0.08396357 0.066717796 -0.061518975 -0.04395502 0.08961348 -0.092021495 -0.10572778
-0.043333787 0.0063216304 -0.049727593 -0.06408458 -0.17700008 -0.14638394 -0.19858141 -0.12043322
-0.15771292 -0.19833373 -0.1648054 -0.07744261 0.117133416 -0.09451772 -0.24650879 -0.15444095
-0.22369458 -0.031013425 0.056331787 -0.18986358 -0.11885573 -0.12597582 0.13425246 -0.00045778535
-0.16435684 -0.06820615 -0.195538 0.017717298 -0.16088717 0.16265374 0.112413295 -0.17994136
0.15090287 -0.1100399 -0.06320427 -0.12929347 -0.04726017 -0.05543556 -0.1011188 -0.032165054
0.00066848024 -0.102314234 0.025634404 0.030664494 -0.07786269 -0.061884247 -0.16958103 -0.1778136
-0.09092387 0.063313544 -0.14862801 -0.06925841 -0.2638561 -0.010919531 -0.1755846 0.011566097
0.014442437 0.062885635 -0.08916037 -0.0369675 -0.0070309774 -0.16065142 0.0622759 0.042867158
-0.14517222 -0.017915603 -0.077778526 -0.18672413 -0.051582776 -0.21457446 0.019684708 -0.14478187
-0.06329522 -0.14522345 -0.1510575 -0.06053331 -0.24266736 -0.14026958 -0.0070626386 -0.133248
0.028166166 -0.2511074 0.060300034 -0.15939486 -0.08988094 0.015068943 -0.19393821 0.01736141
0.06276363 -0.13494013 -0.04421 0.051532343 0.045507967 0.09419212 0.0071927067 -0.091436654
0.064759605 -0.22033094 0.014365211 -0.055131137 -0.024710683 -0.11432774 0.011316393 0.073629476
0.100473955 0.011084389 -0.1781461 -0.13517472 0.057478745 -0.024499077 -0.11570793 -0.12777588
0.05185703 -0.14550553 -0.117563054 0.011215001 0.039611958 0.08804724 -0.055704977 -0.18501292
-0.00066016254 -0.06297803 0.0036254027 -0.057214856 -0.16392785 -0.22626664 -0.06796226 -0.2231376
0.013522099 -0.106061175 -0.29117176 -0.015216227 -0.052556828 0.11960194 0.009092611 0.040635712
-0.064151436 0.060257338 -0.12302447 -0.07056263 -0.13331309 -0.05886405 -0.26222435 -0.019928578
0.13180655 -0.05678425 -0.13452014 0.08944342 0.00919649 -0.093805365 -0.17020845 -0.07118809
-0.042137735 -0.01487814 -0.1698831 -7.368035e-05 -0.004890114 -0.0013445184 -0.13878255 -0.09116327
-0.043810986 -0.15661423 -0.07280504 -0.11303366 -0.00919316 0.071381785 -0.005912112 0.0565943
-0.027186664 0.043757048 -0.0043970966 -0.12539321 -0.17767927 -0.21747245 -0.16707936 -0.044993732
0.03823029 -0.04559692 0.05948169 0.037949756 0.016830172 -0.22306755 -0.1636314 -0.04080687
-0.067471616 -0.05702457 0.1956987 0.023250151 -0.19576558 -0.014001225 0.16010843 -0.21497332
00000000: 7a69 6abe 4ca2 dbbc 3bb0 1f3d 957d 55bc
00000010: 1c7c 18bd 9272 95bc 66f8 46be a029 85bd
00000020: 782a 0cbc 7dbc 8cbb 64df f33c 65dc 4bbc
00000030: 1cb8 cc3d 59da 2ebe bd05 bbbd c762 7abd
00000040: 8d20 17be 9730 9abe 103a 933d ad85 81bd
00000050: adf6 7dbe 77b5 c1bd 95ab 92bd 814a 0cbd
00000060: cce4 aab8 1aa3 a4bd f439 c4bd ada5 ecbc
00000070: a110 41bd 5a12 f7bc b769 1dbe b529 58be
00000080: dca1 9bbd c7aa 6abe 9d73 cebd 7feb d7bd
00000090: d8ec 283d 023d 933c 4317 10be 559b 923d
000000a0: b204 34be e851 193e 5c1c 323c ec72 efbd
000000b0: cc10 e2bd 8989 34be 09ca cf3d c926 abbd
000000c0: d293 06be 511c 4dbe 90e1 53bc 800f 16bd
000000d0: 9d4a cabd cc53 27bd f8ae c6bc e851 21bd
000000e0: e482 9c3c 18f5 abbd 57a3 883d 52fb 7bbd
000000f0: 2e0a 34bd 4687 b73d c475 bcbd ce87 d8bd
00000100: c57e 31bd ae25 cf3b 29af 4bbd c73e 83bd
00000110: 823f 35be ace5 15be ed58 4bbe b1a5 f6bd
00000120: 7f7f 21be ff17 4bbe bfc2 28be 3b9a 9ebd
00000130: a5e3 ef3d 8292 c1bd cd6c 7cbe c525 1ebe
00000140: 3110 65be de0f febc 29bc 663d 996b 42be
00000150: a26a f3bd ceff 00be 7a79 093e e902 f0b9
00000160: 294d 28be aaaf 8bbd 1d3b 48be de23 913c
00000170: 9bbf 24be b48e 263e f138 e63d 8c42 38be
00000180: 4886 1a3e 995c e1bd 3e71 81bd 8265 04be
00000190: e193 41bd 6610 63bd 6017 cfbd 81bf 03bd
000001a0: f33c 2f3a 208a d1bd 3eff d13c 1b34 fb3c
000001b0: 7976 9fbd 567a 7dbd a6a6 2dbe c514 36be
000001c0: 4b36 babd 88aa 813d f131 18be 5ad7 8dbd
000001d0: 2618 87be d5e7 32bc 73cc 33be ba7f 3d3c
000001e0: f99f 6c3c 2fca 803d b699 b6bd 3c6b 17bd
000001f0: 1d64 e6bb ce81 24be 0415 7f3d 7995 2f3d
00000200: 07a8 14be bec3 92bc 594a 9fbd 9c34 3fbe
00000210: 7648 53bd 68b9 5bbe d341 a13c b341 14be
00000220: eda0 81bd 75b5 14be d1ae 1abe c7f1 77bd
00000230: cb7d 78be d4a2 0fbe b56d e7bb 2a72 08be
00000240: bbbc e63c 2691 80be 2bfd 763d 6838 23be
00000250: 8013 b8bd bae3 763c bd97 46be 8439 8e3c
00000260: 388a 803d bf2d 0abe 8c15 35bd 9413 533d
00000270: 9066 3a3d cce7 c03d ccb0 eb3b 2443 bbbd
00000280: afa0 843d 6f9e 61be 105c 6b3c 30d1 61bd
00000290: 0f6e cabc aa24 eabd 6468 393c 0dcb 963d
000002a0: 4ac5 cd3d 4c9b 353c ee6b 36be 3e6b 0abe
000002b0: d56e 6b3d 4ab2 c8bc 47f8 ecbd aed7 02be
000002c0: 0968 543d 67ff 14be e6c4 f0bd 20bf 373c
000002d0: 2640 223d 1d52 b43d e72a 64bd 0774 3dbe
000002e0: c20e 2dba a0fa 80bd 2a98 6d3b 205a 6abd
000002f0: b4dc 27be 71b2 67be cc2f 8bbd 2f7e 64be
00000300: cb8b 5d3c 9a36 d9bd 7714 95be 7b4d 79bc
00000310: d445 57bd ddf1 f43d 2df9 143c a271 263d
00000320: d461 83bd 66d0 763d 41f4 fbbd 2483 90bd
00000330: 3a83 08be 6e1b 71bd 4542 86be 4241 a3bc
00000340: 4cf8 063e 9a96 68bd a6bf 09be 1d2e b73d
00000350: e0ac 163c 071d c0bd 204b 2ebe 10cb 91bd
00000360: 9e98 2cbd 71c3 73bc d6f5 2dbe d684 9ab8
00000370: 403d a0bb 8d3a b0ba 031d 0ebe cfb3 babd
00000380: 2673 33bd 7b5f 20be cf1a 95bd 317e e7bd
00000390: e89e 16bc 9d30 923d 64ba c1bb 6dcf 673d
000003a0: 91b6 debc 973a 333d 8515 90bb 1467 00be
000003b0: 8ef1 35be 19b1 5ebe da16 2bbe 594b 38bd
000003c0: 5d97 1c3d d6c3 3abd 13a3 733d 3471 1b3d
000003d0: 6edf 893c d26b 64be fd8e 27be 1b25 27bd
000003e0: 8f2e 8abd 9892 69bd 3d65 483e 1a77 be3c
000003f0: c676 48be 6565 65bc 77f3 233e f721 5cbe

l2.weight f4 [256, 256]
0.05819143 0.2720645 -0.037568245 0.08631517 -0.44798625 -0.46778145 -0.44267762 0.048639916
0.20343463 -0.080286406 0.17037088 -0.358201 -1.5137262 -0.088319495 0.0074334517 -1.1799469
-0.43491903 0.049006373 0.30419886 0.16579328 0.1291817 0.4518147 -0.3486826 -0.14982025
0.108142495 0.29510698 -0.07082953 0.031788196 0.015708584 0.16907975 0.30059358 1.2644311
-0.11323148 -0.50778514 -0.59073836 -0.038351063 -0.37828544 -0.695182 -0.36586034 -0.7091268
0.6833776 0.6453527 0.10870388 -0.25551677 0.44436058 -0.2904071 0.0430636 0.033984024
0.07140493 0.37854534 -0.24994946 0.33789766 0.10403204 -0.5281501 0.14609276 -0.14897431
0.4862307 -0.07322538 -0.10566928 0.21514621 -0.6159585 0.044485547 -0.4823988 0.60160065
0.10530053 0.177621 0.41502434 0.15671398 -0.3241962 -0.0006143898 -0.38599452 -0.35068688
-0.043606773 -0.04870978 0.29503545 -0.29578084 0.057822604 0.16048078 0.027361616 0.30851173
-0.12630853 -0.66191125 0.60469866 0.26860428 -0.7580867 0.12620126 0.3857268 0.060228925
0.21287544 -0.12616561 0.18047462 -0.7334652 -0.41525778 0.23876478 -0.29569712 -0.7069427
0.20885451 -0.16584449 0.1950543 0.032979563 -0.5418331 -0.13575704 -0.8733469 0.06110237
-0.009010851 0.095287666 -0.89049613 0.08268614 -0.42538497 0.1834349 0.019917682 0.26261076
-0.008982495 -0.62554663 0.014792776 -0.9192172 -0.086142816 -0.15865387 0.28179866 0.68469554
-0.089330405 -0.0161326 0.30823585 -0.47836658 -0.10400544 -0.03881652 0.20990881 -0.09544666
0.13447046 0.035928357 0.23348644 0.16420507 -0.73056084 0.1517916 -0.070984155 0.027600454
0.38329288 -0.5866223 0.23431039 -0.037729353 0.17337085 -0.056200903 -0.14833705 0.21335208
-0.40552518 -0.11601355 -0.011211984 -0.24206118 -0.21066435 -1.5654799 0.16006637 -0.33159742
-0.11154599 -0.4559064 0.19944789 0.099717796 -0.09136468 -0.05847802 -0.21799256 0.019611882
-0.037653286 -0.60462606 -0.0704497 -0.16120692 0.25395662 -0.34470463 0.24959463 0.03698886
0.00214312 -0.004875587 -0.46383494 -0.98537457 0.11090071 0.41431525 -0.08847024 -0.14528763
-1.3815309 0.47757107 0.037993718 0.09737302 -0.08938712 -0.033839263 0.056852613 0.26361755
-0.14134942 -0.3169648 0.2855967 0.22547767 0.07817869 -0.013421548 -0.20183438 0.14765663
-0.0774694 0.89401966 0.21464807 -0.13829066 -0.027657969 0.00157848 -0.77412224 -0.12560602
0.17946 0.3576742 0.66793936 -0.030745707 0.09274507 0.020430803 -0.5311126 -0.4274932
0.2962637 -0.22820653 -0.17723992 0.3192465 0.22316028 -0.06593929 -0.55131555 -0.19311543
0.4132478 -0.13362499 -0.06786431 -0.72186726 -0.39238328 -0.60282534 0.014292464 0.3271091
0.20085847 0.34995535 -0.27523002 0.1722598 0.091612816 -0.25263315 -0.1813408 -0.36404526
-0.82258046 -0.04695742 0.29218343 -0.058331385 0.25976822 -0.16136488 -0.16807407 0.06369552
-0.2853956 -0.8347666 0.12070984 -0.023939943 -0.47828582 -0.50051576 0.58238876 -0.07747073
-0.32766005 -0.59526 -0.070592746 0.81253713 -0.11455186 -0.6455604 -0.27547568 -0.36734954
00000000: 235a 6e3d 0a4c 8b3e 29e1 19bd 02c6 b03d
00000010: 745e e5be 0d81 efbe a4a6 e2be a63a 473d
00000020: 2b51 503e 336d a4bd b475 2e3e 1f66 b7be
00000030: c8c1 c1bf dae0 b4bd 5094 f33b 8008 97bf
00000040: b5ad debe e8ba 483d f4bf 9b3e b7c5 293e
00000050: 3548 043e 4254 e73e 8786 b2be 7b6a 19be
00000060: d079 dd3d 4318 973e 130f 91bd 5734 023d
00000070: 4aaf 803c 3e23 2d3e 67e7 993e e1d8 a13f
00000080: e8e5 e7bd 35fe 01bf a13a 17bf 0116 1dbd
00000090: a1ae c1be 73f7 31bf 0c52 bbbe 5589 35bf
000000a0: d6f1 2e3f d635 253f 24a0 de3d 18d3 82be
000000b0: 3b83 e33e 3db0 94be 7563 303d d532 0b3d
000000c0: bf3c 923d b2d0 c13e c0f2 7fbe ec00 ad3e
000000d0: c00e d53d d834 07bf 5799 153e b98c 18be
000000e0: 3bf3 f83e 30f7 95bd 2369 d8bd 4a4f 5c3e
000000f0: 75af 1dbf 7a36 363d fafc f6be 8002 1a3f
00000100: cea7 d73d 48e2 353e 127e d43e a179 203e
00000110: 0bfd a5be 000f 21ba 13a1 c5be 3b8d b3be
00000120: 049d 32bd e883 47bd e30e 973e 9670 97be
00000130: 65d7 6c3d 1355 243e 7825 e03c 40f5 9d3e
00000140: 0657 01be 0473 29bf 88cd 1a3f 8086 893e
00000150: f811 42bf e73a 013e fc7d c53e 9bb2 763d
00000160: 05fc 593e 8f31 01be 57ce 383e 60c4 3bbf
00000170: ab9c d4be c17e 743e 9d65 97be 32fa 34bf
00000180: f5dd 553e 23d3 29be 50bc 473e 9415 073d
00000190: 93b5 0abf e503 0bbe aa93 5fbf 7b46 7a3d
000001a0: 40a2 13bc 2e26 c33d 8ef7 63bf 5a57 a93d
000001b0: 0fcc d9be 5cd6 3b3e 682a a33c eb74 863e
000001c0: 512b 13bc d323 20bf 665d 723c d251 6bbf
000001d0: a56b b0bd 2976 22be ea47 903e 3548 2f3f
000001e0: dcf2 b6bd 8428 84bc 17d1 9d3e 77ec f4be
000001f0: ce00 d5bd 12fe 1ebd 56f2 563e 8a79 c3bd
00000200: a0b2 093e 9d29 133d 1217 6f3e 6025 283e
00000210: 0906 3bbf 426f 1b3e 2460 91bd 591a e23c
00000220: f73e c43e e12c 16bf 10ef 6f3e 188a 1abd
00000230: 2188 313e eb32 66bd abe5 17be f878 5a3e
00000240: ffa0 cfbe 8398 edbd 78b2 37bc e3de 77be
00000250: 65b8 57be a561 c8bf 70e8 233e 23c7 a9be
00000260: 3972 e4bd 906c e9be 113c 4c3e d838 cc3d
00000270: 681d bbbd a686 6fbd 7139 5fbe 19a9 a03c
00000280: 553a 1abd c6c8 1abf ef47 90bd 6d13 25be
00000290: 9a06 823e 207d b0be bc95 7f3e a281 173d
000002a0: 9673 0c3b 63c3 9fbb c67b edbe 8241 7cbf
000002b0: e91f e33d 2121 d43e e32f b5bd 48c6 14be
000002c0: 01d6 b0bf 3284 f43e 4d9f 1b3d 826b c73d
000002d0: 9810 b7bd 0a9b 0abd 49de 683d e1f8 863e
000002e0: e7bd 10be 3649 a2be bb39 923e 9ee3 663e
000002f0: 261c a03d 0de6 5bbc acad 4ebe 4d33 173e
00000300: 47a8 9ebd 79de 643f b4cc 5b3e 119c 0dbe
00000310: f792 e2bc 00e5 ce3a e02c 46bf dd9e 00be
00000320: 5dc4 373e 1321 b73e 13fe 2a3f 6cde fbbc
00000330: 21f1 bd3d 805e a73c fff6 07bf 64e0 dabe
00000340: e0af 973e f9ae 69be 627e 35be 4774 a33e
00000350: 2184 643e 2e0b 87bd 0423 0dbf 0dc0 45be
00000360: 3795 d33e fdd4 08be 72fc 8abd 4bcc 38bf
00000370: 76e6 c8be c352 1abf f02a 6a3c d87a a73e
00000380: d8ad 4d3e 592d b33e f3ea 8cbe df64 303e
00000390: 809f bb3d 2259 81be 67b1 39be 2464 babe
000003a0: a294 52bf 6c56 40bd 1199 953e e4ec 6ebd
000003b0: 5700 853e d63c 25be 9c1b 2cbe cc72 823d
000003c0: 5f1f 92be 44b3 55bf b836 f73d b31d c4bc
000003d0: e1e1 f4be cd21 00bf 6e17 153f f9a8 9ebd
000003e0: 0fc3 a7be f662 18bf ee92 90bd 6f02 503f
000003f0: 2a9a eabd 7243 25bf 260b 8dbe 3d15 bcbe

l2.bias f4 [256]
-0.061710082 -0.044816602 -0.05201417 -0.13245642 -0.09253841 -0.044951383 0.022938496 -0.06680186
-0.13530664 -0.14402667 -0.089208126 -0.030044517 -0.10376095 0.12714523 -0.16784286 -0.0036117912
-0.24398439 -0.12027805 -0.0636697 0.25111645 -0.09292316 -0.028996937 -0.09555893 -0.09073563
0.0005174189 -0.116474286 -0.12933406 -0.0028167935 -0.0978912 0.13370864 -0.16523829 -0.2348581
-0.18188363 0.0035047561 0.077117495 -0.08288901 -0.010067615 -0.086669676 -0.110526875 -0.13783774
-0.16643475 0.015937354 -0.3436189 -0.08709063 -0.058250587 -0.30897316 -0.24588643 -0.07797203
0.052597966 -0.033216186 0.07114295 -0.13708216 -0.09807084 -0.13150129 -0.18000616 -0.06913183
-0.056991458 -0.031137694 0.059149418 0.18474674 -0.05793241 -0.47917563 -0.1052864 0.13240463
-0.22301324 -0.1927898 -0.1225801 -0.023061356 -0.08164604 -0.09426038 -0.035561066 0.033397716
-0.02134518 -0.06911106 -0.018657584 -0.06533529 0.14214753 -0.21357109 -0.29945752 -0.08648118
-0.051330555 -0.13552493 -0.09598955 0.066458166 -0.055326514 0.060388435 0.046147667 -0.108617
-0.08613037 0.13672955 -0.0060199983 -0.08596636 -0.018775843 -0.059038255 -0.09342357 -0.12894991
-0.026487675 -0.023920843 -0.055568226 -0.10413056 -0.056141965 0.0012319892 -0.110997245 -0.40826744
0.060767286 -0.49767774 -0.037813783 0.26463944 -0.03625427 0.048988927 -0.17011023 -0.15047877
-0.067941114 -0.0959846 -0.12475047 0.12870944 -0.25956938 0.12720673 -0.05481036 -0.32438746
-0.079965554 -0.21744345 -0.11649382 0.04717792 -0.10337831 -0.307478 -0.050606042 0.055025507
-0.027182 -0.043743867 -0.059733953 0.027653553 -0.09160319 -0.12093127 -0.12663366 -0.15377083
0.10676575 0.07037724 -0.13405177 -0.14056148 -0.1874945 -0.07100717 -0.42316908 -0.17323779
-0.36364034 -0.05832233 -0.4074542 -0.09045747 -0.08844934 0.033623572 -0.22692917 -0.02790369
-0.008182803 -0.25813293 -0.13715018 -0.27667388 0.064625315 -0.071187004 -0.08668776 0.0053209243
-0.049069516 -0.3175185 -0.041258227 -0.045788784 -0.051950403 0.10408401 0.08953749 -0.08409227
-0.36293942 -0.123458795 0.07087309 0.018607851 -0.069982804 0.03394677 -0.007908936 -0.052748717
0.004111146 -0.08370561 0.0008385018 -0.1627554 -0.07739756 0.1187782 -0.0584676 -0.04367793
0.07713997 -0.3681916 0.21209905 -0.03374023 0.071216896 -0.08697814 -0.003289607 -0.042665098
-0.08946267 0.076962404 -0.05354945 -0.04096389 -0.47659662 -0.10197932 -0.10161703 -0.14342336
-0.14186032 0.08071132 -0.07452999 -0.08031848 -0.34917268 -0.35319737 0.09947888 -0.1984174
-0.02315803 -0.30782887 -0.006044074 -0.4177895 -0.08063091 -0.10629389 -0.017565073 -0.020422595
0.14867406 0.23061927 -0.081224695 -0.09868726 0.005517047 0.026583806 -0.020025602 -0.091361895
-0.026401283 0.3514328 -0.022344468 -0.050717805 -0.21606202 0.12701374 0.061262805 -0.11939228
-0.1683541 0.019402824 0.10369865 0.15054026 -0.12670451 -0.018978883 -0.18314599 -0.07502621
-0.09803533 -0.20086563 -0.0068801986 0.14952745 -0.11731126 -0.17942138 0.003421054 -0.04699993
-0.15335467 0.018582033 0.12804994 0.13329251 -0.049998935 -0.10763012 -0.37109956 -0.09273643
00000000: b6c3 7cbd 9d91 37bd cf0c 55bd a8a2 07be
00000010: c784 bdbd f11e 38bd 83e9 bb3c 6acf 88bd
00000020: d38d 0abe ba7b 13be c0b2 b6bd eb1f f6bc
00000030: 9f80 d4bd 5c32 023e 00df 2bbe cdb3 6cbb
00000040: 0bd7 79be 5754 f6bd 4265 82bd 5692 803e
00000050: 7f4e bebd fc8a edbc 66b4 c3bd 9ad3 b9bd
00000060: 65a3 073a 128a eebd 2670 04be f499 38bb
00000070: 2e7b c8bd ebea 083e 3a34 29be a47e 70be
00000080: b43f 3abe 0db0 653b c7ef 9d3d b7c1 a9bd
00000090: a3f2 24bc df7f b1bd ea5b e2bd 5625 0dbe
000000a0: df6d 2abe 0e8f 823c d1ee afbe 925c b2bd
000000b0: 2b98 6ebd bb31 9ebe a7c9 7bbe cdaf 9fbd
000000c0: f770 573d b20d 08bd 65b3 913d 445f 0cbe
000000d0: 5dd9 c8bd 46a8 06be 8953 38be fd94 8dbd
000000e0: e06f 69bd 7a14 ffbc a946 723d 402e 3d3e
000000f0: 894a 6dbd 8256 f5be 65a0 d7bd 1495 073e
00000100: 955d 64be b06a 45be 470b fbbd 2beb bcbc
00000110: 0a36 a7bd 960b c1bd 7ba8 11bd 0bcc 083d
00000120: 16dc aebc 198a 8dbd cad7 98bc 82ce 85bd
00000130: 1f8f 113e 61b2 5abe 7f52 99be 0b1d b1bd
00000140: fd3f 52bd 0cc7 0abe 2b96 c4bd 381b 883d
00000150: 0e9e 62bd dd59 773d 5605 3d3d 9772 debd
00000160: 1f65 b0bd d502 0c3e 6843 c5bb 220f b0bd
00000170: cccf 99bc 19d2 71bd db54 bfbd 720b 04be
00000180: aefc d8bc a5f5 c3bc 829b 63bd 6742 d5bd
00000190: 1ef5 65bd b37a a13a 8652 e3bd 6e08 d1be
000001a0: 1ee7 783d 9ecf febe a0e2 1abd d27e 873e
000001b0: 5b7f 14bd 9da8 483d 6031 2ebe 1b17 1abe
000001c0: b624 8bbd 9393 c4bd 2d7d ffbd 68cc 033e
000001d0: 47e6 84be 7b42 023e d480 60bd 1d16 a6be
000001e0: fbc4 a3bd 7fa9 5ebe 5094 eebd a23d 413d
000001f0: 02b8 d3bd c26d 9dbe 4848 4fbd 6d62 613d
00000200: c9ac debc c52c 33bd 97ab 74bd b489 e23c
00000210: 749a bbbd d0aa f7bd 41ac 01be 1a76 1dbe
00000220: 00a8 da3d f121 903d de44 09be 59ef 0fbe
00000230: 8ffe 3fbe 356c 91bd 9ea9 d8be 3f65 31be
00000240: 112f babe 65e3 6ebd d69d d0be c441 b9bd
00000250: ed24 b5bd dfb8 093d 1f60 68be 4796 e4bc
00000260: 2a11 06bc 002a 84be 1971 0cbe 33a8 8dbe
00000270: 475a 843d 7eca 91bd 5a89 b1bd 265b ae3b
00000280: 1efd 48bd c991 a2be 63fe 28bd 058d 3bbd
00000290: f2c9 54bd ff29 d53d 6e5f b73d 9138 acbd
000002a0: 32d3 b9be f7d7 fcbd e925 913d 7e6f 983c
000002b0: 2553 8fbd c50b 0b3d 7b94 01bc 0a0f 58bd
000002c0: cbb6 863b d96d abbd e7ce 5b3a 5aa9 26be
000002d0: 9d82 9ebd fc41 f33d b97b 6fbd a1e7 32bd
000002e0: 90fb 9d3d 9c83 bcbe 7e30 593e 3233 0abd
000002f0: 2ada 913d 9821 b2bd 7296 57bb 99c1 2ebd
00000300: 3438 b7bd 779e 9d3d ab56 5bbd c0c9 27bd
00000310: 7904 f4be 89da d0bd 971c d0bd 93dd 12be
00000320: d543 11be fa4b a53d 2ea3 98bd 047e a4bd
00000330: c3c6 b2be 49d6 b4be 95bb cb3d ee2d 4bbe
00000340: e9b5 bdbc bf9b 9dbe 5e0d c6bb 81e8 d5be
00000350: d221 a5bd 9cb0 d9bd a1e4 8fbc 494d a7bc
00000360: 033e 183e 7527 6c3e 2259 a6bd 8c1c cabd
00000370: 58c8 b43b 48c6 d93c bb0c a4bc f21b bbbd
00000380: 8147 d8bc 00ef b33e bf0b b7bc 79bd 4fbd
00000390: 5d3f 5dbe e40f 023e b5ee 7a3d f183 f4bd
000003a0: 0465 2cbe acf2 9e3c f55f d43d 3a27 1a3e
000003b0: d4be 01be 9a79 9bbc 9f8a 3bbe 57a7 99bd
000003c0: bfc6 c8bd b8af 4dbe 4a73 e1bb b91d 193e
000003d0: e340 f0bd 3dba 37be c333 603b 0083 40bd
000003e0: 0209 1dbe 5939 983c 861f 033e d57d 083e
000003f0: afcb 4cbd 2e6d dcbd c300 bebe 99ec bdbd

mean_layer.weight f4 [1, 256]
-0.061916742 0.08879311 0.0662953 -0.012629953 -0.04481939 -0.0064412868 -0.21563157 0.05240573
0.31267992 0.0711624 -0.009864243 0.01003276 0.006967959 0.046377998 0.075666614 -0.0008519704
-0.14738958 -0.03973982 -0.004411797 0.013157212 0.09523248 0.0119261695 0.08058169 0.1491454
0.023195796 -0.007807499 0.017809719 0.05955922 0.049706183 0.002014754 0.007145968 0.2040507
0.04853412 0.09993977 -0.04213376 -0.017210651 0.0072085396 -0.04189196 -0.0027065638 -0.06755348
0.060831677 -0.03655458 -0.104427 0.0068836953 0.047865767 -0.37261915 -0.16153038 0.008152915
0.0076565896 -0.0132021485 -0.06656041 -0.0015805884 -0.024023082 0.0025680356 -0.74401337 -0.015424462
-0.012290351 -0.08985025 0.0028161916 -0.008882972 -0.18123697 0.84801066 0.012379174 0.0009822538
-0.4288668 -0.41469064 0.001312321 -0.001799902 0.013345051 0.16706954 -0.005630758 -0.045555107
-0.10149948 -0.016750857 -0.052489486 -0.0014041774 -0.052912813 0.056075156 0.05668912 -0.010020719
-0.03949653 0.04764697 -0.008494109 -0.05267595 0.011640258 -0.03275697 0.07837425 -0.06354501
-0.014491703 -0.060436267 -0.025514347 0.04029156 -0.013741181 0.0969913 -0.006209621 0.024123382
-0.052413475 -0.009230573 0.006086203 -0.05741535 -0.021252949 0.06621175 -0.01079374 -0.07720647
0.017185222 0.27773395 -0.0004491312 -0.08499135 5.9219346e-05 -0.0063359 0.068890065 -0.46076855
0.07621799 -0.86375874 0.032936107 0.026434675 0.036139235 -0.02465421 0.007629781 -0.114559084
0.14000927 -0.06124371 0.24487008 -0.005608889 -0.027235577 0.07883492 -0.008743236 -0.06581962
-0.022028565 0.015430028 0.042085998 0.00036011817 0.041088838 -0.049839273 -0.012244184 0.062276475
-0.16736892 0.020760443 -0.037414063 0.12772372 -0.28586763 0.05370138 0.10329875 0.15502003
-0.082911484 -0.15602194 -0.14467865 -0.033223134 0.00020393184 0.019181391 -0.10585533 -0.07491675
0.07826121 -0.04840133 0.052972853 0.23241197 0.033948682 -0.00044984178 -0.02108947 -0.19963534
-0.0204341 0.675502 -0.009469553 0.089080535 0.044487715 -0.006595222 -0.018538017 0.017358186
-0.2118315 0.043578904 -0.06976601 0.004464597 0.0113522615 -0.031420067 -0.0032104459 -0.073012285
-0.041696515 -0.059369467 -0.018758751 -0.026592689 -0.0013713989 -0.061098494 -0.004645112 0.052959353
-0.019214757 0.57822233 -0.0001575693 -0.055361714 0.0024072614 0.017931996 0.017507622 0.23572862
0.011590956 -0.03729272 0.0002506584 -0.008411498 0.32796898 0.04584582 -0.1340426 -0.11593306
0.10523438 0.050852228 0.09111535 -0.058141295 0.062329847 0.51918775 -0.009643799 0.414884
-0.029041704 0.16447192 0.012499082 0.0766055 -0.008055571 0.17055862 -0.016055455 0.082839675
0.1073651 0.022698719 0.021127302 -0.0038433806 -0.038023796 0.000756584 0.07431186 0.015807321
0.03217452 0.023342732 0.0021033597 -0.009838341 0.13760006 -0.012613429 -0.030626202 0.047819983
0.02500895 0.093050465 0.001182884 -0.075920925 0.054443635 -0.003679399 -0.048204143 0.011081237
-0.028652199 0.09993661 0.24944995 -0.034125578 0.09840513 -0.4099803 -0.0015281127 -0.018550672
-0.09640647 0.026305735 -0.056113858 -0.04495509 0.03989725 0.007561889 0.19136068 0.024693899
00000000: 699c 7dbd 29d9 b53d d5c5 873d dded 4ebc
00000010: 8994 37bd 6e11 d3bb 86ce 5cbe 64a7 563d
00000020: 9517 a03e 98bd 913d a29d 21bc 7260 243c
00000030: 7a53 e43b dbf6 3d3d 19f7 9a3d c456 5fba
00000040: 4bed 16be 39c6 22bd d690 90bb 5991 573c
00000050: 3f09 c33d fb65 433c 0308 a53d 92b9 183e
00000060: 1c05 be3c 0cd6 ffbb b0e5 913c 5ef4 733d
00000070: b698 4b3d f709 043b b928 ea3b abf2 503e
00000080: b7cb 463d 39ad cc3d 7394 2cbd 5afd 8cbc
00000090: 9d35 ec3b e796 2bbd 9b60 31bb 7b59 8abd
000000a0: a32a 793d 41ba 15bd d3dd d5bd 9f90 e13b
000000b0: e50e 443d f0c7 bebe 3868 25be ce93 053c
000000c0: 21e4 fa3b d34d 58bc d350 88bd bf2b cfba
000000d0: 0ecc c4bc 7d4c 283b a977 3ebf e2b6 7cbc
000000e0: 785d 49bc 6803 b8bd db8f 383b e389 11bc
000000f0: 2f96 39be 3a17 593f 05d2 4a3c f8be 803a
00000100: 6e94 dbbe 5552 d4be 3002 ac3a b0ea ebba
00000110: 33a5 5a3c 4714 2b3e 3982 b8bb fe97 3abd
00000120: f6de cfbd 1839 89bc 37ff 56bd 600c b8ba
00000130: 1bbb 58bd 10af 653d da32 683d f12d 24bc
00000140: 1dc7 21bd 7829 433d e02a 0bbc bdc2 57bd
00000150: c8b6 3e3c 2c2c 06bd ae82 a03d e323 82bd
00000160: 9c6e 6dbc 058c 77bd 7703 d1bc c308 253d
00000170: b122 61bc 60a3 c63d 147a cbbb 669e c53c
00000180: 83af 56bd d43b 17bc c56e c73b 5c2c 6bbd
00000190: aa1a aebc 079a 873d 3ad8 30bc 6d1e 9ebd
000001a0: 06c8 8c3c 2533 8e3e 5f79 ebb9 f20f aebd
000001b0: 4a62 7838 629d cfbb 3c16 8d3d dbe9 ebbe
000001c0: 2d18 9c3d 4b1f 5dbf 03e8 063d 888d d83c
000001d0: bc06 143d a0f7 c9bc 3e03 fa3b f49d eabd
000001e0: 975e 0f3e afda 7abd 39bf 7a3e c5ca b7bb
000001f0: 251d dfbc 3474 a13d ca3f 0fbc 70cc 86bd
00000200: 4075 b4bc 3ace 7c3c 5e62 2c3d 3ece bc39
00000210: c54c 283d 4424 4cbd d49b 48bc 9e15 7f3d
00000220: c262 2bbe ce11 aa3c 7d3f 19bd 02ca 023e
00000230: 3e5d 92be faf5 5b3d 4c8e d33d 92bd 1e3e
00000240: 7fcd a9bd 37c4 1fbe a426 14be fb14 08bd
00000250: 89d6 5539 4b22 9d3c aeca d8bd f46d 99bd
00000260: 6a47 a03d 7940 46bd 10fa 583d 67fd 6d3e
00000270: c60d 0b3d bed8 ebb9 d3c3 acbc 356d 4cbe
00000280: 6a65 a7bc b3ed 2c3f 2f26 1bbc db6f b63d
00000290: c038 363d bb1c d8bb 0add 97bc c132 8e3c
000002a0: 5bea 58be cb7f 323d 7be1 8ebd c14b 923b
000002b0: d6fe 393c 54b2 00bd 5866 52bb 7787 95bd
000002c0: f7c9 2abd 662d 73bd f4ab 99bc e9d8 d9bc
000002d0: 83c0 b3ba 6a42 7abd 0636 98bb e8eb 583d
000002e0: 4468 9dbc 6106 143f 3039 25b9 f7c2 62bd
000002f0: 25c3 1d3b 1fe6 923c 256c 8f3c d862 713e
00000300: fee7 3d3c 40c0 18bd cd6a 8339 61d0 09bc
00000310: 8deb a73e d4c8 3b3d 7742 09be 506e edbd
00000320: 1f85 d73d 6d4a 503d af9a ba3d 9125 6ebd
00000330: 954d 7f3d 7de9 043f 0601 1ebc ad6b d43e
00000340: dee8 edbc 546b 283e f3c8 4c3c 58e3 9c3d
00000350: 83fb 03bc eba6 2e3e bb86 83bc d9a7 a93d
00000360: 3ce2 db3d aaf2 b93c 2a13 ad3c 3ae1 7bbb
00000370: d7be 1bbd 7e55 463a d130 983d 5b7e 813c
00000380: 6ec9 033d 4239 bf3c 85d8 093b fe30 21bc
00000390: 08e7 0c3e 8ea8 4ebc cde3 fabc e3de 433d
000003a0: 92df cc3c 3e91 be3d 000b 9b3a 6e7c 9bbd
000003b0: 4a00 5f3d 1222 71bb b571 45bd 148e 353c
000003c0: 04b8 eabc 91ab cc3d cf6f 7f3e 43c7 0bbd
000003d0: a188 c93d f0e8 d1be f44a c8ba 94f7 97bc
000003e0: c170 c5bd 207f d73c a5d7 65bd d422 38bd
000003f0: 4c6b 233d b9c9 f73b 0ef4 433e dc4a ca3c

log_std_layer.weight f4 [1, 256]
0.3410217 0.13293546 0.4922128 0.97902405 0.07492693 0.0418776 0.29560256 -0.59063476
0.48266542 0.27938578 -0.024256904 8.539817e-06 0.045463715 0.5748296 0.15947661 -0.7450561
0.26413724 0.21846284 -0.36432332 -1.4842597 -0.043549754 -0.04234074 0.03473759 -0.53981364
-0.4799886 -0.030865036 -0.31325987 -0.006301971 -0.0648942 -0.5307912 -0.27267817 0.5350658
-0.010615502 0.12611832 0.018403672 0.41352817 -0.5251843 -0.09360707 -0.01993429 -0.12588204
0.2086034 -0.024980122 0.059356134 0.009575622 0.041574877 0.5672392 0.7420805 -0.021848096
-1.0482239 0.0043019573 0.055102322 -0.155323 0.027064862 0.002726698 0.98261636 -0.023786489
-0.007085314 0.22910401 -0.37880164 -0.9875961 -0.051126476 0.37444785 -0.002784159 -0.45730302
0.6007097 -0.086620785 0.04360301 0.004348271 -0.00914368 -0.5085147 -0.02399329 0.09456324
0.17683421 -0.0010161514 0.054501396 -0.024888849 0.08695168 -0.084626034 0.02686139 0.02844714
0.033257436 -0.1817459 -0.043694 0.16713504 -0.023385271 -0.19947013 -0.6743143 -0.059022717
-0.030212423 0.20412475 0.18563655 0.04984928 0.1265172 0.15149784 -0.07119431 0.032067005
-0.5588486 0.03576718 0.017931478 -0.1771962 -0.15574563 0.061396446 0.017918523 0.11968237
-0.5417314 0.36410788 0.041515015 -0.200397 -0.04886548 -0.50402766 -0.01214165 0.7833653
0.075756624 1.2392938 0.17833632 -0.73298323 -0.19791394 -0.46072218 0.053106017 -0.06223068
0.16843073 0.11063654 0.24459367 -0.4117007 0.11340966 -0.07795991 0.034014072 0.07363359
0.19061655 -0.02115287 -0.24724561 -0.65069956 0.09976018 0.15210508 0.03369674 0.19952056
0.41111243 0.26229882 -0.004656381 0.1914493 0.4106933 0.0617184 0.12086288 0.13526945
0.11830243 0.5848167 0.37704584 -0.519587 0.78617173 -0.5850045 0.2798377 -0.021145009
-0.03944877 0.071436256 -0.058382705 0.38468996 0.20393127 0.05275683 0.17236675 -0.028454911
0.00081094686 0.48605603 0.0028825046 -0.15060727 0.09397545 -0.6423965 -0.40446648 -0.0528637
-0.016066767 -0.314202 -0.07981739 -0.6197253 -0.03862666 -0.107776925 -0.647466 -0.16553578
-0.32685295 0.28568524 -0.45228225 0.18755537 0.049333867 -0.16827261 -0.02745624 -0.17144436
0.23064095 -0.032492694 -1.6391456 0.11351932 -0.45547798 0.046596415 0.024039347 0.25090382
-0.017422283 -0.5616913 -0.19855522 0.0039842725 0.62005234 -0.09287179 0.36990327 0.2114074
0.17617206 0.030795733 0.34612054 -0.1238166 -0.14769366 0.2832711 -0.6099325 0.5261793
-0.014683375 0.5115486 -0.24809825 -0.036178187 -0.010194948 0.055952087 -0.06459765 0.19302118
-0.30499393 0.07628774 -0.8833403 0.018043464 -0.6472724 -0.3575665 -0.04410671 0.04540277
0.043363117 -2.6589186 -0.013477017 0.010020286 0.13419858 -0.6377762 -0.53518564 -0.4548348
-0.5174001 0.16597669 -0.8226552 -1.0866894 -0.17239481 -0.02329039 0.10662405 0.031777956
0.1281585 0.21282074 0.2991579 -0.4972081 -0.2776322 0.34766507 -0.6161631 -0.7020839
-0.046633 -0.40118518 -0.01562556 0.12325673 0.046663586 -0.023898125 0.44380733 0.17769988
00000000: 659a ae3e 3c20 083e 5103 fc3e 52a1 7a3f
00000010: 4a73 993d d987 2b3d 3859 973e d733 17bf
00000020: ec1f f73e a70b 8f3e 6ab6 c6bc 3c46 0f37
00000030: 2938 3a3d 0828 133f d64d 233e ffbb 3ebf
00000040: ff3c 873e b9b4 5f3e 9688 babe 39fc bdbf
00000050: 3a61 32bd 7c6d 2dbd 0149 0e3d 3a31 0abf
00000060: 11c1 f5be acd8 fcbc 9963 a0be c480 cebb
00000070: 40e7 84bd efe1 07bf 799c 8bbe 13fa 083f
00000080: a4ec 2dbc 2925 013e 4cc3 963c f7b9 d33e
00000090: 7a72 06bf 10b5 bfbd 3c4d a3bc 39e7 00be
000000a0: 219c 553e 1da3 ccbc 6b1f 733d 12e3 1c3c
000000b0: 6b4a 2a3d 9736 113f fdf8 3d3f c7fa b2bc
000000c0: 332c 86bf 6ff7 8c3b f9b2 613d fe0c 1fbe
000000d0: 21b7 dd3c 67b2 323b bf8c 7b3f e2db c2bc
000000e0: ec2b e8bb 3e9a 6a3e 4af2 c1be 19d3 7cbf
000000f0: ff69 51bd a1b7 bf3e 7076 36bb 9f23 eabe
00000100: 1cc8 193f 3d66 b1bd 1299 323d f17b 8e3b
00000110: 60cf 15bc 052e 02bf 938d c4bc 5faa c13d
00000120: 0714 353e 6230 85ba db3c 5f3d b3e3 cbbc
00000130: b913 b23d 6a50 adbd 6b0c dc3c fa09 e93c
00000140: f338 083d 991b 3abe 7bf8 32bd 7325 2b3e
00000150: 7892 bfbc e641 4cbe dd9f 2cbf cec1 71bd
00000160: 0b80 f7bc 1406 513e 8217 3e3e c22e 4c3d
00000170: ba8d 013e 4022 1b3e 53ce 91bd b158 033d
00000180: b410 0fbf 9b80 123d 09e5 923c ec72 35be
00000190: c87b 1fbe d77a 7b3d dec9 923c 081c f53d
000001a0: e9ae 0abf 596c ba3e a60b 2a3d df34 4dbe
000001b0: 2b27 48bd f507 01bf c5ed 46bc a18a 483f
000001c0: 4a26 9b3d 2ea1 9e3f cc9d 363e caa4 3bbf
000001d0: f4a9 4abe c7e3 ebbe b285 593d 99e5 7ebd
000001e0: 1b79 2c3e 6995 e23d c376 7a3e 6fca d2be
000001f0: 5343 e83d 72a9 9fbd 5752 0b3d 35cd 963d
00000200: fc30 433e c948 adbc f42d 7dbe 3f94 26bf
00000210: 114f cc3d 6fc1 1b3e 9805 0a3d 1e4f 4c3e
00000220: 547d d23e 084c 863e 8e94 98bb 490b 443e
00000230: 6446 d23e 6fcc 7c3d f586 f73d 1384 0a3e
00000240: 8b48 f23d 8cb6 153f 270c c13e a703 05bf
00000250: 8d42 493f dbc2 15bf e346 8f3e 4c38 adbc
00000260: 0995 21bd 2c4d 923d b422 6fbd 15f6 c43e
00000270: 5cd3 503e 8c17 583d e980 303e 461a e9bc
00000280: b995 543a 56dc f83e 67e8 3c3b cb38 1abe
00000290: 3376 c03d 1974 24bf 3b16 cfbe 9b87 58bd
000002a0: 749e 83bc 16df a0be 4d77 a3bd 51a6 1ebf
000002b0: fd36 1ebd 26ba dcbd 55c0 25bf 3682 29be
000002c0: 4559 a7be 5645 923e 8a91 e7be 840e 403e
000002d0: 4f12 4a3d a84f 2cbe e9eb e0bc 1c8f 2fbe
000002e0: 242d 6c3e 0f17 05bd 86cf d1bf d17c e83d
000002f0: 6934 e9be e2db 3e3d 2aee c43c 7776 803e
00000300: 2db9 8ebc 00cb 0fbf 0f52 4bbe 808e 823b
00000310: c0bb 1e3f 9133 bebd f663 bd3e 2e7b 583e
00000320: 7366 343e 5547 fc3c b636 b13e 8f93 fdbd
00000330: 023d 17be e908 913e 8924 1cbf b0b3 063f
00000340: 8a92 70bc d9f4 023f 780d 7ebe 942f 14bd
00000350: b608 27bc 042e 653d c64b 84bd 58a7 453e
00000360: 2a28 9cbe bf3c 9c3d 9722 62bf e3cf 933c
00000370: a5b3 25bf f512 b7be 3da9 34bd 41f8 393d
00000380: 869d 313d b92b 2ac0 b5ce 5cbc 202c 243c
00000390: 5a6b 093e 4d45 23bf ed01 09bf 1be0 e8be
000003a0: 5574 04bf cbf5 293e 8899 52bf a318 8bbf
000003b0: 4488 30be 7dcb bebc b65d da3d 9a29 023d
000003c0: fb3b 033e aeed 593e 392b 993e 0f92 febe
000003d0: cf25 8ebe 2801 b23e ddbc 1dbf c5bb 33bf
000003e0: 3f02 3fbd 2568 cdbe 2d01 80bc 066e fc3d
000003f0: 5122 3f3d 00c6 c3bc b73a e33e f5f6 353e
