eval_files/models/racetrack/models/_critic.pth (torch, 619777 bytes, 10 tensors)

l1.weight f4 [256, 42]
000000 23 9a 70 3b 22 a0 7b 3c 31 0f ac 3d 55 d6 8b 3e
       0.0036712966 0.015358003 0.08401335 0.2731196
000010 4f e7 80 bd 63 e4 82 3e a1 f7 b4 be c5 42 53 bd
       -0.062941186 0.2556487 -0.35345176 -0.05157735
000020 9d 4c 68 be ca b4 38 3d 91 c5 35 bd ea 38 44 3e
       -0.22685476 0.04509429 -0.044377867 0.19162336
000030 25 86 4e 3d 43 47 86 bd b5 1f 0e be 0b a5 85 be
       0.0504209 -0.06556561 -0.13879283 -0.2610248
000040 bd 9b 95 3e 38 53 35 be 45 6e 3e be 29 2e 81 be
       0.2922038 -0.17707527 -0.18596752 -0.2523053
000050 3f 3b 82 be d5 e2 28 be a7 3c 45 3e 06 ac 36 be
       -0.25435826 -0.1649278 0.19261418 -0.17839059
000060 29 3e da 3e 9b 4b 15 be 49 54 10 3e 24 83 07 3e
       0.4262555 -0.14579622 0.14094652 0.1323362
000070 ab e2 bf bc 09 08 f7 bc 9a fb 0f 3d b0 b8 95 3e
       -0.023423513 -0.030155199 0.035152055 0.29242468
000080 a3 aa 2e be 01 0d de 3d 40 53 f1 bd 63 d3 13 bf
       -0.1705728 0.10842324 -0.11783457 -0.57744426
000090 f3 01 1e bf 19 f0 96 3e 19 93 2d 3f b9 18 ad 3e
       -0.61721724 0.29480055 0.6780258 0.33807924
0000a0 cc 40 31 3e 9b 0f 1b 3f 49 8e 34 3e f7 53 63 3e
       0.17309874 0.6057069 0.17632402 0.22199999
0000b0 3d 70 f3 bd eb 43 64 3e 90 23 b8 be 44 15 69 3d
       -0.11886642 0.22291534 -0.35964632 0.056905046
0000c0 44 de 4a 3e 74 5e 87 bc 8f af a8 be a1 8a c6 be
       0.1981135 -0.016524531 -0.3294644 -0.3877764
0000d0 1e 71 e9 3d f4 66 32 bd be 84 e3 bd bc ac 01 be
       0.113985285 -0.043555215 -0.11109303 -0.12663549
0000e0 c4 f6 5b bf 47 6e e2 3b d1 09 55 3e ab 88 17 3d
       -0.8592341 0.0069101187 0.20804526 0.03699557
0000f0 d9 e9 3a 3d 3c c3 a2 3b e8 4d 72 3d 73 5c 9d 3d
       0.04563317 0.0049671214 0.05915633 0.07683649
000100 cd e3 1a 3d 70 8d 18 3c 4f 2d 41 3e 33 b3 7c 3d
       0.037814904 0.009311065 0.1886494 0.061694335
000110 ae 8e e3 bd 27 47 b3 bd d5 c9 c9 3d cc 0f d5 bd
       -0.11111198 -0.087538056 0.098529495 -0.10403404
000120 b6 2c 82 3d eb 34 7e 3f 7f f7 65 3e bc 2b 8c be
       0.06356184 0.99299496 0.22457694 -0.27377117
000130 61 4e 4c bd c6 34 b2 be 44 ee e8 3e 62 ad 28 bf
       -0.049879435 -0.34805888 0.45494282 -0.6588956
000140 9a de bc bc 17 d0 01 bf 05 b5 36 be e5 98 87 3f
       -0.023055363 -0.50708145 -0.17842491 1.0593535
000150 79 1c 06 be 93 93 b7 3d ed 11 87 bc 34 fd 96 bc
       -0.13096799 0.089636944 -0.01648804 -0.018431284
000160 a3 68 db bc af 68 c2 3d 23 7a 55 bd c8 19 4c bd
       -0.026783293 0.09492623 -0.05211843 -0.049829274
000170 ae 72 08 bd c2 92 b3 3b 7a e0 23 be 8c 5e 0b be
       -0.033312492 0.0054801414 -0.160036 -0.13610286
000180 32 e8 96 3d cc 79 48 3c 28 0b 41 3d 37 33 fe 3c
       0.073685065 0.01223607 0.04712978 0.03103028
000190 c3 c9 11 3d 16 11 dc bd 77 29 09 bc c9 f7 e4 3c
       0.035592806 -0.107454464 -0.008371702 0.027950184
0001a0 7a 90 13 be 7c 06 18 be 09 5f 1e bd 45 98 1c 3c
       -0.14410582 -0.14846224 -0.03866485 0.009557788
0001b0 63 00 cf bd 47 3d 0b be 3f b5 0a be 40 77 26 bd
       -0.10107496 -0.13597594 -0.13545702 -0.04064107
0001c0 58 cd 52 3d d0 8f f7 bd da 1d 09 3d e0 87 d8 3d
       0.051465362 -0.12087977 0.033475734 0.10572791
0001d0 24 b3 1f bd 31 a1 f5 bd ca 13 ef bd be b7 1e 3e
       -0.0389892 -0.119936354 -0.11673696 0.1549978
0001e0 7e 03 c5 3d 30 a3 7c 3d fc 75 15 bd af c9 cf 3d
       0.09619807 0.061679065 -0.03648947 0.1014589
0001f0 63 89 64 3c 91 b7 c7 3c ee e2 ab bc 0c 06 12 3c
       0.013948771 0.024379523 -0.020982232 0.0089125745
000200 a6 9b aa 3b 19 b7 91 bd 76 4e 62 be fe f1 af 3c
       0.005206543 -0.07115001 -0.22100243 0.021477696
000210 17 92 49 bb 71 52 1f bc d5 89 15 bd 88 ed 81 bb
       -0.0030757242 -0.009724245 -0.0365084 -0.0039650835
000220 e9 ea 2c 3d 9d 77 99 3c 8e 36 a8 bc 05 74 6e bb
       0.042216215 0.018733794 -0.020533826 -0.003638507
000230 a2 02 9e 3c 7d e1 19 3d 7d 5a 89 3b 41 7c 93 bd
       0.019288365 0.037568558 0.0041916952 -0.07201434
000240 a8 a0 86 bc 45 ec 9a 3b 3b ed 73 3d 46 d8 99 bc
       -0.016434029 0.0047278726 0.059552412 -0.018779885
000250 c1 b7 1e bc 45 65 07 bc d8 0d b6 bc fb 83 32 be
       -0.009687365 -0.008263891 -0.022223398 -0.17433159
000260 72 b4 98 3d 39 c5 8a 3c a8 7d e1 3c 6e ce 12 be
       0.07456292 0.016939746 0.027525738 -0.14336559
000270 d6 5e 19 bd 2f 7c 34 3e 0c 9c 45 bd 95 a8 31 bd
       -0.03744396 0.17625497 -0.04824452 -0.043373663
000280 8b cb 3c bb 6e 4b a2 40 6f 17 e3 3f 83 05 50 3f
       -0.0028807845 5.0717077 1.7741526 0.8125841
000290 25 64 1c bd 6e 1e 11 bf 29 57 d8 be 4c 98 e2 bd
       -0.038181443 -0.56687057 -0.42253998 -0.110642046
0002a0 6e 2a 3a be 96 3a 3e bf 14 67 18 bf b9 73 e9 bd
       -0.18180248 -0.74308145 -0.59532285 -0.113990255
0002b0 ba fa 9a be 5a d7 89 be b7 4e 57 3e c8 24 c5 be
       -0.30269414 -0.26922113 0.21026121 -0.38504624
0002c0 9b 12 a1 bc bf bc 06 bf 6f 15 56 3d 23 85 20 3c
       -0.019662192 -0.52631754 0.052266534 0.009797367
0002d0 73 4a 08 be ed 36 63 bd 00 15 5e bc d0 a3 1f be
       -0.1330965 -0.055472303 -0.0135548115 -0.15589833
0002e0 13 fc 15 3d 13 1d 9a be c1 7a 34 3e 3f 27 c9 3e
       0.03661735 -0.30100307 0.17624952 0.39287755
0002f0 ba 4a 8c be de 99 da 3d 90 5e 5b bf 2b 6b 01 3e
       -0.27400762 0.10673879 -0.85691166 0.12638538
000300 7a dc ad 3e d5 13 b6 bd 25 2c e6 bd cb 38 43 bd
       0.33957273 -0.088905014 -0.11238889 -0.047661584
000310 d2 45 2b bd 6b 5c 97 3d 2c 65 4e bd db 86 37 3e
       -0.041814633 0.07390674 -0.050389454 0.17922537
000320 15 09 0d 3f 18 08 08 3f ad e0 33 be db 7f 88 bf
       0.55091983 0.5313735 -0.17566176 -1.0664018
000330 a4 87 14 3f 73 cf 41 bf dd 34 e7 3c 78 99 31 3e
       0.5801947 -0.7570717 0.02822345 0.173437
000340 e9 d1 03 3e 80 25 0c 3f d9 00 76 be 4f 32 3d be
       0.12873043 0.5474472 -0.24023761 -0.18476222
000350 9f 2c b6 3d 27 08 2c 3d 22 03 d8 bd 05 02 85 be
       0.088952295 0.041999962 -0.105474725 -0.25978103
000360 cc 95 2f be 5f ea f0 3d e1 e1 6d 3d 0e b3 0c bd
       -0.17146987 0.11763453 0.058076743 -0.034350447
000370 a4 73 69 3e 10 94 a7 bd fd ef 55 bc af 4d a7 3c
       0.2279802 -0.081825376 -0.013057706 0.020422785
000380 13 32 e5 3d 96 b1 f4 bc ff 0f d3 bd 25 38 33 be
       0.111911915 -0.029869836 -0.103057854 -0.17501886
000390 bc 3c 29 3e 75 d8 12 be fb 89 2c 3e 6e a8 78 bc
       0.16527075 -0.14340384 0.1684951 -0.0151768755
0003a0 ae 04 9f bd 33 09 db bb 45 d5 02 be 67 42 1f 3d
       -0.077645645 -0.0066844462 -0.12776668 0.038881686
0003b0 fd 52 d6 bd d9 d6 13 3e a1 49 e8 bd b4 12 c9 3d
       -0.104650475 0.14437427 -0.113421686 0.098180205
0003c0 17 f6 ac 3d 9e 00 bd 3e 18 79 c9 3e 08 8e 1a 3e
       0.084453754 0.36914533 0.393502 0.15093243
0003d0 a2 d6 67 bc 32 75 80 3f 03 c6 16 3e e6 4f 99 3e
       -0.014150294 1.0035765 0.14723973 0.2994377
0003e0 da 49 06 3f c5 27 f9 be fc 72 2c be 35 56 02 bf
       0.5245644 -0.48663154 -0.16840738 -0.5091279
0003f0 8f 4e 04 bf 83 a7 e2 3e b0 3b ce 3e cc 90 4d 3c
       -0.5168237 0.44268426 0.40279913 0.012546729

l1.bias f4 [256]
000000 76 d0 b4 3d d3 31 a3 bd e4 8e ab 3c 05 bb 08 3c
       0.08828823 -0.079684876 0.020942159 0.00834537
000010 16 85 21 3d 04 6c b6 bd 79 5c a3 3d 63 bf 75 be
       0.03943356 -0.08907321 0.07976622 -0.2399879
000020 84 a1 38 3c 3b 0a d4 bd b8 60 40 3d 13 32 86 bd
       0.011268977 -0.10353514 0.04696724 -0.0655252
000030 94 0c de bd 25 2a 92 3d 76 a1 80 3b a9 ea 9f 3d
       -0.10842243 0.07136945 0.0039254976 0.0780843
000040 7e d2 49 be ce af aa bd 20 6a 09 3b 0d 0c a4 bd
       -0.19709203 -0.08334313 0.0020967796 -0.08010111
000050 bf 9c 2e be 31 19 51 be 4e 2d 87 bd 9e 10 37 3d
       -0.17051981 -0.20419766 -0.06600438 0.04469358
000060 4d fe 92 be f4 8f 58 3d 79 33 43 be a0 03 4e be
       -0.2870964 0.05287166 -0.19062604 -0.2011857
000070 6b 0e e1 bd 05 c2 2a be 4c be 9d bd b1 87 1e be
       -0.10989078 -0.16675575 -0.07702312 -0.1548145
000080 2f 95 fe bc a4 07 ac bd 09 65 6d be 1d e1 62 3d
       -0.031076996 -0.08399895 -0.23183073 0.055390466
000090 ef 2d 65 be dc ec 7c 3d 34 89 cb 3d 1f 58 b6 bd
       -0.22380804 0.061749324 0.09938279 -0.089035265
0000a0 2e db 4b 3c 07 84 48 be 6b c5 24 bd e6 4a 41 be
       0.012442393 -0.19581614 -0.040227335 -0.18876228
0000b0 f4 3b 60 bd 06 f2 39 3d 4c 88 8b 3d 93 70 0c bd
       -0.054744676 0.045396827 0.06813106 -0.034287047
0000c0 65 10 b1 bd ea c7 8a 3d 4b 1d ec 3d f1 97 2d be
       -0.08645705 0.06776412 0.11529025 -0.16952492
0000d0 87 bb 83 be 75 0f 4c be a3 6b 20 3e db dc 59 bb
       -0.2572901 -0.19927771 0.1566606 -0.0033243212
0000e0 3c 0f 94 3c 80 59 ca bd d1 3c 0b bd 19 bb 59 3c
       0.01807367 -0.09880352 -0.033993546 0.013289236
0000f0 0c e8 b2 bd 66 b2 2c bd 1e e9 94 3c 0c 12 07 be
       -0.08735666 -0.04216232 0.018177565 -0.13190478
000100 ba 4e 2b bc 83 fd 2c bc b3 f7 68 3d ad f8 70 bd
       -0.010455782 -0.010558489 0.05687685 -0.058830906
000110 9c 48 20 be 3a 38 e0 bd 81 1d 22 be 05 03 f6 3d
       -0.15652698 -0.10948224 -0.15831567 0.12012295
000120 f3 6f 2a 3d a5 53 20 3e 17 ab 0c bd 53 c0 58 be
       0.04161067 0.15656908 -0.03434285 -0.21167116
000130 b9 67 4f be 0d 89 65 be 57 46 29 be 3c f7 99 3d
       -0.20254411 -0.22415562 -0.16530739 0.07517859
000140 74 72 5e bd 69 88 34 be 20 6d 6c be 0b 87 08 be
       -0.05430837 -0.17630161 -0.23088503 -0.13332765
000150 c5 2c 7a bd 5b c7 d6 bb 86 3c e2 3d 0a 22 1e 3e
       -0.06107785 -0.0065545267 0.110467 0.15442672
000160 43 6c 68 bd 82 35 d7 3d 6d 90 4b be ee 19 a4 bd
       -0.05674387 0.10508253 -0.19879313 -0.08012758
000170 75 68 ea bc 5b 17 16 3d 7d cd f8 3d 73 2b d5 bd
       -0.028614262 0.036643367 0.12148569 -0.10408678
000180 a0 30 06 bd ad 17 1a be 45 2d 36 bd 5f 0f ab bd
       -0.032761216 -0.15048094 -0.044476766 -0.08352541
000190 df a0 78 3d 5f 30 cd bd ae 15 08 3e 3f a7 02 be
       0.060700294 -0.10018992 0.1328952 -0.12759112
0001a0 f8 f1 05 bd fd cc 7a be 96 69 11 be 54 30 d8 3d
       -0.032701463 -0.2449226 -0.14200434 0.10556093
0001b0 d0 83 dc bd be 6c e9 3c 67 e9 ef bd 47 8c 19 be
       -0.10767329 0.028494235 -0.1171444 -0.14994918
0001c0 4a c0 1f 3e 46 03 34 be 59 1b 6c be 01 b5 0e bd
       0.15600696 -0.17579374 -0.23057307 -0.034840588
0001d0 ab b1 b6 bd bc f3 97 3d 40 48 ac be 01 d0 30 3e
       -0.08920606 0.074195355 -0.33648872 0.17266847
0001e0 19 e6 dc 3d d6 93 60 3d e3 f5 69 be 19 b2 2d be
       0.10786075 0.054828487 -0.22847705 -0.1696247
0001f0 d4 75 42 3d 56 9e 1d 3e 94 95 15 3e ab 12 13 3d
       0.04747565 0.15392432 0.14607841 0.035906475
000200 5d c9 09 be 33 45 c9 bd fd e7 48 3d 6f 07 3e bd
       -0.1345572 -0.09827652 0.049049366 -0.046393808
000210 a5 2d 38 3d be 0a 1c be cf e2 4a be ed ac 1e bd
       0.044965405 -0.15238473 -0.19813083 -0.038739134
000220 84 ed 07 be 91 0b 33 be 0d b2 c4 bd b8 92 ce 3b
       -0.13274199 -0.17484881 -0.09604273 0.0063041113
000230 dc c2 c2 bd fd 88 f1 bd 0b 20 38 bd ed 6a ca bd
       -0.09509823 -0.117937066 -0.044952434 -0.09883676
000240 72 17 62 bc 9d 99 63 3b d8 6e cb bd 57 0e 8b bd
       -0.013799535 0.0034729012 -0.09933251 -0.067898445
000250 b9 b8 0c 3e 66 4a 7d 3c c3 b9 a0 3d 21 f9 cb bd
       0.13742341 0.0154596325 0.07847931 -0.09959627
000260 ea c5 df 3d ec 2b 35 bd 6e 69 71 3d 0d d5 50 3d
       0.10926421 -0.04423134 0.058938436 0.05098443
000270 89 6e 2a bb d9 49 0b 3d ff 36 6e 3d f3 52 94 bd
       -0.0026005825 0.034005973 0.058157917 -0.07242384
000280 64 e6 da bb 8e 87 00 3d d2 fe be bd 36 30 39 be
       -0.0066802967 0.031379275 -0.09325947 -0.18084797
000290 5c 14 82 bd 75 e2 c0 bd 9d 70 c8 ba 06 88 11 be
       -0.063515395 -0.09418193 -0.001529235 -0.14212045
0002a0 68 70 b3 3d 07 11 b5 bd 44 24 02 3d fe 0a 19 be
       0.08761674 -0.08841138 0.031772867 -0.149456
0002b0 b8 da 42 be b1 f5 0e be bc 38 33 bd a4 c2 17 3d
       -0.19028747 -0.13960911 -0.043755278 0.03705086
0002c0 b7 e2 5d be e6 66 d1 3c 71 83 38 be af 3b 71 be
       -0.21668516 0.025561761 -0.18018891 -0.23557924
0002d0 14 82 51 3d 91 b3 bf 3d c1 9a c8 bd 07 b0 19 be
       0.051149443 0.093604214 -0.09795142 -0.15008555
0002e0 3b 11 9c bd 44 a1 cf bd 69 bb 78 3d a0 b0 2e be
       -0.07620474 -0.10138181 0.060725603 -0.17059565
0002f0 93 9a 19 be 23 b0 a9 bd ae b2 c4 bb be 4b 38 be
       -0.15000372 -0.082855485 -0.0060027456 -0.17997643
000300 d6 b2 f1 bd e8 bd 43 be a5 3e 3d 3d 34 eb ed bc
       -0.118016884 -0.19115412 0.04620232 -0.029042818
000310 ef 66 b4 bd c6 c9 18 be bc ce ec 3c 9c 90 73 bc
       -0.088086955 -0.1492072 0.028907172 -0.0148660205
000320 5f c4 e0 bd 92 83 c0 bd ae f6 ce bc 4d 90 e8 bc
       -0.10974955 -0.09400095 -0.02526411 -0.02838912
000330 e8 08 55 bd 20 4f ba 3c 15 ec eb 3c 01 27 86 ba
       -0.052010447 0.022742808 0.028799096 -0.0010235013
000340 43 7d 17 be 68 37 bd ba ab 09 a9 3d 09 69 6f bd
       -0.14793877 -0.0014436068 0.08253797 -0.05844978
000350 a6 ef 17 be 3a 75 ae bd e5 49 fb bd 2a ea 50 3d
       -0.14837512 -0.08518453 -0.12269954 0.051004566
000360 12 d3 0e 3e 0d a4 5c bd 24 2f 0d 3e 36 fc 3d 3d
       0.13947704 -0.05386739 0.13787514 0.046383105
000370 e7 d9 f2 bc 7a 4c b4 3d 9f dd 24 3e 03 d6 6d bc
       -0.02964492 0.08803649 0.16100167 -0.014516356
000380 93 58 17 3d e6 bc ac bd 89 eb 43 be f0 03 4f 3d
       0.036949705 -0.08434467 -0.19132818 0.050540864
000390 4f 4f 6b be a5 54 2d 3d e2 ed 2b bd 21 89 4f be
       -0.22979473 0.04231705 -0.04197491 -0.20267154
0003a0 15 41 f3 bd 17 c0 f4 3d db f2 b7 bd 88 73 75 bc
       -0.11877648 0.11950701 -0.08981868 -0.014981158
0003b0 71 82 e8 3d 79 02 bc 3d 6f 44 cd 3d 18 18 ac bd
       0.11353005 0.09180159 0.10022818 -0.08403033
0003c0 cd e5 68 3d 25 8f 82 be 5e 28 dd 3d 45 61 f4 3d
       0.05685978 -0.25499836 0.10798715 0.11932615
0003d0 b7 1a 07 be 66 02 3a 3c 48 9d 39 3c 96 25 b4 bd
       -0.13193785 0.011353111 0.011329003 -0.087962314
0003e0 a1 2b 5e be 1c 13 12 be 8e 8b 82 be 79 43 85 3b
       -0.2169633 -0.14265102 -0.25497097 0.0040668813
0003f0 72 0b 8f bd 1d 2c 43 bd 4c d6 01 be 56 ab b2 3d
       -0.06984605 -0.04764949 -0.12679404 0.08724086

l2.weight f4 [256, 256]
000000 5d 3b 25 3e f9 b9 cc be 32 aa ca bb 26 d1 72 3b
       0.16135927 -0.39985636 -0.0061848396 0.0037050932
000010 b7 ef 0a bf 52 c8 af 3c da 77 88 3f 40 09 4d 3e
       -0.54272026 0.021457825 1.0661576 0.2002306
000020 8b 20 55 3d fe 3a 9a be 76 3f 67 3e 38 e2 ca bd
       0.05203299 -0.30123132 0.22582802 -0.09906429
000030 cc 93 f3 bd 92 5c d2 bc 7b 21 1d be 39 07 ed bb
       -0.118934244 -0.025678907 -0.15344803 -0.007233527
000040 c0 7e ac bd a9 80 b5 be 0f 6a 12 3e 00 94 96 38
       -0.08422613 -0.35449722 0.1429827 7.1801245e-05
000050 aa a5 dc 3c 22 fd d2 3d 1e 29 df bd 07 9a 5e bd
       0.026934464 0.103021875 -0.10896514 -0.05434611
000060 58 71 60 3d 08 a1 85 be 7b b5 e6 3c 75 56 b9 be
       0.054795593 -0.2609942 0.028162709 -0.36198774
000070 2b 4c a9 be d8 b9 80 bd 14 9f 84 be 32 63 2f bd
       -0.33065924 -0.06285447 -0.25902617 -0.04281921
000080 f0 5b 21 3b 5b 2d 03 be 90 7f 4a be c2 55 28 3e
       0.002462145 -0.1281027 -0.19775224 0.16438964
000090 57 e4 45 3e 50 f9 39 3d 2f 70 ec 3d e2 ce ec 3d
       0.19325386 0.04540378 0.11544835 0.11562897
0000a0 ef 6a 53 be 99 85 4a bf 7b bf 41 3d a6 30 0b 3e
       -0.2064626 -0.79110104 0.04730175 0.13592777
0000b0 88 b3 8e 3e 7f 0c ef 3c b6 f2 e8 bc d9 f6 92 bc
       0.27871346 0.029180763 -0.028436046 -0.017939972
0000c0 0c ba ce bd a3 1b 94 be 29 a7 1d 3e 50 ca 7b be
       -0.100940794 -0.28927335 0.15395798 -0.24588895
0000d0 6c bc 51 bc 36 26 fd bd a5 79 85 3e f2 d9 3e 3e
       -0.012801271 -0.12360804 0.2606937 0.18637827
0000e0 a7 23 31 be eb 16 49 3e c0 d2 dd be e1 e7 b8 3d
       -0.17298757 0.19637649 -0.43324852 0.090286024
0000f0 9f 83 37 3d 91 e0 9f 3e 4c ee 18 bd 40 f0 94 3e
       0.044803258 0.31226018 -0.037336633 0.29089546
000100 47 1e d2 be cf 37 cf 3d 35 45 ea 3d d5 c6 21 3e
       -0.41038725 0.101180665 0.114389814 0.15798505
000110 97 e2 9f be 05 09 cc 3d 97 5d 26 3e b7 4a 1f 3d
       -0.31227562 0.09962658 0.16246639 0.038889613
000120 b8 83 1e bf e1 db ab bc 18 e9 3e bd 84 aa 3a 3e
       -0.61919737 -0.02097887 -0.046609014 0.18229109
000130 ee 06 e7 3c 32 cc 59 3d d3 d3 eb bd c9 18 52 bd
       0.028201547 0.05317325 -0.11515012 -0.05129317
000140 a3 62 e2 bc d7 61 00 bd 2f 15 ca be 68 e9 d7 bd
       -0.027634924 -0.031343307 -0.39469287 -0.105425656
000150 f4 7a 6b 3e 02 58 74 3e 86 a8 23 bd 87 7c a5 3d
       0.22996122 0.23861697 -0.03995564 0.08080392
000160 dc 97 85 3e 98 ea a3 3e 83 3d d6 3e 6f 5d 7e bc
       0.26092422 0.32014918 0.41843805 -0.015525206
000170 81 99 98 be 9b 24 dc 3e 36 b2 3b bd 4e 2d ac 3d
       -0.29804614 0.42996678 -0.045824252 0.08407079
000180 b0 75 0a bb 2b f2 fa 3d 94 c1 36 3e d7 06 36 bf
       -0.0021127276 0.12253221 0.17847282 -0.71104187
000190 7f d2 a8 3d 76 34 bf bd c0 c8 eb bd 08 ca 95 3d
       0.08243274 -0.09336178 -0.115128994 0.07313925
0001a0 7e 62 c3 3d c6 c5 14 3e ca 00 0a 3e b2 36 7d 3d
       0.0954027 0.1452857 0.13476864 0.06181974
0001b0 47 65 8e 3c 12 76 c9 be bf da c1 3c b5 e2 51 be
       0.017382277 -0.39347893 0.023663877 -0.20496638
0001c0 e2 c9 b2 3d 08 75 d3 3e bd 64 33 bf 1a 6d 26 3e
       0.08729912 0.41300225 -0.7007559 0.16252556
0001d0 c7 6b 28 3e 8c d6 a3 bd d3 f4 2f 3e 76 db 89 be
       0.16447364 -0.07999906 0.17183237 -0.26925248
0001e0 29 d0 b7 3d 81 2a 38 3d 16 20 98 3e 95 a4 1d 3d
       0.0897525 0.04496241 0.2971198 0.038487036
0001f0 1f c7 76 bd 04 13 47 3c f1 ae 4c 3e e4 5e a0 3c
       -0.06024849 0.01215053 0.1998861 0.019576497
000200 89 98 ef bd 4a cc 96 3d e4 08 93 bd 54 87 8a 3d
       -0.11699016 0.07363184 -0.0717943 0.06764093
000210 7b a8 99 bd f3 15 24 3e 73 c1 c3 3a 74 ef 23 3d
       -0.07502838 0.16023998 0.0014934972 0.040023282
000220 94 e8 50 bd 49 ff da 3d 84 5e 96 3e 73 18 7f 3e
       -0.051003054 0.10693223 0.29368985 0.2491167
000230 00 80 e3 bd 49 e4 11 3e 00 b7 c2 bb 35 ec 21 be
       -0.111083984 0.1424724 -0.0059422255 -0.15812762
000240 b5 aa cc ba 22 72 14 3e e5 cd 9b bd 10 36 84 3c
       -0.001561484 0.14496663 -0.07607631 0.01613906
000250 78 88 8f 3d c6 7a d8 3d eb c7 a8 3d 6b fa a5 bd
       0.07008451 0.10570292 0.08241256 -0.08104404
000260 09 f8 d4 3c a7 c7 08 be 4c ba 86 3e fe ff ed 3d
       0.025997179 -0.13357411 0.26314008 0.11621092
000270 6b 86 a9 3b 87 90 dc 3d 49 b1 5b 3e fd a8 0e bd
       0.0051734946 0.10769754 0.21454348 -0.03482913
000280 52 be 23 3b 36 d3 10 3d 71 bb 2b 3e 3d 27 e3 bb
       0.0024985266 0.035357676 0.16770722 -0.006932168
000290 2b e4 ad bd 50 c9 10 be 37 33 0d 3e 52 da 9a 3e
       -0.08490785 -0.14139295 0.13789068 0.3024469
0002a0 d0 13 08 3e 72 51 a0 3d 67 12 22 3c cf ef 9e 3d
       0.13288808 0.078280345 0.009892083 0.077605836
0002b0 25 70 91 3e 18 7d 42 3e a1 b9 72 bd 80 1d 9d be
       0.28405872 0.18993032 -0.05925906 -0.3068657
0002c0 70 3d 67 bf ab 40 61 3d 49 e4 da 3d a5 d0 f4 3d
       -0.9032812 0.054993313 0.10688073 0.11953858
0002d0 03 2b 95 3c a0 62 30 3d 15 f7 22 3e 64 4e 3f 3e
       0.018208986 0.043062806 0.15914567 0.18682247
0002e0 f1 76 65 3e d0 c7 50 3c 55 85 52 bf 6e 47 d2 be
       0.22408654 0.0127429515 -0.822347 -0.41070122
0002f0 ed 9f 49 bd 17 4d f0 bc eb 99 d4 bc e6 18 bc bd
       -0.049224783 -0.029333634 -0.0259523 -0.091844365
000300 2f fb 7e 3d 10 de 62 be a2 df 10 3e 32 dc 11 3e
       0.062251266 -0.22155023 0.14147809 0.14244154
000310 0d f8 12 3d 0d 0b fd 3c ef 91 c2 3c a6 32 48 3e
       0.03588109 0.030889058 0.023751227 0.19550571
000320 86 b2 96 3d 72 cc 40 bd e2 0e 65 bd 39 c9 dc bd
       0.073582694 -0.047069974 -0.055922396 -0.10780568
000330 d3 ae a6 bf 58 4c 31 bd de 0c 8b bd 72 0c 4c bd
       -1.3022102 -0.043285698 -0.067895636 -0.049816556
000340 9e d6 c0 3d da bc 02 be ce 1c ba bd b9 0d f3 3c
       0.09415935 -0.12767354 -0.09087525 0.02966963
000350 59 fe 80 3b 07 a5 a1 be ac 02 34 3c b9 fc 40 be
       0.0039365706 -0.31571218 0.010986965 -0.18846406
000360 a1 b7 d6 be 75 ec d5 bd 7b d8 aa 3d f2 e6 e1 be
       -0.41936973 -0.10445491 0.083420716 -0.4412151
000370 60 94 ab bf 88 85 fc 3d bd ac 2e be 92 43 0f be
       -1.3404655 0.123301566 -0.17058082 -0.1399062
000380 cc 78 9d 3e 08 ff 9a bd 65 bd e3 3d 44 71 0c be
       0.30756223 -0.075681746 0.111201085 -0.13715082
000390 4b d0 8c bb 2b 94 a4 bd 50 e4 3a 3e 73 2a 24 3e
       -0.0042972914 -0.08036073 0.18251157 0.16031818
0003a0 5c 94 43 bd b4 63 f4 bd 53 3c ec 3a b4 87 28 bc
       -0.04774891 -0.11933079 0.0018023349 -0.01028626
0003b0 df db 56 ba 64 eb bf bd e9 ce 29 3e 31 0b e8 3d
       -0.00081962155 -0.09371069 0.16582836 0.113302596
0003c0 2e 58 3c 3d 29 89 91 3e 87 ce 42 3e 61 31 44 bf
       0.045982532 0.28424957 0.19024096 -0.76637846
0003d0 ef fa b7 3c 21 90 8c be 9a 19 e1 3e e2 68 9e be
       0.022458522 -0.27453712 0.43964845 -0.30939394
0003e0 89 52 d8 3d e2 4b bc 3e e7 52 86 3e 93 03 32 bd
       0.10562617 0.36776644 0.26235124 -0.04346044
0003f0 3d 1f af be 57 9d 72 3d f7 53 08 3d b0 21 3a 3d
       -0.3420352 0.059232082 0.0332832 0.045442283

l2.bias f4 [256]
000000 76 23 2c 3e 6f 38 12 be e1 c8 1b bd 02 7c 24 3d
       0.16810402 -0.1427934 -0.03803337 0.040157326
000010 97 31 47 bd e0 57 02 bd b5 85 80 bc d0 5e 53 3d
       -0.048631277 -0.031822085 -0.015688756 0.051604092
000020 12 1d 19 3e 6a b0 15 be 70 1a 26 3e 68 18 a6 bd
       0.14952496 -0.14618078 0.16221023 -0.08110124
000030 47 ea 12 3d 1b d9 f4 bd d8 87 8c bd e7 9d 4c bd
       0.035867956 -0.11955472 -0.06861848 -0.049955275
000040 61 81 ca bd 52 c2 9f bd 83 f6 1d bd b6 64 b4 3d
       -0.09887958 -0.078007355 -0.03856517 0.088082716
000050 8a bd 23 3d d8 80 b9 3c e6 0e e9 3c 2d 9c 83 bb
       0.03997568 0.022644445 0.028449487 -0.0040164203
000060 81 16 d6 3d 98 0e 9d bd 5e 9c 39 bc 9f 69 84 3e
       0.10453511 -0.07668799 -0.011328785 0.25861832
000070 31 9b 59 3d 99 56 99 bd 90 2b 38 b9 53 40 de 3b
       0.053126518 -0.0748722 -0.00017563836 0.0067825704
000080 94 40 f8 bd 4a d4 ca bd 9c 0d 2d 3e dc 88 ea bd
       -0.12121692 -0.09903772 0.16899723 -0.11451885
000090 b3 85 9b bd 6a d2 94 3c 61 51 b9 3c db 6a c7 bd
       -0.075938605 0.01816674 0.022621812 -0.09737178
0000a0 f8 ac a2 bc 7d e3 6b 3d c2 8f ad 3a ef e5 f3 3c
       -0.019857869 0.057589997 0.0013241696 0.029772727
0000b0 e9 b8 ca bc 4a d9 1e 3d 11 9a 8a bd fa 97 d9 bc
       -0.024746375 0.03878144 -0.06767667 -0.026561726
0000c0 b9 56 b9 3d d8 41 66 bd 7b a3 85 bb f8 30 d2 bd
       0.09049744 -0.056215137 -0.0040783263 -0.10263246
0000d0 d9 21 0c 3c 91 a1 f3 3c 7e a9 e9 3c cb a0 9d 3c
       0.008552992 0.029740127 0.028523203 0.019241711
0000e0 76 c4 39 3e 6c e1 45 bd a1 67 d8 bd fd 28 e5 bd
       0.1814135 -0.048310682 -0.10566641 -0.111894585
0000f0 34 36 aa bc b3 f6 fd bc c4 fa a3 bd a9 59 c8 bc
       -0.0207778 -0.031001424 -0.08006814 -0.024456816
000100 25 8f b2 3d 71 bd b2 3d 7c 2a 70 bd 2d 37 f5 3d
       0.08718709 0.08727539 -0.058634266 0.119734146
000110 1f 9e a7 bd b3 da 2f 3c 2a 9b 18 3e c9 ae f8 3d
       -0.08184456 0.010733294 0.1490294 0.121427126
000120 ce ed f0 3c 86 72 96 3c 68 c9 9b 3d cb a3 92 3d
       0.02941027 0.018365156 0.076067746 0.07160147
000130 2d 76 8b 3d a9 dd a1 bd 11 96 61 bd 98 93 d5 bd
       0.068096496 -0.079036064 -0.055074755 -0.10428542
000140 89 70 16 be 7f d1 84 bc 78 95 33 be ef 0e 29 bc
       -0.14691366 -0.016213177 -0.17537487 -0.010318502
000150 06 ea d7 bd ad 99 9e 3d 23 3a d2 bd 03 43 45 3e
       -0.10542683 0.07744155 -0.10264995 0.19263844
000160 fd 68 8d 3d f7 cb 4f 3d 32 f5 c5 bc 62 01 f0 3b
       0.069047906 0.050731625 -0.02416477 0.0073243836
000170 ef f3 ed 3c 56 ab 58 bc 1c 4b 02 3e f3 6c 98 3b
       0.02904698 -0.013224443 0.12723964 0.0046516596
000180 18 cc c9 bd 68 30 26 3d 3f ed c2 3b 26 7b 84 bc
       -0.09853381 0.040573508 0.005948692 -0.016172003
000190 34 2f 07 be c7 68 38 be e4 53 5a bc 16 71 08 3e
       -0.132016 -0.1800872 -0.013325665 0.13324389
0001a0 78 95 71 3e 08 e4 6d bd c4 c6 35 3e 98 2a fc 3d
       0.23592174 -0.058078796 0.17751604 0.123128116
0001b0 6b c6 b7 bd 01 79 71 3e 39 0d c4 bd 67 cd 9e 3b
       -0.08973392 0.23581316 -0.095728345 0.004846263
0001c0 a7 82 c7 bd f2 a0 e3 3b d8 fd 7a 3c e3 42 9f bd
       -0.09741717 0.0069466764 0.01531931 -0.077764295
0001d0 df 41 83 3d 18 9e 8f bc a2 34 c3 3c 65 6d 8b 3a
       0.06409048 -0.01753144 0.023828808 0.001063746
0001e0 42 3b 67 3e 04 39 04 bd 83 53 e5 3c 92 d7 fb bc
       0.22581199 -0.032280937 0.027993923 -0.03074244
0001f0 90 d0 0c 3d 93 bf ad bc 0a 62 5b 3e b5 f4 cd 3c
       0.03437859 -0.021209514 0.21424118 0.0251411
000200 62 c1 cd 3c 05 f9 c5 3c a0 ad a0 bd fb a9 77 3e
       0.025116626 0.024166593 -0.07845616 0.24185936
000210 7b da 7b bd 20 2a c2 3d 85 15 88 3d a6 65 48 bd
       -0.061487656 0.09480691 0.066447295 -0.048925065
000220 02 62 26 bd a7 0e e7 bd 8c 51 12 3e 91 84 d8 bc
       -0.04062081 -0.112820916 0.1428892 -0.0264304
000230 14 ba 88 3c 75 c4 8b 3d 85 7c 71 bd 08 49 88 bd
       0.016690291 0.068245806 -0.05895664 -0.066545546
000240 5d 7d b6 3b 97 b1 e8 bc a0 0f 81 bd 41 24 36 bd
       0.0055691437 -0.028404994 -0.06301808 -0.04446817
000250 d6 2a f3 bc 10 36 3f 3e 7e be a4 bd 74 87 0d 3c
       -0.029683512 0.18672967 -0.08044146 0.008638252
000260 9a 09 33 bd 22 54 a1 bd 01 41 56 bc af 53 42 bd
       -0.04371033 -0.07877375 -0.013077022 -0.04744309
000270 50 b9 f8 bd c7 d0 1e bd 8e 2b 6d 3c 13 ac b9 3c
       -0.121447206 -0.038773324 0.014475716 0.02266506
000280 44 87 6b bd 01 4f 17 3d a7 4b 8f 3c 0f c9 87 bd
       -0.057502046 0.03694058 0.017492129 -0.06630146
000290 5b 15 fc bd 66 9e 1d be d6 16 b4 bd d0 cf 60 be
       -0.12308761 -0.15392455 -0.08793418 -0.21954274
0002a0 c5 b1 56 bd 9a 64 bd 3b 81 18 c1 bd ea 1d 48 3e
       -0.052415628 0.005779815 -0.09428502 0.19542661
0002b0 eb 42 b3 bc 5d cd d2 bd 08 d8 63 3e 9b ea 0c bd
       -0.021882495 -0.10293076 0.22250378 -0.034403425
0002c0 41 ea 21 be 1a fe fe 3d 9b 5b 9e bd 4f a8 a8 3d
       -0.15812017 0.1245081 -0.07732316 0.08235227
0002d0 db 12 77 bd 76 af 1e 3c 5a 63 c9 3d 11 d2 c6 bc
       -0.060320716 0.009685388 0.09833403 -0.02427009
0002e0 7a 89 dd 3d e3 0a 86 bd 60 2b 0a 3e a3 90 4f 3b
       0.10817237 -0.06545045 0.13493109 0.0031671904
0002f0 72 36 21 bd 67 6c 09 be da 65 2a 3e 8d 69 f2 bc
       -0.039358564 -0.13420258 0.16640416 -0.029591346
000300 92 8e 4d 3e 39 48 81 bc 15 25 08 bc 10 6e ab bc
       0.20073918 -0.015781509 -0.008309622 -0.020926505
000310 fe e5 b8 3d 14 12 ae bc e3 25 ad bb 21 13 27 3c
       0.090282425 -0.021248855 -0.0052840575 0.010197432
000320 a3 7c 22 bc c2 f4 b0 bd 0e 14 24 3d 3d 43 ae 3d
       -0.009917411 -0.08640434 0.04005819 0.085089184
000330 25 87 50 3d 14 05 79 3d 3e 19 5a be 46 4b 5a bd
       0.050910134 0.06079586 -0.21298692 -0.053294443
000340 c2 b3 41 bd c9 b0 ed 3d 79 3a 30 be 22 59 da bc
       -0.04729057 0.11605985 -0.17209806 -0.02665383
000350 bb 32 dc 3c a5 e6 b0 bd 20 a3 54 bc 98 bb 6b 3d
       0.026879659 -0.08637742 -0.012978345 0.05755195
000360 71 87 82 be 9e 32 ba bd 7e 57 7a bc 70 78 39 3d
       -0.2549396 -0.09091686 -0.015279649 0.045280874
000370 a2 72 f3 bd 3e c7 f2 bc 0f b4 ed bd 45 58 55 bd
       -0.11887099 -0.029636022 -0.11606609 -0.052086134
000380 e6 27 79 bd e6 06 03 bb 76 0c c3 3c 0a 24 77 3d
       -0.060829066 -0.0019993125 0.023809653 0.060337104
000390 e9 44 43 bd 8b f3 20 3d a7 b7 3c 3e a2 27 11 be
       -0.04767314 0.03929476 0.18429433 -0.14175275
0003a0 af d6 8c bd bd 1f 1b bd 2a 8d 78 be 1f 15 26 bd
       -0.06876885 -0.037872065 -0.242726 -0.040547486
0003b0 59 18 95 bd d6 b2 a3 bd ff 4b aa bd 82 70 9f 3c
       -0.072800346 -0.079930946 -0.08315276 0.019462828
0003c0 48 f4 c9 3d 75 61 4c 3e d8 19 a0 bd 2b 12 1c bd
       0.09861046 0.19959052 -0.07817429 -0.038103264
0003d0 b2 2b 4a 3e 9a 36 7f 3d 19 4e e6 3c 49 63 7f bd
       0.19743231 0.06230793 0.028113412 -0.062350545
0003e0 e6 c8 9c bd 7b 25 25 be 80 62 6a bd bf da 2f be
       -0.07655506 -0.16127579 -0.057222843 -0.17173289
0003f0 c4 94 b9 bd fd 3f ff bd af 20 e5 bc 19 af 33 3d
       -0.09061578 -0.12463377 -0.027969686 0.043868158

l3.weight f4 [1, 256]
000000 d3 dc 83 3d ad 7c 8a bd 7d 5c 9f bb 8d 13 ad 3e
       0.06438603 -0.06762061 -0.0048633204 0.3380398
000010 97 6b a0 bd d3 d1 fa bd 93 66 e9 3c 6d 2c a6 3e
       -0.07833021 -0.12247052 0.028491294 0.3245577
000020 bd b8 7f 3d 8d 21 d7 be 66 e0 86 3e d3 f1 ac bd
       0.06243204 -0.42017785 0.26343077 -0.08444562
000030 06 bc 7e be a9 c9 ba bd 5d 73 09 be a8 3b c1 39
       -0.24876413 -0.09120495 -0.13422914 0.00036856276
000040 28 b0 e3 3e 0a a4 99 bd 6c 32 99 3b 23 3b 33 3e
       0.44470334 -0.07501991 0.0046752 0.17503028
000050 9f c5 3a 3b 8c 04 d9 bd 8e 70 26 be 27 1f 5a be
       0.002849914 -0.105965704 -0.16253874 -0.21300946
000060 8b 7b db 3d 96 a3 5e bc 15 26 ce 3d 60 eb 9b 3d
       0.10716923 -0.013588807 0.10065857 0.076132536
000070 5a 1e 47 be 37 8c e7 3e 7f d1 8b be c3 a3 c0 bd
       -0.19445172 0.45224163 -0.2730827 -0.09406235
000080 33 bf 6c be 63 8d 4b be 13 af 30 3d 66 70 ac be
       -0.23119812 -0.19878154 0.043135714 -0.33679503
000090 1b f2 78 be d8 b9 bd 3d 06 f8 1f 3e 96 54 6f be
       -0.24311106 0.092639625 0.15621957 -0.2337211
0000a0 94 43 df bd 39 ce 23 3e 53 6a 0c 3c 73 a1 4e 3e
       -0.109015614 0.15996636 0.008570272 0.20178775
0000b0 70 1c d1 be 96 23 3d 3e f8 66 6c bd 73 5f e3 3d
       -0.4084201 0.18470606 -0.057715386 0.1110219
0000c0 9e 73 0a 3e c6 ae 0a 3d 35 37 51 be bd 06 b2 be
       0.13520667 0.033858083 -0.20431216 -0.34770766
0000d0 fe dd ae 3d 12 f3 98 3d 21 9b 7b bf ba f5 61 be
       0.085384354 0.07468237 -0.9828358 -0.22066393
0000e0 3e df af 3d 82 e4 8c bc cc ae 2f 3f 6a fc 3b be
       0.08587502 -0.017198805 0.68626094 -0.18358007
0000f0 fb 98 43 be fe 00 64 3e 6c c5 0b 3c 1b d6 b4 bb
       -0.19101326 0.22266003 0.008530956 -0.0055186874
000100 1c b7 26 be 7a d9 f8 be 9c e2 db bd 5b 95 60 3d
       -0.16280788 -0.4860342 -0.10736582 0.054829936
000110 5a 8a d2 3c 85 b0 8e 3b ab 02 3b 3e f9 51 d8 3d
       0.025700737 0.004354539 0.18262736 0.1056251
000120 c0 d5 1c be 40 86 37 be fa 0a 8a 3e 91 ae ef 3d
       -0.15315914 -0.17922306 0.269615 0.11703218
000130 1f 6f 49 3d db cd b0 bd b7 9f 49 3c d4 69 a5 be
       0.04917824 -0.08633014 0.012306145 -0.32307303
000140 6b 66 c7 3e 0f e7 1b be 34 91 09 be 8f c7 8e be
       0.38945326 -0.1522486 -0.13434297 -0.27886626
000150 d4 64 81 be b7 a4 12 3e 4d 05 33 3d 6e f1 06 3e
       -0.25272238 0.14320646 0.043706227 0.13178036
000160 06 9e c9 3d 8e f7 a5 3e 8f 50 e6 bd 29 5b c7 3e
       0.09844594 0.32415432 -0.11245834 0.38936737
000170 7a 72 0e be 9b 26 ce 3d f1 b4 d4 3d 13 17 0b 3e
       -0.13910857 0.10065957 0.10386074 0.13583021
000180 62 92 3a be 84 5b 09 3e 70 b4 49 3e 72 21 ac bc
       -0.18219903 0.13413817 0.19697738 -0.021012042
000190 6d 7a 81 be 0f 65 1d bf 66 a1 55 be 53 8e 07 3e
       -0.25288716 -0.6148233 -0.2086235 0.13237886
0001a0 dc 99 42 3d 99 84 f1 be 50 c6 06 3d 3a 05 0f 3e
       0.047510013 -0.47171476 0.03290397 0.13966838
0001b0 e9 98 60 bb f2 23 af 3d 2f 19 82 bd 2d 50 95 3d
       -0.003427083 0.08551778 -0.0635246 0.07290683
0001c0 ca b5 e7 3e 57 5d 14 be 02 ed 0a 3e 1a 4b 79 3e
       0.45255882 -0.14488731 0.13566974 0.24345055
0001d0 e1 17 88 3e 58 a2 09 bf 33 54 1c 3f 3f c4 f6 bd
       0.26580718 -0.5376334 0.6106598 -0.1204915
0001e0 35 56 94 3d 17 65 c6 bd 9b d3 5b 3e f9 03 ea 3d
       0.07243005 -0.0968725 0.2146744 0.11426539
0001f0 0d 19 28 3e 96 65 fc 3a 26 48 80 3d ee fa 20 3e
       0.16415806 0.0019256349 0.06263761 0.15720722
000200 d8 1c c7 be e9 74 29 3e 0e 21 13 be 1b 7c 67 3d
       -0.38889194 0.16548504 -0.14368078 0.05651484
000210 10 82 47 bf 77 93 0c 3e 68 9b 7d 3d c1 66 46 be
       -0.77932835 0.13728128 0.061915785 -0.19375135
000220 13 8e bc 3d 90 ae 78 bd 80 01 12 3e ae e9 2e bd
       0.09206786 -0.06071335 0.14258385 -0.042703323
000230 29 c8 a2 3d e9 e6 e1 3d fc 66 80 bd 8f ad df 3b
       0.07948334 0.11030371 -0.06269643 0.0068261097
000240 24 bc e1 bd ab d0 02 bb f6 cb 19 be 8b 06 fd bc
       -0.11022213 -0.0019960802 -0.15019211 -0.030886909
000250 c0 1b c6 bc 79 37 e4 3d 34 80 9d bd 5c 77 4c bd
       -0.024183154 0.11143393 -0.076904684 -0.049918517
000260 90 04 49 ba a1 1d 24 3f eb 6b 39 3e fd 5b 94 bd
       -0.00076682214 0.6410771 0.18107574 -0.07244108
000270 3c 8c d8 bd f8 72 c2 3c 45 e1 40 3e 13 00 6c be
       -0.105736226 0.023736462 0.18835934 -0.23046903
000280 3e 8d 2e bb a8 93 79 3e 01 3e 1b be 00 4e 66 bc
       -0.002663448 0.24372733 -0.15160371 -0.014056683
000290 a5 22 b7 bd 7e a8 12 bf 21 3c bd 3a ec 12 36 3e
       -0.08942155 -0.5728835 0.0014437475 0.17780656
0002a0 4d 68 cd 3d be b0 19 bf 54 80 f0 bd 71 99 1f 3e
       0.100296594 -0.6003531 -0.11743227 0.15585877
0002b0 26 d4 57 3c 8e b4 2c be 1d ad 29 3e ba 14 63 3e
       0.013173139 -0.16865751 0.16569944 0.22175875
0002c0 df 71 77 bd e3 26 13 3e e1 68 9f bd 76 9a b4 3d
       -0.06041133 0.14370303 -0.07783676 0.088185236
0002d0 c9 d9 56 3e 79 04 e3 3c 9d 51 df 3d e6 0f 24 3e
       0.20981516 0.027712094 0.109042384 0.1602169
0002e0 ce fe 1d 3e 49 08 2d 3e cd 89 fa 3d 34 78 8e be
       0.15429232 0.16897692 0.12233315 -0.27826083
0002f0 ca b8 15 be 4e 18 9f be c4 29 a0 3d f0 bc 14 be
       -0.14621273 -0.3107323 0.07820466 -0.14525199
000300 53 6a 32 3e d3 c3 9c 3d 50 8d 6c bf cf e0 07 3e
       0.17423372 0.07654538 -0.92403126 0.13269351
000310 09 d9 1a 3e 9e 71 20 bd 84 93 e7 bd a2 73 59 3e
       0.15121855 -0.039170854 -0.11307433 0.21235517
000320 76 4b 3c be 48 9a 86 be e7 1e 3f be 54 23 72 bf
       -0.18388161 -0.26289582 -0.18664132 -0.94585156
000330 ab a6 25 be 41 73 01 3e 26 7d 0c be c0 f8 86 be
       -0.1617686 0.12641622 -0.13719615 -0.26361656
000340 da ea 97 b9 bf 63 69 3d c1 a6 24 be 81 0e 7e be
       -0.00028975942 0.05697989 -0.16079237 -0.2481022
000350 d7 16 54 be 15 5e 14 3e 37 74 cf bb 47 b3 47 be
       -0.20711838 0.14489014 -0.0063309926 -0.19501983
000360 ab 73 49 bf 8d aa fe 3b ac 23 1a 3e 9d f5 ef 3d
       -0.7869212 0.007771796 0.1505267 0.11716769
000370 b3 93 0d be f4 02 aa bd a2 bc b6 be 7f 56 8a bd
       -0.13825874 -0.083013445 -0.3569079 -0.06754779
000380 18 ce 26 be ad 2b 17 3e 9d eb 04 be 68 cb 1a 3f
       -0.16289556 0.14762755 -0.12980504 0.60466623
000390 73 2b 4e 3e 63 b0 39 3e 87 35 f2 3d 52 70 bd 3e
       0.20133762 0.18133692 0.11826616 0.36999756
0003a0 38 04 7f be 67 6a 29 3d 3f 80 d1 be 2e 13 f5 bd
       -0.24903953 0.04136124 -0.40918157 -0.11966549
0003b0 15 8e d8 bd b1 89 c9 3c 36 98 1a 3c bb 42 d6 3d
       -0.10573975 0.02460179 0.009435704 0.104619466
0003c0 b3 53 ba be 88 56 82 3d c9 06 e0 3b 8b e6 a1 be
       -0.36391982 0.06364161 0.0068367464 -0.31621203
0003d0 02 01 9d 3d 63 42 1f be cf 34 28 be 6f d1 eb be
       0.07666208 -0.15552668 -0.16426395 -0.46058223
0003e0 19 56 f9 3b 53 07 d9 3e 1c d3 6d 3e 16 13 e1 3e
       0.0076091406 0.423884 0.23225063 0.43959874
0003f0 a9 52 bc bc c1 1d 24 bd 35 03 f7 3e c6 b3 30 be
       -0.022988634 -0.040067438 0.48244634 -0.17256078

l4.weight f4 [256, 42]
000000 34 21 6e 3e 91 a2 93 be 38 cd ec bb f1 e4 81 be
       0.23254853 -0.28834966 -0.0072266124 -0.2536998
000010 38 6e 01 3f cd 20 5a 3e fa dc 45 3d 6d 65 02 3e
       0.50558805 0.21301575 0.048306443 0.12734003
000020 2f 12 fd bb 63 2b 0a 3d a7 37 0d 3e 03 59 78 3e
       -0.007723115 0.033732783 0.13790761 0.24252705
000030 d9 d1 87 be 6e 22 1c bd 88 d6 7c 3e ae 73 8a bd
       -0.2652729 -0.038118772 0.24691212 -0.067603454
000040 08 e8 f7 bc 7b 06 ae 3d b3 3a 2c 3e 95 28 b2 3b
       -0.030262008 0.0849733 0.16819267 0.0054369667
000050 d6 50 23 bd 6a ba 20 3e e2 82 95 3d 93 8c b9 be
       -0.039872013 0.15696111 0.073003545 -0.36240062
000060 ed 03 98 bd 7a 76 6c be 1e 19 07 be d2 48 e0 bd
       -0.07422624 -0.2309207 -0.13193175 -0.10951389
000070 6c 71 b2 bd 45 7e cc bd 58 93 c0 bd 86 0f 3f bd
       -0.0871304 -0.099850215 -0.094031036 -0.046645664
000080 ef 08 92 3e 76 9a aa 3e 02 92 46 bd 7d 45 f1 be
       0.2852244 0.3332097 -0.048479088 -0.47123328
000090 c1 04 cb be a6 35 dd be 56 f3 eb 3d a9 13 de 3d
       -0.39652064 -0.43204993 0.11521022 0.108435936
0000a0 08 48 e4 3d e5 74 c4 3e 3b 8e 06 bf a3 d9 15 be
       0.11146551 0.38370433 -0.52560776 -0.14633803
0000b0 75 29 db 3d cc dd 43 3e cc 22 04 bd 0a 4f 13 3e
       0.10701267 0.19127578 -0.032259747 0.1438562
0000c0 45 a8 5b 3e 90 0b c7 bb 0b 4a 64 be 4e 42 8b be
       0.21450908 -0.0060743764 -0.2229387 -0.27199024
0000d0 13 ae 99 be 4a cb b6 3e 53 ff 52 bd ca 23 87 3d
       -0.3001562 0.35701972 -0.051513027 0.06598623
0000e0 ad e0 79 be fe 33 ed bd 7c 84 ac be 3c 57 74 bd
       -0.24402113 -0.11582182 -0.33694828 -0.059653506
0000f0 9e cd 20 3e 29 e8 68 3e 3f 15 7f 3e de 7e 0c be
       0.15703437 0.22744812 0.24910448 -0.13720271
000100 f2 aa c2 be 1f 28 3e bf 58 5c 26 bf 52 6f c8 bd
       -0.38021046 -0.7427997 -0.64984655 -0.09786858
000110 9b 04 36 bd 43 34 c3 3d 05 36 9d ba 2d 11 a8 bd
       -0.044437986 0.095314525 -0.0011994248 -0.08206401
000120 40 d2 b8 bd 15 05 0a 3e 67 8e 78 bc c2 f9 1b be
       -0.09024477 0.13478501 -0.01517067 -0.15231994
000130 93 28 ee 3e a1 d4 5f 3c 8b 04 98 bf bf d6 79 be
       0.4651533 0.0136615345 -1.1876386 -0.24398325
000140 fa f2 fe 3e 00 5c fa 3e bd c8 28 3f f5 a6 e9 3d
       0.4979475 0.48898315 0.659313 0.11408798
000150 18 3a 5a 3f 16 51 aa be 40 65 76 3d 9c c8 ec 3e
       0.85244894 -0.3326499 0.060155153 0.46246803
000160 b5 a7 e0 3e 33 48 2b 3d 57 d8 3e be 48 e2 cd 3e
       0.4387795 0.0418169 -0.18637215 0.402117
000170 ae 36 a4 be fd 8c aa 3b e2 70 72 3d 56 ed 8b be
       -0.32072967 0.0052047954 0.059189685 -0.2732951
000180 ee 91 e9 bd e8 88 be 3e 2b bc 9c be 50 2d 81 be
       -0.11404787 0.37213826 -0.3061231 -0.25229883
000190 ad b7 d4 3d 5b ac a4 be 46 ea 7d be 89 ae 82 bf
       0.10386596 -0.32162747 -0.247964 -1.0209514
0001a0 8c 1d f7 3d a2 c9 e2 be b0 d8 f2 be 05 48 8a bd
       0.120661825 -0.4429446 -0.47430944 -0.06752018
0001b0 84 85 5d be a8 34 bc 3d 6a 2f 9a bd 7f e9 9b bc
       -0.21632963 0.09189731 -0.07528575 -0.019032238
0001c0 b2 9b a5 bd 5c 07 ee 3d 9b 72 92 bd 56 4b c6 3e
       -0.08086337 0.116224974 -0.071507655 0.38729352
0001d0 5d c9 85 bd cb b6 ab be fe 96 21 bf df bc 85 bf
       -0.065325476 -0.33537897 -0.6312102 -1.0448264
0001e0 94 a2 98 bc b7 55 73 3f fc b9 80 be ab 5d 14 bd
       -0.01863221 0.95052665 -0.25141895 -0.03622214
0001f0 db d9 f3 bd fe 0f 1c 3f f9 d3 5b bd a9 4f 7a 3c
       -0.11906787 0.609619 -0.05366895 0.0152777815
000200 bd e8 12 ba 97 51 2c 3f 2f e5 7f 3d 00 35 b6 bb
       -0.0005604139 0.67311996 0.062474426 -0.0055605173
000210 37 f7 39 be d2 77 03 be e2 7e 38 be 4f b3 a1 be
       -0.18160711 -0.12838677 -0.18017152 -0.31582114
000220 a4 d7 47 3d 4a 2a 06 3e 42 33 09 3d 26 2c 16 3e
       0.048789635 0.1310207 0.03349615 0.14665279
000230 33 b7 34 3e 1a a4 b3 bd aa 3f c1 bd 3a 28 46 3d
       0.1764801 -0.08771534 -0.09435971 0.048378207
000240 d0 c0 c9 3d b9 d3 8b 3e b0 97 6d bd fb 5d 9a be
       0.09851229 0.2730997 -0.05800599 -0.30149826
000250 2b 8b db 3d de f7 bb bd 7a fa ec bc b9 d4 25 be
       0.107199036 -0.09178136 -0.02892803 -0.16194429
000260 4d 16 a5 bd f9 04 fd bd 0e 43 cc bd 5f 51 d9 bd
       -0.08060894 -0.12354464 -0.09973727 -0.106112234
000270 8c 1a ad 3d 97 23 c3 ba a7 6c 8b be d0 a7 d7 bd
       0.08452329 -0.0014887926 -0.27231333 -0.105300546
000280 f3 c8 2c 3e 57 26 7f 3f 16 9f 0b bd 11 c3 1c 3f
       0.16873531 0.99667877 -0.034087263 0.6123515
000290 8d df 18 3f 84 da 39 3e 72 ce 20 3e b3 97 cb be
       0.5971611 0.18149763 0.15703753 -0.39764175
0002a0 57 06 46 bd 5f 6e 38 3d 63 f2 1e 3e fb ab 24 3e
       -0.04834589 0.045027133 0.1552215 0.1608123
0002b0 f9 b8 d1 bd 0c d5 36 3e da 61 85 3d 0f f1 ef bd
       -0.10240359 0.17854708 0.06512804 -0.117159
0002c0 96 bf c6 bc b1 3e bb 3d 31 f2 7e 3d fb 1e 30 be
       -0.024261277 0.09142817 0.06224269 -0.17199318
0002d0 4d ed 3e be f1 14 3b 3c f1 ef 31 3e 19 59 29 bc
       -0.1864521 0.011418567 0.17376687 -0.010336184
0002e0 ab 46 5c 3e 4e 43 61 3d 3a 75 ee 3b 82 bb 20 bd
       0.21511333 0.054995827 0.007277158 -0.03924132
0002f0 10 72 0c be 13 ed 96 3d a3 0c 0e be ba 82 31 3e
       -0.13715386 0.07369437 -0.13872008 0.17335024
000300 35 45 1f 3c 33 e0 27 3d 47 b6 92 bd 72 93 a2 3d
       0.00972109 0.040985297 -0.07163673 0.07938279
000310 ae 70 f1 bd ee 7a 79 3c c0 a3 04 3e 81 ad 84 3d
       -0.1178907 0.015227063 0.1295309 0.06478406
000320 a5 6d d9 3d 13 0d 23 3e b9 0a 60 bd 13 0a 2e bf
       0.10616616 0.15922956 -0.054697726 -0.6798412
000330 a1 ae 97 3f a7 d7 20 bf b8 f3 29 3e 45 7a bf bd
       1.1850168 -0.6282906 0.16596878 -0.09349493
000340 95 e0 ba be d2 46 e3 3e 14 75 66 bd f9 d8 02 be
       -0.36499467 0.4438997 -0.056264 -0.12778081
000350 7a 0a b8 3c 13 ec ff bd 82 e4 8f 3e d9 90 a4 be
       0.022465933 -0.124961995 0.28104025 -0.3214176
000360 41 6e 37 be ce 5b 65 bd 04 20 0c 3e 5f b0 03 bf
       -0.17913152 -0.055995755 0.13684088 -0.51440996
000370 c8 ee d5 bb 5e 8d 11 3d 41 df 8c 3a 36 46 00 3e
       -0.006528709 0.03553521 0.0010747687 0.12526783
000380 2a c5 0a bb 91 30 4b 3e 61 0b f9 bc 28 8d 93 be
       -0.0021174648 0.19842745 -0.030400934 -0.2881863
000390 b2 29 8f be 60 05 44 bf 2f 83 29 be d8 ee a1 bd
       -0.27961498 -0.765707 -0.16553949 -0.07906884
0003a0 8a 74 a5 3e 98 eb 74 3d 8b 87 94 be 9a cc b3 bd
       0.32315475 0.059794992 -0.2900966 -0.08779259
0003b0 49 b1 fb 3d af ce 1c be ad 9e e4 bd ee 8f 01 bd
       0.12289674 -0.15313219 -0.111630775 -0.031631403
0003c0 ba 57 e2 3d fe 2b 6d 3e a3 bf 2b 3e 1f 0f 1e be
       0.11051889 0.23161313 0.16772322 -0.15435456
0003d0 16 d4 b0 3d c9 09 15 3f 90 48 a8 3f f3 6c 77 be
       0.08634202 0.58218056 1.3147144 -0.24162655
0003e0 b2 46 50 3e b7 0c 1d bf d3 db c7 be 0f 3a d3 3e
       0.20339468 -0.61347526 -0.390349 0.41255233
0003f0 b3 9d a8 be 5d 8e d4 3a 98 70 ef 3e da fa 26 3e
       -0.32932815 0.0016216744 0.4676559 0.1630663

l4.bias f4 [256]
000000 53 fe 84 be 8b c7 d3 3d bc c3 b4 bd bf ed 0c be
       -0.25975284 0.10340794 -0.08826396 -0.13762568
000010 a2 9c 88 bd 19 c6 09 3e 15 20 b6 bd e9 ad 80 3d
       -0.066705 0.13454475 -0.08892838 0.06283171
000020 ce 7d e3 bd 7b ce 59 be e7 76 22 be 32 60 21 3c
       -0.1110798 -0.21270172 -0.1586567 0.009849595
000030 c7 55 d0 bc 08 f2 0b be ae 36 1d 3c 0d 7c 94 bc
       -0.025431527 -0.13666546 0.009595556 -0.018125558
000040 f2 43 ff bd d0 65 8c bd 0f 38 9e bd e9 7c c9 3d
       -0.124641314 -0.06855357 -0.07725536 0.09838278
000050 be 5f a7 bd 43 11 d9 3c 67 94 86 3d 7d b8 fd bc
       -0.08172558 0.026497489 0.06571274 -0.03097176
000060 e3 54 70 bd ce c2 ae bd be b2 fb 3c f4 c5 27 be
       -0.058674704 -0.0853325 0.03072488 -0.16384107
000070 d2 86 d9 3d 2f 04 b2 3c af ca 41 be 9b aa d5 bd
       0.10621418 0.02173051 -0.18924974 -0.10432931
000080 db a0 8b 3e e6 3d 83 bd 2b 4d 3c 3c e9 db ad 3c
       0.2727116 -0.064082906 0.011493008 0.021223025
000090 6d cc 1e 3e 9f 9c 0a be 83 fb c9 bd e7 d4 87 3d
       0.1550767 -0.13536309 -0.09862425 0.06632405
0000a0 55 f7 dd bd 9a 57 7a be bd e9 4a bd c4 c5 10 bd
       -0.108381905 -0.2444748 -0.049539316 -0.035344854
0000b0 be 96 a0 bc 6e cc c5 bd 3e 95 5d 3d ab a0 b4 3d
       -0.01960313 -0.096581325 0.054097407 0.088197075
0000c0 b0 1e 60 be 26 69 2e 3d 5d e0 b0 3c a6 83 10 be
       -0.21886706 0.042580746 0.02159136 -0.1411272
0000d0 9e 69 99 bc c9 67 84 39 4f 9c 0d be ea ee f4 bd
       -0.01872712 0.00025254328 -0.13829158 -0.11959632
0000e0 d5 08 d2 3d 8a 23 bd 3d f8 d3 fd bc 4a e0 f1 bd
       0.10255591 0.09235294 -0.030984864 -0.11810358
0000f0 e3 59 cb 3d 06 a1 0b be 0d ae cb ba 6d 16 f1 3d
       0.09929254 -0.13635644 -0.0015539542 0.117718555
000100 1e a7 36 3d 0e 92 8d 3d 8b 76 a6 3d a9 c1 2a be
       0.04459297 0.06912623 0.08128079 -0.16675438
000110 9d 4e ee bd 71 25 1b bd 39 38 15 3e 98 e3 4a bd
       -0.11636088 -0.037877504 0.14572228 -0.049533457
000120 f3 50 2a be 2b e9 5f bd 66 fe 14 3b 85 16 e5 bc
       -0.16632442 -0.054665726 0.002273464 -0.02796484
000130 31 49 90 3d d7 77 16 be d0 91 47 3c 40 3e dc 3c
       0.0704521 -0.14694153 0.0121807605 0.026885152
000140 f1 c5 7c bd 66 83 e9 bd fa 64 19 be d9 da 6f 3d
       -0.06171221 -0.114020154 -0.14979926 0.05855832
000150 fa 1b 5f bd 7b 11 93 3d cf ed 0f be 9e 59 22 bd
       -0.05447004 0.071810685 -0.1405556 -0.039636247
000160 63 bb 50 bd a9 10 75 bd 59 a2 59 3c 88 19 9b bc
       -0.050959956 -0.05983034 0.013283336 -0.018933073
000170 25 67 d5 bc c2 35 26 3e 32 ac 94 bd 2d 97 92 3c
       -0.02605016 0.16231444 -0.07259406 0.017894352
000180 73 d5 1b be 10 01 16 3e 1b 73 08 be f0 dc 1a 3d
       -0.15218143 0.14648843 -0.13325159 0.03780836
000190 bf 89 35 bd 5c 7a 1c be b7 18 67 bd 7d 2b ef bc
       -0.044320818 -0.15281051 -0.056420054 -0.029195542
0001a0 0b 16 99 bd 9b 99 4e bd 26 a1 16 3d 5c ad 45 be
       -0.074749075 -0.05043946 0.036774777 -0.19304413
0001b0 0a 17 f7 bd ca 6c 26 be da 5c a0 3d 10 f4 e4 bd
       -0.12064941 -0.16252437 0.0783021 -0.11179364
0001c0 d8 89 fa bd fb e9 d3 bd fe e4 18 be 33 f7 61 be
       -0.12233323 -0.103473626 -0.14931104 -0.22066955
0001d0 9a c9 05 3e ec f1 d9 3d e2 9d 54 be d3 9a f7 bd
       0.13065186 0.10641846 -0.20763353 -0.12090077
0001e0 4a 55 48 bd e0 ad 39 be 2a 11 29 bd a3 d6 32 bd
       -0.048909463 -0.18132734 -0.041276135 -0.043661725
0001f0 a3 7a df bd 3d 06 30 be 92 53 d1 bd 36 10 0b 3e
       -0.10912063 -0.1718988 -0.10221018 0.13580403
000200 4b 8e ce bd 05 d7 f7 bd e1 a7 01 be 70 c4 5f be
       -0.10085734 -0.121015586 -0.12661697 -0.21852279
000210 d1 9c ff 3c 16 5b 67 be dd 08 e1 3d 37 e1 59 3c
       0.031202706 -0.2259334 0.10988019 0.013298324
000220 67 45 c1 bd fb 2f a1 3c ea ca d0 3c 31 b6 59 bc
       -0.094370656 0.0196762 0.025487382 -0.013288067
000230 39 42 c8 3d 12 71 19 be f8 8a ab bd 60 94 ff bd
       0.09778256 -0.14984539 -0.083761156 -0.12479472
000240 50 f3 18 3c 3e 53 34 be 4b 36 ee bd cf 94 93 bd
       0.009335354 -0.1760988 -0.11631449 -0.07206117
000250 ef 3d 4c be f0 ce df bc 6b d3 9c 3c b5 4c db 3b
       -0.19945501 -0.027320355 0.01914378 0.006692494
000260 16 10 15 be b9 95 60 3d 52 d4 ba 3d 23 5b 54 be
       -0.14556918 0.054830287 0.09122528 -0.20737891
000270 e0 65 c3 bd c5 9f 95 3d 2d d2 0c be 07 e5 bb bd
       -0.095409155 0.07305864 -0.1375205 -0.09174543
000280 9a ba 29 bd 8f ac f8 bd 59 eb 0d 3d 7c 9a 6c bd
       -0.041437723 -0.12142288 0.034648273 -0.057764515
000290 e1 43 53 3d 6a 08 a9 bd 7b 6d 3a 3d 66 a0 22 be
       0.051578406 -0.08253558 0.045514565 -0.158815
0002a0 15 1a a7 bd 03 a7 c9 bd 15 22 f0 bb d8 65 40 be
       -0.08159272 -0.09846308 -0.0073282816 -0.1878885
0002b0 24 78 f6 bd 4e 78 91 bb 08 c4 ac 3d 03 84 54 bc
       -0.12034634 -0.0044393903 0.084358275 -0.012970927
0002c0 5f f9 f9 3d 4d f7 b7 bd a7 b1 ff 3d f9 aa ab bc
       0.12205767 -0.08982716 0.12485056 -0.02095555
0002d0 73 48 20 be ab 13 62 3d cb 4f 79 3b 87 d8 64 bd
       -0.15652637 0.055194538 0.0038041945 -0.05587056
0002e0 a3 81 cb bd 0f e9 2d 3d 56 51 fd bd 99 f1 af bd
       -0.099368356 0.04245859 -0.12369029 -0.08591003
0002f0 72 20 f4 bd 9a 9a 99 3d a7 ae 0e bd cb b4 f4 3c
       -0.11920251 0.07500191 -0.03483453 0.029871365
000300 9c e3 80 be 2d 81 d6 3d fe f2 4a bd f0 d1 a5 3c
       -0.25173652 0.10473857 -0.04954814 0.020241708
000310 a8 3e 2e bc 57 22 66 bd d9 69 df 3d 58 0a ee 3d
       -0.010635056 -0.056185093 0.10908861 0.11623067
000320 fa 45 b5 bd a6 40 a1 bd 45 55 88 bd 2a 6c 36 3d
       -0.088512376 -0.07873659 -0.06656889 0.044536747
000330 df 21 46 be 4f 0e bc 3b 2e ea 2f bd 44 9e 30 bd
       -0.19348858 0.0057390104 -0.04294794 -0.043119684
000340 9f ae ce 3b c2 a9 1f bd 91 fb fe bd 98 c5 2f be
       0.0063074376 -0.038980253 -0.12450326 -0.1716522
000350 16 75 f3 bd 45 ee fe 3c e3 74 07 3d 8f ce f3 b9
       -0.11887567 0.031119475 0.033070456 -0.0004650247
000360 40 84 b7 3c f7 b1 a5 3d 94 2d b7 3c 3b 90 2a 3c
       0.022401929 0.08090585 0.0223606 0.010410364
000370 ff c0 09 3d f5 33 1f be ad 84 58 3d e3 c0 da 3d
       0.03363132 -0.15547164 0.052860904 0.106813215
000380 9f d5 29 bd 67 98 8a bd c1 86 96 bd a4 23 98 bb
       -0.04146349 -0.0676735 -0.07349921 -0.0046429206
000390 ea e2 10 be 11 e1 c2 bd f1 5b 28 be 10 b6 f3 bd
       -0.14149061 -0.09515584 -0.16441323 -0.1189996
0003a0 77 13 59 be 03 1f 0d 3e 24 c6 f1 bc 4d 04 0d bc
       -0.21198831 0.13781361 -0.029513426 -0.008606982
0003b0 fe 90 3f be a6 b1 83 bd 57 26 85 bd 78 9f 91 bd
       -0.18707654 -0.06430368 -0.06501453 -0.071104944
0003c0 cd cd 3d be 39 9f ad bd a7 51 ce bd 9d 5c e6 3d
       -0.18535538 -0.08477635 -0.10074168 0.11248133
0003d0 55 25 c6 3b 81 ae 9b bd cb 37 76 3d 3e c9 8a 3d
       0.006046931 -0.07601643 0.060111802 0.06776665
0003e0 42 c8 18 be 14 59 0f bd d7 86 16 be 4f f7 19 be
       -0.14920142 -0.03499706 -0.14699875 -0.15035747
0003f0 b6 73 77 3d 90 90 c6 3b 46 3d 65 3c 82 b6 15 3e
       0.060413085 0.0060597137 0.0139916595 0.14620402
