SAC/models/racetrack_critic.pth (torch, 684290 bytes, 10 tensors)

l1.weight f4 [256, 73]
00000000: 8dfa 7e3d fe17 82bc a72a 283c f802 0dbe
00000010: 3d9d b8bd a650 a63c e72f 40bd f060 cd3d
00000020: 1d32 df3d 7204 afbd 4b8d f7bd 1fef 7abd
00000030: 44f5 e7bd 2588 abbd b994 803d bcc7 bcbd
00000040: fba6 bd3d 5c83 3b3e be81 d9bd 0fff 783d
00000050: cff6 bbbd 5261 bfbc 4da3 c5bd 29b1 133e
00000060: e910 53bd 479c ee3d c907 b63d c321 2cbe
00000070: a41a 7ebd 1ae8 2ebc 292a c0bc 9fee 9d3d
00000080: 7970 303d f2ba 2f3d 4bf2 87bd 49c0 323d
00000090: 3e32 1bbe 85e1 283e a275 433c 3c57 043e
000000a0: 4a62 68bd 9e59 7b3b b045 76bd 7704 aa3d
000000b0: 71a1 073e c14c 083d 2605 0c3d 3e26 ac3d
000000c0: 0954 24be c3f1 a03a baec abbd 726e abbd
000000d0: 9cea 363e 42ad ff3d 9af3 99bc c4d2 c03d
000000e0: db01 593d f46f a9bb e94b 29be 4ddd eb3c
000000f0: 4bc2 2c3c 28b6 443d 6ec3 293c 2073 45bd
00000100: 7046 a83d c40c 303d f7d5 28bd f698 0fbe
00000110: 9677 ac3c ea90 8b3d 77ac d0bd 3889 42bd
00000120: 2cdf 6abe 26f0 0c3e 1f27 a7bd eb90 d23d
00000130: 402d bbbd 250e 253d 9fc6 fabd b01d 943d
00000140: aecb 13be 6b6d fcbd b173 b23d 4dc4 6e3d
00000150: 55a7 debc b3c8 f2bc 89ca 0e3d 040c 82bd
00000160: 8803 18be cb24 7bbd e1cf 26bd 8d58 603d
00000170: 91ea 493d 838e e13d b6c1 4a3c a8ae b43d
00000180: 9b7f e7bd d578 00be 153b 33be 20b5 9fbd
00000190: 611f 85be 4736 7b3d c025 6bbd c384 363d
000001a0: 0b7f 443d a444 5abd b2d9 84bd aec4 e4bc
000001b0: ce51 f53b d1ab d83d d838 0abe 6303 60bd
000001c0: 1190 23bc be12 acbd f580 503b c27b a8bd
000001d0: 4604 f2bc 8f02 89bc e385 4b3e 1931 d83d
000001e0: f58c 8dbd 4122 71bd 881c 7a3b 8fb8 b23d
000001f0: 863c a83d 79af b63d 51a5 983d 084c 80bd
00000200: 2576 36bd 3db6 2e3d c84d c93d 0cf4 0fbe
00000210: c6eb 5a3d 3346 9a3d 1bea b73d 4033 efbd
00000220: f055 993d c12e 2f3d 6283 13bb 1b26 4ebd
00000230: e6fb 503e f58a 9a3d 1a9a 9f3d 3a41 d3bd
00000240: 2042 283c 0bba 793e 9250 05bc 04fa b7bd
00000250: 4840 1cbe f246 503d d79f 1e3d 3a78 38bb
00000260: f17d df3d 98c4 57bd 638b 1a3d d684 b33d
00000270: 4469 d6bd 6e23 8cbd 623f c5bd 4d0c 233d
00000280: eac2 ae3c 0dca 013e 36f7 89bd bfc1 c23d
00000290: c5aa dcbd 13f0 71be 9fbe ce3a 16a4 d4bb
000002a0: 4483 603d 6e7a 173d 7810 a93c 09a4 97ba
000002b0: e78a 803c 3c22 6f3d 1191 583d 9a7c 853c
000002c0: 5697 8bbe 0396 c03d 33bb 923d ea96 383e
000002d0: 7408 943d 0cc8 a8bd aaf6 0bbe 0aa1 083e
000002e0: 1cc9 1e3c 2230 9abc e4ed c63c 6513 973d
000002f0: ec73 21be 0efc afbd 0d49 afbb 51fa 2c3b
00000300: 66ae 6b3b 018b fabd c26a b23c 0135 b53d
00000310: e59e 953e b3c6 12bd cd6a 7f3d 1d50 113e
00000320: 99be 1e3d 6666 0dbe cbd2 8c3b 286b e03d
00000330: eda7 8f3d 8554 413d d1cd 563c 1859 323d
00000340: 955d 033e 851b 5a3d 0700 5ebd 6d0d 1d3e
00000350: c521 07be e7f5 bc3d 4fdb 8e3b 1a4e 853d
00000360: 35d8 e5bc 2e4a d8bc 7c15 0b3e b365 213e
00000370: 50d6 e93c 1b46 093e a5fc 4e3d af57 503a
00000380: 8e52 9ebd a9b4 bebd 2540 dabd 2cdc 303d
00000390: d9d7 193d b8d5 ffbd 4ab9 8e3d 8d73 5e3d
000003a0: b37c babd 0bb6 b4bb a235 2a3d 07e2 d5bd
000003b0: 155b f4bb b715 9d3d e014 703d 6d10 46bd
000003c0: b958 203d 7c87 753c 5a78 753d ca4d ed3d
000003d0: f8d1 d8bd 54b3 723d 40c1 213e 0e70 36be
000003e0: a0f2 a7bc 5a47 db3d 858d e5bd f2c3 04bd
000003f0: 47ba 183d 8959 39bd d171 623d e353 b73e
0.062250663 -0.015880581 0.010264075 -0.13770664 -0.09014366 0.020302128 -0.046920683 0.10028255
0.1089823 -0.0854577 -0.12087496 -0.0612632 -0.113260776 -0.08375577 0.062783666 -0.09217784
0.092603646 0.18311828 -0.106204495 0.060790118 -0.091779344 -0.023361836 -0.09650288 0.1442305
-0.0515298 0.11650901 0.08888204 -0.16809754 -0.062037125 -0.0106754545 -0.023457604 0.07711529
0.043076012 0.042902894 -0.066380106 0.04364041 -0.15155885 0.16492279 0.011929901 0.12923902
-0.05673436 0.0038352977 -0.060125053 0.08301633 0.13245179 0.033276323 0.034184597 0.084057316
-0.16047682 0.0012279082 -0.083947614 -0.08370675 0.17862934 0.12484218 -0.018792916 0.094152
0.052980285 -0.0051708166 -0.16532864 0.028792048 0.01054437 0.04802528 0.0103615355 -0.048205495
0.0821656 0.042980924 -0.041219678 -0.14023194 0.021053117 0.068147495 -0.10189145 -0.047494143
-0.22936696 0.13763484 -0.08161759 0.10281547 -0.0913949 0.040296692 -0.12244915 0.07232225
-0.14433166 -0.12325557 0.08713473 0.058292676 -0.0271794 -0.029636716 0.03486112 -0.06349948
-0.14845097 -0.061314385 -0.040725593 0.05477195 0.049295966 0.1101351 0.012375286 0.088223755
-0.11303636 -0.12546094 -0.17503007 -0.07798219 -0.26000503 0.06133106 -0.057409048 0.044560205
0.04797272 -0.053288117 -0.064868346 -0.027925815 0.0074865585 0.105796464 -0.13498247 -0.05469073
-0.009983079 -0.08402012 0.0031815146 -0.0822673 -0.029543053 -0.016724853 0.19875292 0.1055624
-0.06911651 -0.058870558 0.0038163979 0.08726608 0.08214669 0.089201875 0.074534066 -0.06264502
-0.044546265 0.042654265 0.09829289 -0.1405794 0.053447507 0.07532921 0.08980199 -0.11679697
0.074870944 0.042769197 -0.002250873 -0.05032931 0.20408592 0.07546035 0.077930644 -0.10315175
0.010269672 0.24387376 -0.008136885 -0.089832336 -0.15258896 0.05084891 0.038726654 -0.0028147832
0.10912693 -0.05267772 0.037730586 0.08765571 -0.104692966 -0.06842695 -0.0963123 0.039806653
0.021333177 0.12674733 -0.06736605 0.095096104 -0.10774759 -0.23626737 0.0015773362 -0.006489287
0.054812685 0.036981992 0.020637736 -0.0011569272 0.015691234 0.058382258 0.05287272 0.016294766
-0.27263898 0.094036125 0.07164612 0.18026319 0.07228175 -0.08241281 -0.13668314 0.13342682
0.009691503 -0.01882178 0.024283357 0.07376746 -0.15766877 -0.085929975 -0.0053492845 0.0026394317
0.0035962104 -0.12233544 0.021779422 0.08848 0.2922279 -0.035834026 0.062357713 0.14190717
0.038755987 -0.13808593 0.0042975894 0.109579384 0.07014451 0.047199745 0.013110594 0.043541998
0.12828667 0.0532489 -0.054199245 0.15337153 -0.13196476 0.0922659 0.0043596397 0.06509037
-0.028057197 -0.02640256 0.13582414 0.15761451 0.028544575 0.1340565 0.05053391 0.0007947636
-0.0773059 -0.09311802 -0.10656766 0.043178722 0.037559364 -0.124919355 0.06968935 0.054309417
-0.09105816 -0.0055148653 0.041555054 -0.10443502 -0.007457147 0.076701574 0.058613658 -0.04835551
0.039147113 0.014985915 0.05992923 0.11587103 -0.10586923 0.059253052 0.15796375 -0.17816183
-0.020501435 0.107069686 -0.11208633 -0.03241343 0.037287023 -0.045251403 0.055284325 0.35806188

l1.bias f4 [256]
00000000: 6194 893d f3e0 b23d e0d4 bd3d d185 9f3b
00000010: 1f44 bebd 6901 8ebd ed9b 263c e712 b03d
00000020: e046 b83d e857 2abe 674c d33d 12fd b63d
00000030: a630 18bd 492e 73bc 518d da3d 0577 fcbc
00000040: 016b 87bd 1a91 9bbd 75a5 da3b 1c26 c73d
00000050: 7e98 353d 1d9c 9e3c 9f6c 143d aba1 6f3d
00000060: 5941 b7bc bbc2 ca3b 9b26 403d 88e2 94bd
00000070: 047c 21bd e9c7 85bd 850f f0ba fa64 363d
00000080: b224 06be 5c37 153d 6e3c 663a 7a08 913d
00000090: 0113 86bd b978 533c f079 babc e96c d53d
000000a0: fa2f 853d 7045 08bd a8b7 b4bd 70a1 7f3c
000000b0: 2406 c73d 9688 9b3d 0e2b 15bd b6da 653d
000000c0: 46df f7bc 3abb 013e 2009 f63d ef3c be3c
000000d0: 169c ed3c 49da 803d 1bdc ed3c 2c3a b83d
000000e0: 8db0 9cbd 660f 32bd f3b9 563d d2ec f6bc
000000f0: d85b 9b3d 9ca0 98bd d775 e6bd 8ec8 613d
00000100: 5cad bb3d 4579 8ebd 74df 533c 3b6a 173e
00000110: 2c34 1dbd 2cc9 ef3d a1e7 f03c 2170 60bc
00000120: 7317 dc3d 6a29 b3bd ea37 f33c ff18 b63c
00000130: 99cd ddbd 353b 6e3d 2505 c4bc 9fb7 403c
00000140: 3f06 63bd 3776 acbc 58f9 483d f057 c5bc
00000150: 0bb8 f13d 56b9 dcbc dc5d cfbc d283 66bd
00000160: d4c4 55bd 51de 53bd a934 6fbd 90a0 9cbd
00000170: 07f9 95bd 2269 a03c 7f6a dfbd eb8f 72bd
00000180: 19e4 bfbd cdf0 263d 6671 6ebd 49a1 833d
00000190: f537 3e3d be4c d43d 8588 80bd bb63 3d3d
000001a0: 3554 653d f8ee a83d f189 5e3d a78c 1b3c
000001b0: 311b bb3d f825 bb3d 8196 fdbd 5fe6 84bd
000001c0: 3df5 1bbd f63c 81bd 03be ca3d 5deb b03a
000001d0: aa6a 21bd f5b2 953c ddad 973d 3353 10bd
000001e0: 490c 01be ec27 d9bd 553c 903c a035 aabb
000001f0: 32c8 5b3d feff 5dbb 104a fe3b 9689 b43d
00000200: 9f61 64bd 9f07 58bd b11f da3c 3472 e83c
00000210: deb5 cabd 1aec 783d 61e3 a13d 326e 103d
00000220: 1f6b 383d d8e7 c9bd a96a 27bd 1404 5e3d
00000230: 928b 6fbd d9b2 dabc ef63 c3bd 91fe 37bd
00000240: 5073 2f3c 6878 fd3d 20bc d0bd 066b ae3d
00000250: 5d95 2c3c 18ae 24bd 4847 f93d 75aa b7bc
00000260: e8de 4e3d 3145 b63d 650b 403c 825f a63d
00000270: 072d 80bd 22f8 5ebc 0d77 17bd c5cb ed3c
00000280: d13f 40bd 8bda 013d ee86 613d 73ab b7bd
00000290: f601 2e3c feb3 c9bd b48f 8cbd a9d5 8abb
000002a0: 9330 343d f365 bd3d e217 44bd 0ce7 e03c
000002b0: 9c3a cd3b 707f 433d bb94 bb3a 9bd2 c1bb
000002c0: 47e4 43bd 9624 3b3d c600 60bd 594a 81bc
000002d0: 5c56 bbbd d2cc 49bd 4804 2dbd ca59 1e3d
000002e0: ec99 1fbb ea4b 4d3d c9fd 64bd d360 a3bc
000002f0: a866 1dbc d9a9 2ebd 7d88 1dbd 73fc 313c
00000300: 23d4 3d3d 3ff7 08be ddc2 1abd 010c 633c
00000310: f8f4 493c 74a9 ffbc 0123 3dbb f630 cfbd
00000320: c5f1 0d3e 2613 e2bd 54af d8bd 0e6f 353d
00000330: d3ec 24be a8a3 433c 1120 d8bd db42 863d
00000340: 5da6 5a3d d393 133e 7115 153a a611 e3bc
00000350: 8e32 3dbd 3e6b 963c 951c e63d 2dc3 843d
00000360: aec8 883d b0ab 38bc f967 dc3d 95f7 273d
00000370: 73a1 e43d 9f4e 03bd 222d bebd 7e3e 71bd
00000380: ed52 97bd 8261 d6bd 26eb e93d c2be 873c
00000390: d6ef c23d 0e1e 333c 0b99 24bd c67f 673d
000003a0: 3681 8bbd 26fa d53d 94d2 533d d619 8cbd
000003b0: 6b65 89bd d1f1 d93b 2fac 32bd 7269 1a3d
000003c0: 14ca 993c 1d60 c33d dcec c03d 011e cfbd
000003d0: e53c 153d 98d2 1d3b 2616 d8bc e101 24bd
000003e0: 71c9 103d 5888 5cbd 0386 84bd 4e42 debc
000003f0: 4a61 8d3c af0b adbc 2f97 e23d 0804 4f3d
0.06717754 0.08734312 0.09269118 0.004868247 -0.09290337 -0.06933863 0.010169012 0.08597355
0.08997893 -0.16635096 0.10317307 0.08934988 -0.03715577 -0.014842578 0.10671485 -0.030818472
-0.06612206 -0.07596035 0.006672556 0.09724066 0.04433488 0.01936155 0.0362364 0.058503788
-0.022370027 0.0061877645 0.046911817 -0.0726977 -0.03942491 -0.065322705 -0.0018315172 0.044529893
-0.13099936 0.036429748 0.00087828084 0.07081695 -0.065465935 0.0129072005 -0.022763222 0.104211636
0.065032914 -0.033269346 -0.08824092 0.015602455 0.09717968 0.07594411 -0.036418013 0.056116782
-0.030257832 0.12669078 0.12013459 0.023222415 0.029005092 0.062916346 0.029035619 0.089954704
-0.07650862 -0.043471716 0.05242343 -0.030142222 0.07585877 -0.07452509 -0.11252945 0.055122904
0.09163925 -0.06956724 0.012931693 0.14786617 -0.038379833 0.11708292 0.029407324 -0.013698609
0.1074666 -0.087481335 0.029689748 0.022228716 -0.1083023 0.058161933 -0.023928234 0.011762529
-0.05542588 -0.021052463 0.049065918 -0.024089783 0.118026815 -0.026943844 -0.02531331 -0.056278057
-0.052189663 -0.05172569 -0.05839983 -0.07647812 -0.07322889 0.019581381 -0.109089844 -0.059219282
-0.09369678 0.04075699 -0.058213614 0.06427247 0.046440084 0.103662 -0.06276039 0.04623769
0.05598851 0.08248705 0.05433077 0.009493983 0.09136046 0.09138101 -0.12382222 -0.06489252
-0.038075674 -0.063104555 0.09899523 0.0013497878 -0.039408363 0.01827381 0.07406209 -0.035235595
-0.12602343 -0.106033176 0.017606894 -0.005194381 0.053657718 -0.0033874507 0.007760294 0.08815305
-0.05575716 -0.052741643 0.02662644 0.028374769 -0.0989797 0.06077204 0.07904697 0.03526134
0.045024034 -0.09858674 -0.040873203 0.054203108 -0.058482714 -0.02669661 -0.09540545 -0.044920508
0.010708645 0.12376481 -0.10192132 0.08516507 0.010533658 -0.04020509 0.12171799 -0.022420147
0.05050555 0.08899916 0.011721467 0.081236854 -0.06258588 -0.013608964 -0.03697877 0.029027829
-0.04693586 0.03170256 0.05506032 -0.08968248 0.010620585 -0.09848784 -0.06863347 -0.004236896
0.043991636 0.09247961 -0.04787434 0.027453922 0.0062630903 0.047728956 0.0014311293 -0.0059149987
-0.047825124 0.045689188 -0.054688238 -0.015782522 -0.09147331 -0.049267597 -0.04224041 0.03865985
-0.002435322 0.050121225 -0.05590609 -0.01994363 -0.009606995 -0.042642448 -0.038460243 0.010863411
0.046344887 -0.13375567 -0.037783492 0.013857842 0.0123264715 -0.031208731 -0.0028859975 -0.101167604
0.13861759 -0.110388085 -0.10580316 0.044295363 -0.16105966 0.011940874 -0.10552991 0.065557204
0.053381313 0.14411859 0.0005687094 -0.027718376 -0.04619079 0.018361684 0.1123592 0.06482539
0.066789016 -0.011271402 0.10762019 0.041007597 0.111636065 -0.0320574 -0.09285952 -0.058897488
-0.07388864 -0.10467817 0.11421804 0.016570453 0.09518401 0.010932459 -0.040185016 0.05651834
-0.068117544 0.10448103 0.051714495 -0.06840865 -0.06708797 0.006651141 -0.04362124 0.037698217
0.018773116 0.095398165 0.09420177 -0.10113145 0.036435027 0.0024081822 -0.026377749 -0.040040854
0.03534836 -0.053840965 -0.06470873 -0.027131226 0.017258305 -0.021123735 0.11063992 0.050540954

l2.weight f4 [256, 256]
00000000: 0f88 233e c2fe 763d 3c54 3a3d e2fa 26be
00000010: f969 083e ff45 d53c d818 9f3d a5a7 963d
00000020: 0a07 363a 3569 333d fb78 ef3c 77d5 26bb
00000030: 203a 8b3d 7b56 7f3d d3b4 403d fe1f adbd
00000040: ae74 c03d 668f e4bd 36de 27bc 4376 863b
00000050: e3b9 053d d2c6 083d 174f c5bd 7e99 2a3c
00000060: 2563 f3bd d975 e83d fd4a bbbb cb45 91bd
00000070: 6516 893d 7d3a 6f3d fb10 bfbc 9d29 33bd
00000080: 7139 253d b2c4 5dbd 396b 0c3e 9f7b e93d
00000090: 117a 813c d2df 6fbc 9ebb 0bbe d8e1 f3b9
000000a0: cf85 1f3c 4a7f 95bd 8643 a2bd 2e30 ef3c
000000b0: 3835 9a3d 72f0 acba 5dda 16bd dc42 1f3d
000000c0: 4331 703d c390 0abe 947e abbd ffa7 6d3d
000000d0: f31b 503d 3e92 863d 73f5 e9bb 983d 4f3d
000000e0: 77b7 593e c6c4 54bc 278c d83a 716e 383b
000000f0: 9c7a d73c 04f8 b93d dea7 febb a267 c9bd
00000100: d3d7 273e 4183 f2bc 8718 9c3d 2496 96bb
00000110: 8cba 9b3d 33c7 93bd 89f0 61bc 7131 8a3d
00000120: 0512 2dbc 493f da3d 5b7d 6d3d 6927 9d3d
00000130: 455c 9c3e ac8d 32be 0dbc af3c 1e12 02be
00000140: 3cb7 1cbd 3d10 693d 89c1 bd3c bcfe ebbc
00000150: 13d8 df3d 9fa0 bd3d 37e5 c53c d0c7 a53b
00000160: a5bf 603d 22b8 df3d c9b3 81bb d2ee 18be
00000170: 717d 923d 4d24 6c3d f7b8 ddbd c50e a63d
00000180: 1146 ef3c 97b0 14bd 43d3 9f3d 9d2c a63d
00000190: 616f 1bbc e6d3 5a3d 828e 823d ad66 b83d
000001a0: d40a 7839 24b0 023d 1c46 733d 08aa bc3d
000001b0: 9c52 d03d 9830 6fbc 8fe8 2e3d 7431 f2ba
000001c0: 4a9b d6bd 5f95 1dbd eee1 013e e7ed b3bd
000001d0: 4f21 ee3a 6887 373e b77c 983d 63dc bc3d
000001e0: 8680 d2bc 4284 f03d a3c4 a23d 3d51 f13d
000001f0: 9d24 c8ba f5bd 1fbe e9f8 a7bc 5bea 84bd
00000200: 756f 093e 3d86 9cbc 01c7 1a3d e1e2 173e
00000210: 7b13 c63d 3253 c23d 766e 2e3d c665 933d
00000220: 9915 ad3d f3d6 303d 7e19 aa3c ee9e 2f3d
00000230: a9f5 28bb 7399 1c3e a66c 6fbd 359d 513d
00000240: 726b 863c 5b0c 2b3c 1212 09be f01a e13e
00000250: d4a4 8a3d 834b 573d 31c9 663d 6e34 02bc
00000260: 1598 dbbc 093f 04be 273b 05bd 9fb6 a8ba
00000270: 18df b73d 4f26 1f3e a882 133e 7c9f febd
00000280: 8815 c73d 6153 c93d 7b5b 9ebb 4896 c7bd
00000290: 47d0 013d a4de 9d3b 406f 24bd f63d 723c
000002a0: 59a2 6a3d af42 903d 1443 b23d a805 8d3c
000002b0: 07cd 38bd dd33 85bb 191e 1f3c 2289 6cbd
000002c0: 09c0 0dbd 5ced 1e3e c55a 81bc 6402 193d
000002d0: 3ac5 9bbd 70ed ccbb 97ed 853d e178 0f3d
000002e0: cccd 8c3d 0a8a d6bc 1748 1bbe 69e9 6d3d
000002f0: d69b f3bc 33cc 013d f3a4 823d 0c36 4a3d
00000300: d794 633d 8f92 df3d 8e45 ce3d 62c8 b6bc
00000310: 7fd8 103d d951 ea3c 7a47 803d 246c ef3d
00000320: 2b19 c73d c2ab 113c 6a03 b03d 76fa a53d
00000330: af01 003d 8cfb e2bc 2c88 bbbd 62c4 d1b9
00000340: 40d1 fc3c 5741 6f3d d545 46bd 9df5 ffbd
00000350: 05fe 163d ed67 5e3d 634d e43d 4beb 853d
00000360: f2c8 7a3d 0729 223e 8928 5a3d 9ff8 b53d
00000370: 846a ff3b 5007 043c 6646 1b3b 1283 bb3c
00000380: fd97 6a3d 09b1 da3c e135 123c 19e0 c5bc
00000390: 1735 673d d1f9 9ebb e58a 07bd 5cda a43b
000003a0: 60a0 9d3d 6cb0 8e3c 3c11 be3c 51c2 bd3d
000003b0: dd96 1b3c 68a3 813d 989d f73b 5769 2bbb
000003c0: 5d38 1b3d f584 583c 50a7 4d3d c0c2 b4bd
000003d0: 175b 9e3d 3c31 edbd 23b5 6a3c 5f5b a33d
000003e0: 4a7c acbd 4958 913d 9498 5b3d 5b56 3a3e
000003f0: 8dff 0d3c c126 5d3c 3a51 493d 97bf 983c
0.15969871 0.06030155 0.04549049 -0.16306642 0.13321675 0.026034353 0.077684104 0.073561944
0.0006943798 0.043801505 0.029232493 -0.0025456825 0.06798196 0.062338334 0.047047447 -0.08453368
0.09397255 -0.111601636 -0.01024585 0.0041034534 0.03264798 0.033392735 -0.09634226 0.010412572
-0.11884145 0.11350603 -0.0057157264 -0.0709339 0.066937245 0.05840539 -0.023323527 -0.043740857
0.040337984 -0.05414266 0.13712777 0.11400532 0.015805276 -0.014640765 -0.13645789 -0.00046516838
0.009736492 -0.07299669 -0.07923035 0.029197779 0.07529682 -0.0013194217 -0.03682934 0.03888212
0.05864073 -0.13531785 -0.08373752 0.05802154 0.050807904 0.06570862 -0.0071398555 0.05059585
0.21261393 -0.012986368 0.0016521261 0.0028142 0.026303582 0.09080508 -0.007771476 -0.098342195
0.16390924 -0.029603602 0.07621866 -0.004595535 0.0760394 -0.072157286 -0.013790258 0.067477114
-0.010563378 0.10656602 0.057980876 0.076735325 0.30539146 -0.17436856 0.021451974 -0.12702224
-0.038260683 0.05690025 0.023163574 -0.02880799 0.10929885 0.09259152 0.02415715 0.00505922
0.054870266 0.109237924 -0.0039581996 -0.14934853 0.07152832 0.057651807 -0.10826295 0.08108286
0.029208215 -0.03630122 0.07803967 0.08113978 -0.009487004 0.05342474 0.063748375 0.09003959
0.00023655157 0.031906262 0.059393033 0.092121184 0.101720065 -0.014598988 0.042702254 -0.0018477873
-0.10478838 -0.03847253 0.12683842 -0.08785611 0.0018167886 0.17922747 0.074456625 0.09221723
-0.02569605 0.11743976 0.07947662 0.11783073 -0.0015269701 -0.15599807 -0.020504432 -0.06490012
0.13421424 -0.019106979 0.03778744 0.14832641 0.09671684 0.094885245 0.042585813 0.07197146
0.08451385 0.04317374 0.020764109 0.042876177 -0.002578119 0.15292911 -0.058453225 0.051175315
0.016408656 0.0104399575 -0.133858 0.43965864 0.0676972 0.052562248 0.056344215 -0.0079470705
-0.026805917 -0.12914671 -0.032527115 -0.0012871808 0.08978099 0.15541957 0.1440531 -0.12432763
0.09720904 0.098303564 -0.0048326827 -0.09745461 0.03169277 0.0048178006 -0.04014516 0.01478528
0.057283733 0.07043969 0.087042004 0.017214611 -0.045117404 -0.0040650205 0.009711766 -0.057747968
-0.034606967 0.15520233 -0.015790353 0.037355796 -0.07605977 -0.0062538907 0.06539457 0.03502739
0.0687519 -0.026188869 -0.15164219 0.058083925 -0.029737394 0.03168888 0.06379118 0.04936795
0.055561867 0.10916626 0.1007186 -0.022312347 0.035362717 0.028603481 0.06263633 0.11690548
0.09721597 0.008891048 0.08594401 0.08104412 0.031251606 -0.027707838 -0.09156832 -0.00040009903
0.030861497 0.058411922 -0.04840644 -0.12498019 0.036863346 0.05429833 0.11147573 0.06539019
0.061226793 0.15835963 0.053261314 0.08885311 0.00779468 0.008058384 0.0023693084 0.022889648
0.057273854 0.026695745 0.008923979 -0.02415471 0.056447115 -0.004851558 -0.033091445 0.0050309133
0.07696605 0.017418109 0.023201577 0.092655785 0.009496418 0.063299954 0.0075566284 -0.0026155317
0.03789555 0.013215293 0.05020839 -0.08826208 0.07732218 -0.11581656 0.014325413 0.07976412
-0.08422144 0.07096917 0.053612307 0.18197004 0.008666885 0.013498009 0.04914973 0.018646045

l2.bias f4 [256]
00000000: d632 d23d 87ff 123c 3c2d 14bd 7da7 be3c
00000010: 1c48 3a3d e679 333c f189 81bc 4a3d 243d
00000020: e6f4 1b3d 9e65 15bc 5687 12bc 7cdb 3c3d
00000030: b08e bcbc e3de ee3d d675 55bd 4589 993c
00000040: 7caf b0bc c7a4 aabd 8715 983d b44b f13d
00000050: 8a29 5fbd dc67 85bd 2936 733d 6208 98bd
00000060: b977 88bd 91b5 793d 907a 233d d565 093d
00000070: 49d4 67bd 6ffd 343b 6bfb e23b c02f 583c
00000080: d614 c83c 9914 f13d 5ef2 603c 26ec b23c
00000090: cc2e 843d 88d4 293d 3d4a 573d 1780 a93c
000000a0: b113 ab3c e054 2e3d f87d 1dbd 7b9b bf3c
000000b0: 42a3 db3d e5c6 e43c b4e3 df3d 31e9 5fbd
000000c0: a872 a4bc c1e5 133d 8b60 563d b359 a4ba
000000d0: 664b 113d be4b 9dbd 628d 48bd ebf7 87bb
000000e0: 71ec 15bb fac3 e6bc 77cc c33d ccbc aebb
000000f0: 3b79 633d 609a 82bb 6276 703d 3cf9 9ebb
00000100: aa9d 64bd 0978 b2bb fca4 83bd f899 af3d
00000110: efff bcbc 8feb 73bc acf6 343c 62f2 6e3d
00000120: 145e 673c 07de 173c b81a abbc e111 1bbd
00000130: c4cf 65bc d601 9f3c a210 ae3d a009 15bd
00000140: 4827 43bd c0fe 223b c635 113d d721 823d
00000150: 90e6 213a f873 963c 8a3d 733c 1a74 8bbc
00000160: 7c80 e7bc 746d 2ebd 705c e63c a44a d2bc
00000170: 5ad1 2c3d a061 863d 9504 df3d da6d d63c
00000180: 9c76 8dbd 62dc 983c 8c32 623d 34d9 cd3c
00000190: 4f7d 0b3d b10a b03d 7a4e 523c 1566 f2bb
000001a0: 1fbc 433d 4241 ffbc d03c 503d 0aee 9e3d
000001b0: 0ac6 b93d 8def c03d ae9d 9f3b 96e8 cb3d
000001c0: e680 c9bd d64b 293d eb0f 45bd 6813 7d3d
000001d0: 0201 ae3c bfbe 1bbd cc5b 0ebc 18a2 2bbd
000001e0: c94a aabb 93dc 723d 161e 353d a4d0 473d
000001f0: 44d2 01bd b14d 7fbd 5009 8c3d 9f64 a5bd
00000200: 4c9e a7bb 3e46 843d 77a4 afbc 8748 683d
00000210: 20c5 df3d 92b5 58bc cfca 83bd c7a0 c23d
00000220: c11c 1b3d d096 223d 7aad 12bc aa43 b83c
00000230: 5434 a53c 33aa 28bc cd51 e63d 5448 33bb
00000240: 1dac 333a 729c b4bc 8d4f cabc a274 fb3c
00000250: 5f10 db3c f74e a6bc 5b8d 963d c82e cd3d
00000260: e0f5 76bd 6cba f8bb cfaa 4fba 951c ae3c
00000270: 2c76 783b 714e 60bd 8370 00bd c64a 843d
00000280: e033 263d a54c 923d a939 b33d 3685 5a3d
00000290: 3a87 a63d 3de6 dbbb 9bac 8b3d 463b af3d
000002a0: 7fd3 ad3d 72d9 4cbd 72b8 52bd d973 c1bb
000002b0: 290d afbc c3cc 1a3d 0a31 33bc 47fd abbc
000002c0: 2f7c 453d 3441 f43b 6a3b ac3c 50cb 303d
000002d0: 1bf5 c03c 9e0a e93d a6c8 fdbc db86 323d
000002e0: 50d0 983d dd26 923a a9e7 913b 7c3b 553d
000002f0: 46d1 bb3d 0130 9b3c 1353 54bd 6a82 0e3d
00000300: 1570 33bc 7e1e 8a3d 3ad0 013d 7d0a 333d
00000310: 185e 973d ce07 e53d abb8 8cbc 2db4 4ebd
00000320: cdf1 183c 0c1c 443a 641d aa3d 4515 d23d
00000330: a07c 043d a2c7 79bb 6c98 983d 6c19 a9bc
00000340: 9274 f63d 1cc4 9e3c 0503 84bd 7c14 013d
00000350: 07b2 683c d5e8 e7bc 5124 55bd 0757 003b
00000360: ca68 103d 7e71 d43d 1678 353b d62b 9e3c
00000370: 4fa6 273d d7bf ca3d 1a91 f33c a86d b03c
00000380: eeb0 4f3d dd9e ce3a 0f57 443c 702f 273d
00000390: 6a85 91bd 7fbd af3d c6d4 83bd 80e8 813d
000003a0: 746d 02bd a087 553d 191e 04bd 99fd df3a
000003b0: 43ad 903b 3b4c bc3a 53e8 803d 8f27 8cbd
000003c0: 8e3d 353d 3e07 a3bc 0020 f83b 2733 b83c
000003d0: 724a 923b 1c63 993b 0e96 95bb 0fff ca3c
000003e0: ee1b 373d 2fef c53c e028 753c 040e 0abd
000003f0: e3e0 3c3d 55a0 e3ba 4adf d63c 88de 7b3b
0.102636024 0.008972055 -0.03617595 0.023273224 0.045478925 0.010954356 -0.015812846 0.040097512
0.03807535 -0.009118466 -0.008943399 0.046107754 -0.023017257 0.11663606 -0.05211433 0.018742213
-0.021568052 -0.0833221 0.07425981 0.11782017 -0.054482974 -0.0651395 0.059377823 -0.07423474
-0.0666346 0.06096417 0.039911807 0.03354438 -0.056598935 0.0027616879 0.006926944 0.013194978
0.024423998 0.11771507 0.01372966 0.02184112 0.06454238 0.04146245 0.052561034 0.02069096
0.020883413 0.04256141 -0.03845021 0.023389569 0.10724498 0.027926872 0.10932103 -0.054665748
-0.020074204 0.036107782 0.052338164 -0.001253894 0.035472296 -0.07680462 -0.04896296 -0.004149427
-0.0022876526 -0.02816962 0.09560483 -0.005332565 0.055535536 -0.003985688 0.05870665 -0.0048514884
-0.055814423 -0.005446438 -0.06427953 0.08574289 -0.023071257 -0.0148877045 0.011045139 0.058336623
0.014121551 0.009269244 -0.020886764 -0.037858848 -0.014026586 0.019410055 0.08499266 -0.036386132
-0.047644883 0.002487108 0.035451673 0.06354111 0.0006176019 0.018365845 0.014846215 -0.017023135
-0.028259508 -0.04258485 0.02812025 -0.025670357 0.04219184 0.06561589 0.10889546 0.026175428
-0.069073886 0.018659774 0.055223987 0.025127985 0.03405505 0.08595789 0.012836093 -0.007397423
0.047786828 -0.031159047 0.050839245 0.07760246 0.09070976 0.09420691 0.004871092 0.099564716
-0.098390386 0.04133209 -0.048110884 0.061786085 0.021240715 -0.038023707 -0.008688878 -0.04190263
-0.0051969034 0.059292387 0.044218145 0.04878296 -0.031694666 -0.06232995 0.06837714 -0.080758326
-0.005115306 0.0645871 -0.021440728 0.056709792 0.109262705 -0.0132268835 -0.06435167 0.09503322
0.03786922 0.039694607 -0.008952493 0.022493202 0.020166554 -0.010294485 0.11246071 -0.0027356343
0.0006853955 -0.022047255 -0.024696136 0.030695263 0.026741205 -0.020301325 0.0735118 0.100186884
-0.06029308 -0.0075905826 -0.0007921876 0.021253863 0.0037912233 -0.054762308 -0.0313573 0.064595744
0.040576816 0.07143525 0.08751232 0.053349696 0.08131261 -0.006710796 0.06820031 0.085562274
0.08487605 -0.05001206 -0.051445432 -0.0059037027 -0.02136858 0.037792932 -0.010936985 -0.020994795
0.048214134 0.007454062 0.021024425 0.043162644 0.023554375 0.11378978 -0.030979466 0.04358564
0.074616075 0.0011150498 0.004452665 0.05205868 0.09170775 0.018943788 -0.05183704 0.03479234
-0.010952015 0.06744097 0.03169272 0.043711174 0.07390994 0.11183129 -0.0171779 -0.050464798
0.009334994 0.0007480986 0.08306387 0.10257963 0.032345414 -0.0038113375 0.07450947 -0.020642005
0.12033953 0.019380622 -0.064458884 0.031513676 0.014202601 -0.028309265 -0.052036587 0.0019583122
0.035256185 0.103732094 0.0027689985 0.019308012 0.04093009 0.09899872 0.029732276 0.021536663
0.050705843 0.0015763898 0.011983647 0.040816724 -0.07105525 0.085810654 -0.06437068 0.06343174
-0.031842664 0.052131295 -0.032255266 0.0017089128 0.0044151857 0.001436598 0.06294312 -0.06843483
0.044248156 -0.019900914 0.007572174 0.022485329 0.004464441 0.004681004 -0.004565007 0.024779825
0.04470437 0.024161903 0.014963359 -0.033704773 0.046112906 -0.0017366508 0.02622952 0.00384322

l3.weight f4 [1, 256]
00000000: cc77 b03d 0bdb 013f ec02 82be be24 bfbe
00000010: ac42 2b3e bc9a 20bf 9754 8e3b 094a bd3e
00000020: 3df7 14bf 9f17 e8bc 6473 b63c 888e 9d3e
00000030: 1e56 d2be cf83 ba3d 1db5 cb3c 1a8f 04bf
00000040: 17fa d43b 1437 55bf 32e9 853d 1eac 7c3d
00000050: 1800 4abd 6d94 86be b440 cfbe b269 6fbf
00000060: 4769 ac3b 222f 8d3d 5b0c 353d ad35 cd3d
00000070: cb0c 363a b32f d33d c8c8 1d3e e696 a0be
00000080: 62fc 2fbd 24bb ad3d d077 a23d 064c e0bd
00000090: 3dd7 b63d 0477 9abf ec5b 34be 9e15 a0be
000000a0: a2ee d7bd 6573 a2be adb6 76be 2fba bd3d
000000b0: a62f 9d3e 75be de3e fae2 893e c376 f4bd
000000c0: 878e 743e 4409 043e 7c8b 8f3d 6415 2f3e
000000d0: 9425 1f3e f83f 69be 0de3 b0be 048b 213d
000000e0: 7714 43be 720b b4be 1456 083e 0ffd b73e
000000f0: e13d 513d 5d8c 74be fbdb aebe 6c41 75bf
00000100: 6277 463e 1b8f 64bf 2e17 6a3c 684c 8e3d
00000110: e64d 8ebf 7473 5bbf 04f3 023d fe29 a0bf
00000120: f7f3 813e 958c 3d3e 609b b4be eb98 da3e
00000130: d941 dbbe 6e6c 203e e29f 003e 2b11 6abe
00000140: 3953 86be f84e 5ebe a62a 9ebe 2907 023e
00000150: a7e2 48be 4bf5 b6be 1dc6 313e b701 823b
00000160: 90e9 2fbe 55e8 f5bd 3561 913e 6cb6 46bc
00000170: 1243 583e 5cdf fd3d e55a 7e3d eae4 9dbe
00000180: 6c49 a3be 0d19 c03d 90e9 a73d 41b3 a23d
00000190: 84b7 cdbe e154 673d bd06 d63d 6e04 89be
000001a0: f974 30bf 7169 e7be f3be 77bf 3139 95bf
000001b0: 5000 7c3d 966b 073d 508a 91be 9d6c c83d
000001c0: b27b 59bf b519 11be b49d 64be 29d9 aa3d
000001d0: 43d2 65be 0403 cbbe 98fe 0a3e 3b0d 7abe
000001e0: e282 a9be 8d33 1e3e 1bae 063e b362 963e
000001f0: 4b16 40be 3be2 87be c4a7 a43d b2e3 e33e
00000200: 93fe 94be 4db1 3bbf 1f24 f7bb 0ac5 213e
00000210: 8f7a 423d 843c 7cbe 9f8b 313d 6a41 b13d
00000220: 4148 90be d8d7 91be ebfe 84be 203b 113e
00000230: d238 1dbf 50f9 003e 164e c53d f4c8 e93d
00000240: f291 5bbe ba09 ba3e f352 74be ba88 bdbc
00000250: bfee fa3d a3c9 de3d 7575 0c3e 3360 333e
00000260: 992a 88be f2f4 5f3e d894 0bbe 1731 17bf
00000270: 9853 06bc 38b2 e1bc 4055 47be c77c 2fbf
00000280: fd9a f13d 71c7 013e 89e2 be3d f52b 95be
00000290: 20a8 053d fc9f 80be 2f68 9a3e 00f4 923d
000002a0: fa75 1b3d 8776 99be 94b1 83be 6f9d 51bf
000002b0: 0003 953e 50fa 593e b547 d23e 55e6 e7be
000002c0: 0e9e 59bf b587 583e 394d ae3e a551 39bf
000002d0: 675d 68bc 12bb c03d 3569 afbe c5a9 d63d
000002e0: 11f0 0d3e 989f 933e 9548 533d 8bce 53bf
000002f0: 58c1 d23d e9ad 26bf 0ccf a6bc 664c f43d
00000300: 0695 3c3e cd74 6e3e d6d4 1c3f a50a 2ebe
00000310: 4b9e 433e e201 6d3d ecab 4b3e 5818 33bc
00000320: ab02 4d3e 45d5 59bc 56bd bf3d 305d b53d
00000330: 7cc2 ff3d 176c 72be ebb5 d43d 5c24 d13c
00000340: cd0f d63d 8be5 f43d 227f 11be c86b 67bf
00000350: fd64 213e ebe8 29be 050a 92be 89f4 30be
00000360: 9dfa 0c3e 8c0a a93d 051e 6ebe ef3e ef3e
00000370: 7419 e7be bb34 b43d e6d4 6dbf c8c2 be3d
00000380: 8fd8 533d 5cfa 88be 8446 e03c d785 cdbd
00000390: bda4 ab3b 12eb e53d cc92 8dbe fef4 9e3d
000003a0: bf57 24bf 1f54 6ebf 973f 45bf 1c4b c93d
000003b0: 9ade 443d 45e1 cabc 8e5b 51be b140 883c
000003c0: 4d92 1bbf fcdc 29be 3063 623e 5a94 223e
000003d0: 4871 eb3e fe31 e6bd 7d1e 83be 06e0 d2be
000003e0: 7f3e d2be 6fc9 8abf bd3e 86be b560 cbbe
000003f0: f59b 2e3e 79e4 b6bc 159d 9a3d b17e 18bf
0.086165994 0.5072486 -0.25392854 -0.3733272 0.16724652 -0.62736106 0.00434358 0.36970547
-0.58189756 -0.028331576 0.02227182 0.30772805 -0.41081327 0.09107172 0.024866635 -0.51780856
0.0064995396 -0.8328717 0.06538619 0.06168758 -0.049316496 -0.26285115 -0.40479052 -0.93520653
0.0052615735 0.068937555 0.044201236 0.100200035 0.00069446553 0.10311832 0.15408623 -0.31365126
-0.0429653 0.0848296 0.07933009 -0.10952 0.08927772 -1.2067571 -0.1761319 -0.31266493
-0.105435625 -0.31728664 -0.24093123 0.09264027 0.30700415 0.43504682 0.26930982 -0.119367145
0.23882495 0.1289416 0.070090264 0.17098004 0.15541679 -0.22778308 -0.34548226 0.039439216
-0.19050775 -0.35164982 0.13314086 0.35935256 0.051084403 -0.2388167 -0.34152207 -0.9580295
0.19381478 -0.8928086 0.014287753 0.06948167 -1.1117523 -0.8572304 0.03197004 -1.2512815
0.25381443 0.18510659 -0.35274792 0.42694792 -0.42823675 0.15666363 0.1256099 -0.22858112
-0.2623537 -0.21709812 -0.30891913 0.12698044 -0.19617711 -0.3573402 0.1736073 0.0039674896
-0.17178941 -0.120072044 0.28394476 -0.012128454 0.21119335 0.12396118 0.062098403 -0.3083871
-0.31891954 0.09379778 0.081988454 0.07944346 -0.40179074 0.05647743 0.10450504 -0.26761192
-0.68928486 -0.45197633 -0.9677574 -1.1658078 0.061523736 0.033061586 -0.28425837 0.09786341
-0.8495437 -0.14169963 -0.22325784 0.08342201 -0.2244349 -0.39650738 0.13573682 -0.2441911
-0.33107668 0.15449353 0.13152353 0.29372177 -0.18758504 -0.26539788 0.08039811 0.44509655
-0.29100475 -0.73317415 -0.0075421478 0.1579782 0.047480162 -0.2463246 0.043346044 0.08655055
-0.28180125 -0.28484988 -0.25975737 0.1418271 -0.61414826 0.12595105 0.09634034 0.11415282
-0.21442392 0.36335546 -0.23859768 -0.023136485 0.122525685 0.10878303 0.13716681 0.17517166
-0.26595 0.21870783 -0.13630998 -0.5905928 -0.008198641 -0.027550802 -0.19466114 -0.6854977
0.1179714 0.12673737 0.09320552 -0.291351 0.03263104 -0.25122058 0.3015761 0.071754456
0.037954308 -0.29973242 -0.2572142 -0.8188085 0.2910385 0.21286893 0.41070333 -0.45292917
-0.850068 0.21145518 0.3404329 -0.72390205 -0.014182425 0.09410681 -0.34259954 0.104816
0.1386111 0.28832698 0.05158289 -0.82737035 0.10290784 -0.65109116 -0.0203624 0.11928634
0.18416223 0.23286743 0.6126226 -0.16996248 0.19103353 0.057863124 0.19889802 -0.010931097
0.20020549 -0.013295476 0.09362285 0.08855665 0.12488267 -0.23674046 0.103862606 0.025530033
0.104522325 0.11957844 -0.14208654 -0.90398836 0.1576118 -0.16592757 -0.2852327 -0.17280783
0.13767476 0.08253965 -0.23253639 0.46727702 -0.45136607 0.0879912 -0.9290298 0.09314495
0.0517202 -0.2675351 0.027377374 -0.100352935 0.005238144 0.11226477 -0.2765106 0.07761572
-0.6419639 -0.9309711 -0.77050155 0.09828779 0.048063852 -0.02476562 -0.20445082 0.01663241
-0.6077011 -0.16588205 0.2210815 0.15876904 0.45984864 -0.11240004 -0.25609198 -0.4118654
-0.41063306 -1.0842723 -0.2621974 -0.3972222 0.1705168 -0.022325741 0.07549492 -0.59568316

l4.weight f4 [256, 73]
00000000: 1ab7 cdbd 7e38 d3bd 4b60 223d 7043 ffbd
00000010: 0e76 25bd ee1c 5fbd a778 67bd 5780 ef3d
00000020: 6eeb e7bd 7e05 1c3c 7bae 153e c2ce 493c
00000030: af55 b13d 87ad 13be 842f b53d c5e8 8d3d
00000040: ed22 5f3c 9482 e1bd c3cf cabd 1a76 06bb
00000050: 5c93 c2bc d7e1 893d a7a5 923d a51d e7bc
00000060: dc9c e53d cf5e 903c 2127 e8bd c49e b3bd
00000070: 7163 453e 699c b03c ba04 e33c 9b4f 2d3c
00000080: 10ec 89be 957b 9a3d 874d 4c3c d1d3 9a3d
00000090: 3832 87bd 47d3 dd3b 85ee c8be 51c0 373d
000000a0: 4999 debc 8e66 42bd c7da 73be f245 173e
000000b0: f83c 083e b730 02bd aed6 44be 17a4 b63c
000000c0: 5d1d c93c e45c 8c3d cf1d 75be f342 483d
000000d0: 7fe7 673d 7320 adbd 7437 0b3c 804a c13d
000000e0: a85e 41be 08eb 643d 9db0 d8bb b2fb 943d
000000f0: 708c a8bb b89e 883d bf4e 7dbd 000b 1a3e
00000100: af0c 5a3e 966e 49be 8284 32be c4f0 01bd
00000110: 37d1 d0bd c216 cfbd 72d1 dd3d 9e99 1b3d
00000120: 066a 493e d9dc 5b3d aaff 423e 3b22 673e
00000130: 3f13 76bd 2f4a 943d dc75 d2bd 1457 2fbe
00000140: 595d 90bb 1659 32bc d89a ab3d f040 693d
00000150: d734 d0bd e8db ffbd d734 6e3d 8c2b cfbd
00000160: 5fb1 b53d e50a c0bd ab6d 913d 6b64 ea3b
00000170: 621d 193d bdef 613d 1418 4dbd 9de3 88bd
00000180: d917 efbd fe71 053e 1bec 1ebd cfd8 03be
00000190: 3788 a5be a0ac dfbd ff40 d3bc fd61 513e
000001a0: 4ecc e5bd 1be3 8cbd 9c19 cfbb 37e5 28be
000001b0: 231c c6bc c6bb 4ebe cc6e 88bc bf2a 1abe
000001c0: 80fa 633e 5fc9 edbd f639 92bd 4594 da3c
000001d0: 9bfa 81bd 2274 b0bc 9807 e7bd 00d2 8c3e
000001e0: 43eb 8eb8 ffda 043e b838 dbbd 56ba 63bd
000001f0: 1ccf a33c 91dc 053e 0be7 57bd 106d 9a3d
00000200: bc32 12be 5b05 b5bd 23e2 82bd 56e8 843c
00000210: 61f2 b8bd eab6 b03d b3da ec3d d64a 023e
00000220: b533 61be 40a4 adbd ff06 2abe 98b2 2bbc
00000230: f88b 48bd c7bc b7bb 7710 08be b1e6 25bd
00000240: 2174 e63d 98d4 123e c34e 61be e7b3 143d
00000250: fb1d 89bd 2e12 cdbb 860e a03d fe9a 2b3d
00000260: 0ecc eb3d 560d 593d 6126 1cbd 62bc 0cbd
00000270: 8c87 c73b 0064 a9bc d554 e7bd 0eec 1ebd
00000280: f4a5 5abd 0b35 a5bd 6aab f53c 1fc2 b13d
00000290: 13bb 07bd e447 2abd 2f2c 5dbd 5565 7f39
000002a0: 9a50 60bc 7571 a8bc b8b5 babd 9f52 6ebe
000002b0: ff8f 79bd 27d7 ae3d 08e6 d8bc ff7c 9fbd
000002c0: 3c3d 4ebd f25d 60bd e34d 9fbd d7a3 dd3d
000002d0: 220e 483c 7a0a 72bd 3605 2cbe 086e 423d
000002e0: bca2 893d 788b ef3d 0690 1c3d a3af c23b
000002f0: a81e 03be ecf3 7f3d b196 bcbd 478c c8bd
00000300: 5f2a 55be f6b6 483d 0921 763d ba6c 113d
00000310: d852 a3bd 9297 dcbd 596a a23d fc07 093c
00000320: bbfe 243e 6dc7 c1bd 365c b13c 2115 8c3d
00000330: da7c 2ebe e02f 02be 6e65 eab8 ee03 443d
00000340: 2d7b 0abe 4892 f83d 7097 cd3d 980d f4bb
00000350: 3fa8 9a3d 8d2f f3bd 93db 193e b31f 08bd
00000360: e579 6d3d 016f 1dbe 56b7 77be 1f5e 403c
00000370: efc8 45be ee72 09be 06f7 f53d fc0b 6e3d
00000380: 1709 053e 646c c3bd b2e7 90bd 8baf 85bd
00000390: a713 873d a5a0 1abe bbce f0bd 0f92 a43d
000003a0: f2f9 383d d8c8 153e fb50 7ebe 7eed 0fbc
000003b0: 3b2f 2dbe 8e14 23be ea60 f7be 3c9c 583d
000003c0: 386d 75bc 3a51 06bd fc8d 543e c35d c7bc
000003d0: e0a0 76bd a485 d2bd 2aa1 e4bd e5b7 723e
000003e0: 052a 1d3d 82de 0dbd 760b 0a3c 8dd2 b93b
000003f0: 559b 5ebd 90de 05be ba29 d0bd fd0c 07bc
-0.100446895 -0.103135094 0.039642613 -0.124640346 -0.04039579 -0.05447095 -0.056511547 0.11694401
-0.113242015 0.009522794 0.1461734 0.012317361 0.08658921 -0.14421664 0.088469535 0.06929163
0.013619167 -0.11011234 -0.09902909 -0.0020517171 -0.023751907 0.06732529 0.07160502 -0.028212378
0.11211559 0.017623333 -0.11335588 -0.087705165 0.19276215 0.021558957 0.027712215 0.010578061
-0.26937914 0.07543103 0.012469656 0.07559932 -0.06601375 0.006769571 -0.39244476 0.04486114
-0.027172701 -0.047461085 -0.23813926 0.14772776 0.13304508 -0.03178474 -0.19222519 0.022295041
0.024550134 0.06853655 -0.23937152 0.048891973 0.056617256 -0.08453455 0.008497108 0.09438038
-0.18883765 0.055888206 -0.006612851 0.072745696 -0.0051436946 0.06670898 -0.061842676 0.15043259
0.21293901 -0.19671091 -0.1743336 -0.031723753 -0.101961546 -0.101117626 0.10830964 0.037988298
0.19669351 0.053677414 0.1904284 0.22571652 -0.06007695 0.07240712 -0.10276386 -0.17123061
-0.004405659 -0.010885498 0.083791435 0.056946695 -0.101663284 -0.12493116 0.05815586 -0.10115728
0.088717215 -0.09377078 0.07100996 0.007153084 0.037381537 0.055160273 -0.05007179 -0.06684039
-0.116744705 0.13031766 -0.038799386 -0.12875675 -0.32330486 -0.109215975 -0.025787828 0.20447536
-0.11220609 -0.068792544 -0.0063201915 -0.16493689 -0.024183339 -0.20188817 -0.016654395 -0.15055369
0.22263527 -0.11610674 -0.071399614 0.026682029 -0.06346627 -0.021539751 -0.11280745 0.27503967
-6.8149086e-05 0.12974165 -0.107041776 -0.055597626 0.019996218 0.1307242 -0.052710574 0.07540333
-0.14277166 -0.08838912 -0.063907884 0.016224068 -0.09030605 0.08628638 0.11565151 0.1272386
-0.21992381 -0.08478594 -0.16604231 -0.010479592 -0.04896161 -0.005607221 -0.13287531 -0.040503208
0.112526186 0.1433891 -0.22002701 0.03630438 -0.066951714 -0.0062582707 0.0781527 0.04189586
0.1151353 0.052991234 -0.03812254 -0.034359343 0.0060891565 -0.020677567 -0.11295477 -0.038799338
-0.05338092 -0.08066758 0.029988963 0.08679604 -0.033137392 -0.041572466 -0.053997215 0.00024356444
-0.013691092 -0.020561913 -0.09116691 -0.23273705 -0.06092834 0.08537131 -0.026476875 -0.07787513
-0.050351366 -0.054777093 -0.077785276 0.108222656 0.012210401 -0.059092022 -0.16798863 0.047468215
0.06720492 0.116965234 0.03822329 0.0059413477 -0.12804663 0.06248848 -0.092084296 -0.09792381
-0.20816945 0.04900261 0.0600901 0.03550408 -0.079747856 -0.10771097 0.079304405 0.00836372
0.16112797 -0.094618656 0.021650415 0.068399675 -0.17039815 -0.12713575 -0.00011176882 0.04785531
-0.1352355 0.12137276 0.1003865 -0.0074479096 0.07551622 -0.11874304 0.15025167 -0.033233356
0.057977576 -0.15374376 -0.24191031 0.01174119 -0.19314931 -0.13422748 0.120100066 0.058116898
0.12991749 -0.09542158 -0.070754424 -0.06527623 0.06595545 -0.15100344 -0.11758181 0.08035671
0.04516024 0.14627397 -0.24835579 -0.00878465 -0.16912548 -0.1592581 -0.48316127 0.05288337
-0.014979653 -0.032792307 0.20757288 -0.024336701 -0.060212016 -0.10279396 -0.11163552 0.23702963
0.03837015 -0.034636028 0.008425584 0.0056708516 -0.054347355 -0.13073182 -0.10164209 -0.008242843

l4.bias f4 [256]
00000000: e1f7 41bc e1d7 9cbb ecdc e83d 6377 04bc
00000010: 1bba 30bd 93e1 3c3b 1248 03bc 240c 92bd
00000020: b05c bdbd f19e 11bd de79 343c ad05 8f3d
00000030: 2687 03bd 7df6 bfbd 1dca e53c 69f5 79bc
00000040: e69a 02be 2edd 7abd 74cc 2e3b 82d9 53bc
00000050: 647f 8c3c ed67 623d 96d7 8b3c a211 e6bd
00000060: 75f7 e23d e93a 963a 5b4a 5b3c 5294 bdbd
00000070: 6466 1cbd eb34 b43d e395 e43d 0c22 18bc
00000080: 5ee0 1cbd e165 ae3d cd29 62bd 7388 10bd
00000090: 24f0 5f3d 1da3 90bd 99e7 c9bd a81e ac3d
000000a0: 1484 77bd 5bed a5bd 47cb 6ebd 6b30 dc3d
000000b0: 1de5 88bc 326b c4bd 824a 863d 4c5b 313d
000000c0: aca0 1ebd 6227 60bc 0054 9a3c 9fd7 b83c
000000d0: a4d4 b13d 0372 69bd 785a 4c3c 61c7 d53c
000000e0: 5e7f e33b a976 e7bd f3dc dcbc e6c0 83bd
000000f0: 373b 59bb ceda cbbd b1dc 03bd dc7b fbbc
00000100: 4915 03bd 06c4 10bd 75c4 983c 48c8 0c3d
00000110: b1a7 dbbb 7c33 0bbe b131 afbd 43fc 27bc
00000120: e219 a53d 4149 39bc 4ce0 d0bd e87a 7bbd
00000130: 01ca 7cbd 18ef cbbd 4552 c1bd a4de db3d
00000140: 1d86 293c 6e12 8f3c b4f6 d1bd a3b7 e5bc
00000150: 38e8 bf3d 85d5 5cbd 7767 423d fc1b 36bc
00000160: 44f5 85bd 0a88 a5bd 044a 6b3d 9bba 243d
00000170: ac94 eabd 9b69 0dbd df33 f03d 08c0 ecbd
00000180: 007c 5a3b 1af6 703d b575 3dbd c756 003d
00000190: bf1a 2abd 4e6a ad3c 6a05 a6bd 3f85 513d
000001a0: 3d9a d5bd 5026 9d3d 732e 8ebd ba19 bbbd
000001b0: 072f df3d 3689 d53d 6b0f 80bd 5236 89bd
000001c0: ceef d9bd a2c0 9e3d 2ec9 c1bd d8ac c83a
000001d0: 3da9 c2bd 8ff5 b8bd 4329 283d 7345 f9bc
000001e0: 2769 fabd ee0d e03c 90aa a5bd f731 523d
000001f0: 7ca5 a53c d008 623d e043 d2bd d8c3 05bd
00000200: c161 80bd fff0 9fbc 6817 c1bc 4d3a e13c
00000210: 2758 ac3d 42a5 cebd 2a21 a5bd 07c9 643d
00000220: 2e46 a53c 90d9 c93d e8db 38bd 49cc 293d
00000230: 1331 6dbc edea b73d 5dd9 e0bc e51f 14bd
00000240: 370c b9bd c565 4ebd 8d92 a03d 24f9 26bc
00000250: a39f a3bd f8b7 d9bd 44af 09bc 9f7b 36bd
00000260: b9d4 933d 831f 08bc e492 183c 05c7 b7bc
00000270: 3d4a ce3d 7cf5 e7bd 1a2e 98bd 680a 003e
00000280: 7328 b4bc 020b 4a3d 6392 cbbd b5d7 d83d
00000290: 3309 d2bd 9da3 55bd 5147 67bd f88e 603b
000002a0: 8aef 0bbd 2943 b23d b325 283d 382e 50bc
000002b0: a8e6 be3d 99e8 86bd f82f c63d 5736 91bd
000002c0: 2667 533d 59c1 cbbd e31c e5bd 8d19 6fbd
000002d0: acc7 ebbc b375 873b 38de 05be ba53 953d
000002e0: 7d6f 1fbd e36c 9abd 7514 aa3d 37d4 383d
000002f0: f124 3abd e698 b63d 1cb0 043d b222 bebd
00000300: 8f5c fcbd 5fb2 f83b 976a 703d e705 cabd
00000310: 5035 55ba c9a3 de3d 6aec 21bd 3449 acbd
00000320: 3014 763d 7607 a539 fc5a e8bc bd02 44bd
00000330: e2f6 6cbd 9c08 cc3b 58bc 013d 9b7f d7bd
00000340: 18a4 45bd 6a65 e53d af1e dbbd bdd2 bbbc
00000350: e68b b0bd 1c2e bbbd e57f bf3b e3a6 88bc
00000360: 1b5b f13c f007 0e3e 4c4f c7bc 8888 82bc
00000370: bd81 5d3d e4a4 8fbd d6c5 07be 26b4 d93c
00000380: 13c7 a8bd 48f0 0a3b 65e6 6f3b 4d3a 483d
00000390: 8218 363d 68ae a63c 9dea a2bd a9c8 813d
000003a0: dc3d 5ebd ea55 bcbc 271c 0dbd 2b95 49bd
000003b0: f188 243d d72f b6bc c57d 283c 3ed4 eb3c
000003c0: de1b fe3b c37f 86bb 6d25 1a3d 2a1a c23c
000003d0: 8a76 5abd 63cf f5bc 4712 97bd b44f ac3d
000003e0: 52f5 c6bd e14b 453d 8edb 21bd 0fc7 98bc
000003f0: 38a5 61bd 2668 c23d a96f 37bd 9abe 45bd
-0.011838884 -0.004786477 0.113702625 -0.008085105 -0.043146234 0.0028820976 -0.008012788 -0.07131222
-0.09246194 -0.03555197 0.0110153835 0.069835044 -0.03211131 -0.09373186 0.028050477 -0.015256264
-0.12754402 -0.06124609 0.0026672157 -0.012930276 0.017150588 0.055274893 0.017070573 -0.11233832
0.11082355 0.0011461648 0.013384427 -0.092568055 -0.038183585 0.08799156 0.11161401 -0.009285461
-0.03829991 0.085155256 -0.055215646 -0.035286378 0.054672375 -0.070623614 -0.09858627 0.08404285
-0.060428694 -0.081019126 -0.05829933 0.107514225 -0.016710812 -0.095907584 0.0655718 0.043299958
-0.038727447 -0.013681265 0.018838882 0.022563754 0.08683136 -0.056993496 0.012472741 0.026096048
0.0069426736 -0.113019295 -0.026960826 -0.06433277 -0.0033146867 -0.09953843 -0.03219289 -0.03069871
-0.03200272 -0.035343193 0.018648366 0.03437069 -0.00670334 -0.13593858 -0.085544 -0.010253015
0.080615774 -0.011308969 -0.10199031 -0.06139651 -0.061716083 -0.09957713 -0.0943952 0.10735825
0.0103469165 0.017464843 -0.10252133 -0.028041666 0.09370464 -0.053914566 0.047461953 -0.01111507
-0.06540921 -0.08082588 0.057443634 0.040217023 -0.11454138 -0.03452454 0.117286436 -0.115600646
0.003333807 0.05882845 -0.046254832 0.031332757 -0.041529413 0.021168854 -0.081065014 0.051152464
-0.10429809 0.07673323 -0.06942453 -0.09135766 0.10897642 0.104265615 -0.06252941 -0.06699814
-0.10641442 0.077515855 -0.094622 0.00153103 -0.09504936 -0.090312116 0.041054975 -0.030428624
-0.122270875 0.027350392 -0.08089173 0.05131718 0.02022051 0.055184186 -0.102668524 -0.032657474
-0.06268645 -0.019524096 -0.023570731 0.02749362 0.08415251 -0.10090114 -0.08062966 0.055855777
0.020175066 0.0985595 -0.045131594 0.041454587 -0.014477032 0.089803554 -0.027447397 -0.03616323
-0.09035533 -0.050390024 0.07840452 -0.010191236 -0.07989433 -0.106307924 -0.008403603 -0.044551488
0.07218308 -0.008308294 0.009312365 -0.022433767 0.100727536 -0.11326119 -0.07430668 0.1250397
-0.021991944 0.049326904 -0.099400304 0.10588018 -0.10255661 -0.052157987 -0.056464497 0.0034264904
-0.03416399 0.08704216 0.041051578 -0.012706332 0.09321338 -0.06587333 0.09677118 -0.07090443
0.051612042 -0.099489875 -0.1118715 -0.058373976 -0.028781734 0.004133904 -0.13073051 0.0729136
-0.038924683 -0.075403 0.08304683 0.04512426 -0.045445386 0.08915882 0.032394513 -0.09283961
-0.12322342 0.007589623 0.058695402 -0.09864407 -0.00081332494 0.10871083 -0.039532103 -0.084124
0.060077846 0.0003147681 -0.028363697 -0.047854174 -0.057852633 0.0062266123 0.03167376 -0.10522386
-0.048252195 0.11200984 -0.10699212 -0.022927636 -0.086204335 -0.09139654 0.0058441036 -0.01668114
0.029462388 0.13870215 -0.024329804 -0.015934244 0.054078806 -0.07013872 -0.13259062 0.02657516
-0.082410954 0.0021200348 0.0036605832 0.048883725 0.044456966 0.020346835 -0.07954905 0.06337101
-0.054258212 -0.022990186 -0.034450676 -0.049214523 0.04016966 -0.022239609 0.010283892 0.028787728
0.007754787 -0.004104586 0.03763335 0.023694117 -0.053335704 -0.030006116 -0.07376533 0.0841364
-0.0971476 0.048168067 -0.039516024 -0.018649606 -0.055089206 0.09492521 -0.04478422 -0.048277475
