SAC/models/racetrack_actor.pth (torch, 343264 bytes, 6 tensors)

l1.weight f4 [256, 72]
0.06072435 -0.052016925 -0.022846796 0.074108705 -0.18067674 0.16046803 -0.02424496 0.05995604
0.016383309 -0.049616635 0.021249842 0.006167344 -0.033392508 -0.11565383 -0.051992092 -0.06455788
-0.023451848 -0.0068561123 0.10302154 0.03667411 -0.043888498 -0.08986716 -0.019753695 0.04734896
-0.03776522 0.005642901 0.070254326 0.06405641 -0.115205474 0.07305833 0.051278114 0.11178833
0.037235457 -0.10737861 -0.11205385 -0.056843385 0.103486456 -0.019630345 0.050435506 -0.073526725
0.115637645 -0.10629525 0.08837948 0.0013955524 -0.06208603 0.06057723 -0.06255775 0.03466057
-0.052801482 -0.012920538 -0.06358613 -0.056189265 0.06395003 -0.028646933 0.117385566 0.0944681
-0.0055182166 -0.09745354 0.05087616 0.13802494 -0.0761813 0.07654957 0.071547635 0.10452157
-0.066062585 -0.019399 0.016507255 0.010993142 -0.17226708 -0.0836298 0.06411155 -0.02763514
0.21504448 0.10365159 0.01129888 -0.20343077 0.0021377704 0.46053737 -0.25891933 0.03990368
-0.10143842 -0.07647311 -0.32160273 -0.62386906 0.17829385 -0.10896428 -0.2735945 -0.29140538
-0.0008027336 0.30136308 -0.21669847 -0.3073884 -0.0116116265 0.3006192 -0.07890824 0.3903641
0.18440382 0.01733427 -0.07080935 -0.15391473 -0.033115625 -0.004177751 -0.044065572 0.051029917
-0.25181916 -0.24082445 0.06674149 -0.0007849832 0.09201746 -0.16187401 -0.074037604 0.002573524
0.11174817 -0.25494978 -0.0100563355 0.030735936 0.06008538 0.25186047 0.04496487 -0.14311159
-0.2683513 0.014805444 0.59612525 -0.19551969 -0.034599762 -0.07909211 -0.2718608 -0.16546796
0.07185301 0.33403575 -0.12434764 -0.30064845 0.25027826 0.11252428 0.09718249 0.078166455
-0.051272728 0.05489636 -0.0077926097 -0.37173864 -0.39075902 0.010508035 -0.16194008 0.05397914
0.004710793 -0.026685657 -0.05917145 -0.03333455 0.0036129903 0.051390514 -0.035759088 -0.015242862
0.01257416 -0.32846302 -0.44506395 -0.81169915 -0.043425683 -0.1187478 0.18356429 -0.10182547
0.081840664 0.2230132 0.069442265 0.07633108 -0.16699536 0.09089732 -0.042903777 -0.055739816
-0.09900501 -0.053105697 -0.009896775 0.08210937 0.021530155 0.13460603 0.15068024 0.11486095
0.120159976 0.004088822 -0.22729559 0.11829538 0.002290225 -0.009527717 0.0046790782 0.057228636
-0.076012544 0.06865827 -0.11425867 -0.054553837 -0.030197632 -0.09547087 0.042168513 0.063200094
-0.14353502 0.0066748103 0.14510728 0.0022451829 0.06398024 0.101910524 0.14704345 -0.08248765
-0.076920986 -0.010621163 0.48513186 -0.10794868 0.060714725 0.014142145 0.017020069 0.028000548
0.020034041 0.15893178 -0.027227376 -0.013078871 -0.11814973 0.081313066 0.062887065 0.07121778
0.048327297 -0.08504508 -0.08845058 0.06573047 -0.16593236 0.08257746 -0.09268945 -0.08301534
0.057614826 -0.046972025 -0.09176007 -0.024422763 0.042343874 0.035288047 -0.11791978 -0.09749237
0.09108183 -0.060029805 -0.005451859 0.02872902 -0.12675601 0.11505502 0.07386116 -0.11745352
-0.096799664 -0.010323336 0.049500477 0.03772338 -0.059759665 0.04696353 -0.07959028 -0.08329258
-0.05533586 0.09705398 0.10388646 -0.040030107 -0.01737759 0.052559003 -0.030603355 -0.021011576
00000000: 19ba 783d b30f 55bd 3429 bbbc 4ec6 973d
00000010: 5303 39be bb51 243e 5e9d c6bc 7794 753d
00000020: 4a36 863c d03a 4bbd 2614 ae3c 6e17 ca3b
00000030: 95c6 08bd eadb ecbd a9f5 54bd ec36 84bd
00000040: 171e c0bc 3da9 e0bb f5fc d23d 9737 163d
00000050: 6dc4 33bd 460c b8bd 80d2 a1bc fcf0 413d
00000060: b4af 1abd 16e8 b83b 80e1 8f3d 0230 833d
00000070: d9f0 ebbd 9b9f 953d 0009 523d 48f1 e43d
00000080: 3584 183d 51e9 dbbd 7d7c e5bd 9cd4 68bd
00000090: b5f0 d33d d1cf a0bc 7695 4e3d 2e95 96bd
000000a0: 6ed3 ec3d 53b1 d9bd 4d00 b53d f8ea b63a
000000b0: ec4d 7ebd d41f 783d 471e 80bd 3ef8 0d3d
000000c0: 5e46 58bd aab0 53bc 7239 82bd b726 66bd
000000d0: 3cf8 823d f9ac eabc d867 f03d 7e78 c13d
000000e0: 28d2 b4bb b995 c7bd 8563 503d 6956 0d3e
000000f0: f104 9cbd 05c6 9c3d 9187 923d 680f d63d
00000100: d24b 87bd a7ea 9ebc 393a 873c 941c 343c
00000110: c866 30be 1a46 abbd eb4c 833d 1763 e2bc
00000120: 9f34 5c3e 4947 d43d f01e 393c 2850 50be
00000130: d619 0c3b 8ecb eb3e 1391 84be 0b72 233d
00000140: f2be cfbd ef9d 9cbd 1da9 a4be e2b5 1fbf
00000150: aa92 363e aa28 dfbd 9414 8cbe 1633 95be
00000160: 8a6e 52ba 434c 9a3e 34e6 5dbe 0362 9dbe
00000170: b13e 3ebc c3ea 993e a59a a1bd cedd c73e
00000180: 5bd4 3c3e 9900 8e3c 7e04 91bd d39b 1dbe
00000190: 40a4 07bd 84e5 88bb 1a7e 34bd bf04 513d
000001a0: 71ee 80be af9a 76be c3af 883d 55c7 4dba
000001b0: a673 bc3d 4dc2 25be 07a1 97bd 91a8 283b
000001c0: 39dc e43d c788 82be 54c3 24bc eec9 fb3c
000001d0: 161c 763d dbf3 803e 152d 383d d88b 12be
000001e0: 5765 89be 8892 723c aa9b 183f 5036 48be
000001f0: 7bb8 0dbd 0bfb a1bd 5731 8bbe 6f70 29be
00000200: ac27 933d bc06 ab3e faa9 febd 98ee 99be
00000210: 7924 803e 2173 e63d 9d07 c73d bc15 a03d
00000220: 5a03 52bd 01db 603d 2659 ffbb 8754 bebe
00000230: 9111 c8be e529 2c3c 9fd3 25be 3b19 5d3d
00000240: ff5c 9a3b e19b dabc c35d 72bd cf89 08bd
00000250: ebc7 6c3b dc7e 523d 1f78 12bd 32bd 79bc
00000260: d903 4e3c 4e2c a8be 6cdf e3be 84cb 4fbf
00000270: 21df 31bd 0c32 f3bd 47f8 3b3e df89 d0bd
00000280: 149c a73d 935d 643e bf37 8e3d 7853 9c3d
00000290: d500 2bbe 6028 ba3d dfbb 2fbd 6f4f 64bd
000002a0: 24c3 cabd 5c85 59bd 1526 22bc f528 a83d
000002b0: 0260 b03c 2ad6 093e ec4b 1a3e 383c eb3d
000002c0: 6f16 f63d 86fb 853b 2dc0 68be d944 f23d
000002d0: 9917 163b 241a 1cbc f452 993b 9368 6a3d
000002e0: 77ac 9bbd b59c 8c3d 7300 eabd d873 5fbd
000002f0: 0661 f7bc 3b86 c3bd e4b8 2c3d 0d6f 813d
00000300: d8fa 12be 5eb8 da3b 0197 143e eb23 133b
00000310: 1208 833d 77b6 d03d 8f92 163e 49ef a8bd
00000320: c088 9dbd 6304 2ebc 3463 f83e 3314 ddbd
00000330: 01b0 783d 75b4 673c ac6d 8b3c 6861 e53c
00000340: 6e1e a43c 03bf 223e f20b dfbc c348 56bc
00000350: 7cf8 f1bd 7787 a63d efca 803d a1da 913d
00000360: d8f2 453d 1d2c aebd 9425 b5bd b29d 863d
00000370: 2cea 29be 5f1e a93d f7d3 bdbd f203 aabd
00000380: 86fd 6b3d bd65 40bd b4ec bbbd 3f12 c8bc
00000390: c570 2d3d 338a 103d ed7f f1bd 14aa c7bd
000003a0: 1c89 ba3d d0e1 75bd 82a5 b2bb 1f59 eb3c
000003b0: 54cc 01be f7a1 eb3d 8544 973d 798b f0bd
000003c0: e73e c6bd 3623 29bc 03c1 4a3d d583 1a3d
000003d0: 8dc6 74bd d55c 403d 3b00 a3bd 4d95 aabd
000003e0: dba7 62bd 3dc4 c63d 6dc2 d43d 9cf6 23bd
000003f0: 735b 8ebc 1c48 573d e3b3 fabc 7820 acbc

l1.bias f4 [256]
-0.12316187 -0.0072177835 -0.034679208 -0.19399971 -0.15734243 0.0019725843 -0.15453827 -0.13452412
-0.14603126 0.043439943 -0.15902717 -0.012361098 -0.07282737 -0.07258616 -0.07153062 -0.1153485
-0.036005303 -0.13244951 -0.11559329 0.045872565 -0.12716803 -0.039068226 -0.038300455 -0.054481674
-0.038489684 -0.045590956 -0.0014746636 -0.17363085 -0.10071821 -0.063526444 -0.0021157954 -0.07024158
-0.2014721 -0.10146886 -0.016828224 0.032996833 -0.23628621 -0.023094777 -0.18094118 -0.07968306
-0.12580898 0.061238304 -0.0506179 -0.13787599 0.06840754 -0.03434785 -0.026974596 -0.08965185
-0.0128968265 -0.14058436 -0.062570535 0.10413657 -0.0014602623 0.06129423 -0.22122803 -0.111269206
-0.070193 -0.049803764 -0.12526715 0.038738705 0.11665982 -0.03224965 0.015323671 -0.2052365
-0.04296438 0.02996236 -0.053054996 0.056180723 -0.16430973 0.048955306 0.009266746 -0.13059074
-0.10645896 -0.11299033 0.01464635 -0.03384242 -0.106792346 -0.13672557 -0.051847704 0.024571622
-0.0017778086 -0.084606215 -0.17459999 -0.10102381 -0.14450501 -0.025642864 -0.12828359 0.101437114
-0.09788423 -0.017587082 0.07737612 -0.20545188 -0.076327786 0.0642982 -0.008656775 0.1141587
-0.11107749 0.029090617 -0.14665167 0.06379072 -0.107983716 -0.03821847 -0.053071454 -0.1543992
0.0051814998 -0.05122544 -0.050292354 -0.10870615 0.11065809 -0.1453754 -0.079902306 -0.0853253
-0.018540157 -0.09588673 -0.10519808 -0.0066108713 -0.049015105 -0.025552101 0.057798672 -0.17870842
-0.15511778 -0.067035496 -0.13997725 -0.11561148 -0.057969376 -0.111569084 0.014947314 -0.074229985
-0.082431115 -0.14868355 0.004192836 -0.16795583 0.057564598 -0.16476338 -0.117591225 0.019101143
0.045024324 -0.052424625 -0.016040195 0.004562323 -0.058144324 -0.13816237 0.06352927 -0.067934915
-0.025057724 -0.051080316 -0.13646784 -0.123113714 -0.030045133 -0.05421625 -0.07898964 -0.19053891
-0.09916807 -0.03747228 -0.124568574 -0.2090061 -0.013229628 -0.040310364 -0.00010734771 -0.06413349
0.024893822 -0.07969894 -0.17571068 -0.113715276 -0.04684218 0.039209235 -0.06936568 -0.06298963
-0.089895025 -0.04932313 -0.021362029 0.012657544 -0.09997344 -0.15695053 0.046177324 0.0991071
-0.12205042 0.117768064 -0.10555697 -0.09806569 -0.06317113 -0.016590293 -0.04683435 -0.062194873
-0.1006672 -0.13871239 0.032787856 0.008741892 -0.12233509 -0.0065432163 -0.06502264 -0.10237327
0.0008169599 -0.14210227 -0.024622422 -0.17695497 -0.02311694 0.005294013 -0.057561446 -0.107554354
-0.08897975 -0.19351014 0.01567608 -0.019451741 -0.12437652 -0.17447546 -0.105895415 -0.20185596
-0.074655846 0.017498985 -0.002329508 -0.07917817 -0.07708864 -0.016638631 -0.063901186 -0.11392149
-0.13820982 0.012496308 -0.18867387 -0.14139502 -0.12748961 0.10837409 0.010606798 -0.18428503
-0.080705814 -0.044522494 -0.036122665 -0.10875778 -0.120443195 0.110884175 0.040193576 -0.08186296
-0.13155018 -0.05077962 -0.0108565 0.055396058 -0.061169464 -0.16798052 -0.0059806444 -0.006768707
-0.09317122 0.02379514 -0.004358002 -0.13235311 -0.1867838 0.05228948 -0.08123308 -0.1181169
-0.21382484 -0.06110943 -0.114548646 -0.0009533407 -0.19900312 -0.094988085 -0.058294624 -0.14740486
00000000: 4a3c fcbd 2883 ecbb c90b 0ebd dca7 46be
00000010: 601e 21be 7946 013b 483f 1ebe b1c0 09be
00000020: 3889 15be 15ee 313d 05d8 22be 3486 4abc
00000030: 8426 95bd 0da8 94bd a57e 92bd d63b ecbd
00000040: 4c7a 13bd d8a0 07be 2dbc ecbd dfe4 3b3d
00000050: 5638 02be 0106 20bd f0e0 1cbd 2d28 5fbd
00000060: 5ca7 1dbd 95bd 3abd 8049 c1ba 49cc 31be
00000070: 5945 cebd 271a 82bd 28a9 0abb d1da 8fbd
00000080: b44e 4ebe e8ce cfbd 58db 89bc b027 073d
00000090: 03f5 71be 4231 bdbc a548 39be df30 a3bd
000000a0: 12d4 00be 04d5 7a3d b754 4fbd 5d2f 0dbe
000000b0: 4119 8c3d 55b0 0cbd d4f9 dcbc 649b b7bd
000000c0: 364d 53bc 59f5 0fbe fb24 80bd 8e45 d53d
000000d0: 4666 bfba a90f 7b3d 9a89 62be 1ce1 e3bd
000000e0: 59c1 8fbd 08ff 4bbd 0846 00be 7aac 1e3d
000000f0: 58eb ee3d 3618 04bd 2210 7b3c 8429 52be
00000100: 6bfb 2fbd a073 f53c 3250 59bd c21d 663d
00000110: cf40 28be 5c85 483d 8dd3 173c 94b9 05be
00000120: 2807 dabd 7967 e7bd 3ff7 6f3c 599e 0abd
00000130: f2b5 dabd ca01 0cbe 425e 54bd 6d4a c93c
00000140: 5c05 e9ba 0646 adbd 57ca 32be 92e5 cebd
00000150: 1ff9 13be fc10 d2bc c65c 03be 43be cf3d
00000160: 8777 c8bd c912 90bc 5f77 9e3d fa61 52be
00000170: be51 9cbd c6ae 833d 25d5 0dbc 09cc e93d
00000180: 987c e3bd 724f ee3c db2b 16be b6a4 823d
00000190: 9126 ddbd f88a 1cbd 7461 59bd d31a 1ebe
000001a0: 92c9 a93b c4d1 51bd 5bff 4dbd 54a1 debd
000001b0: b5a0 e23d 4add 14be d2a3 a3bd 08bf aebd
000001c0: 87e1 97bc 4360 c4bd 1772 d7bd 02a0 d8bb
000001d0: 10c4 48bd a452 d1bc 4dbe 6c3d 57ff 36be
000001e0: 32d7 1ebe e849 89bd 3256 0fbe b6c5 ecbd
000001f0: 4c71 6dbd 557e e4bd 94e5 743c e405 98bd
00000200: a5d1 a8bd 8040 18be 0f64 893b 9dfc 2bbe
00000210: dbc8 6b3d bbb7 28be abd3 f0bd 007a 9c3c
00000220: 6d6b 383d 34bb 56bd ba66 83bc 8a7f 953b
00000230: be28 6ebd 707a 0dbe a21b 823d 7621 8bbd
00000240: db45 cdbc 9839 51bd 3abe 0bbe 0b23 fcbd
00000250: 3621 f6bc dc11 5ebd 52c5 a1bd a21c 43be
00000260: a118 cbbd 897c 19bd cf1d ffbd b205 56be
00000270: 15c1 58bc 7b1c 25bd dd1f e1b8 6b58 83bd
00000280: 21ee cb3c 3339 a3bd 80ed 33be 8ee3 e8bd
00000290: 96dd 3fbd dd99 203d 980f 8ebd b500 81bd
000002a0: e21a b8bd 0d07 4abd 6cff aebc 9661 4f3c
000002b0: e0be ccbd a4b7 20be 6f24 3d3d aaf8 ca3d
000002c0: 92f5 f9bd 6230 f13d 412e d8bd aad6 c8bd
000002d0: de5f 81bd 5ee8 87bc 60d5 3fbd 0dc0 7ebd
000002e0: 9b2a cebd 9f0a 0ebe 8f4c 063d 273a 0f3c
000002f0: d28a fabd 7a68 d6bb 972a 85bd 14a9 d1bd
00000300: 4029 563a 4283 11be f6b4 c9bc af33 35be
00000310: bd5f bdbc 6679 ad3b 8dc5 6bbd 7545 dcbd
00000320: 043b b6bd 8627 46be 1f6b 803c 4259 9fbc
00000330: 1eb9 febd b2a9 32be b2df d8bd 54b3 4ebe
00000340: 2ae5 98bd 085a 8f3c a9aa 18bb 2a28 a2bd
00000350: a6e0 9dbd bd4d 88bc a0de 82bd ac4f e9bd
00000360: e086 0dbe 51bd 4c3c b933 41be dbc9 10be
00000370: a38c 02be 3cf3 dd3d 23c8 2d3c 37b5 3cbe
00000380: 1749 a5bd 385d 36bd 5cf5 13bd 66bc debd
00000390: ecaa f6bd 3e17 e33d 05a2 243d c4a7 a7bd
000003a0: 17b5 06be 4afe 4fbd 76df 31bc fae6 623d
000003b0: d58c 7abd 1603 2cbe 48f9 c3bb 08cc ddbb
000003c0: 8dd0 bebd 07ee c23c 92cd 8ebb 9387 07be
000003d0: 4144 3fbe 7e2d 563d 875d a6bd 46e7 f1bd
000003e0: e6f4 5abe e24d 7abd 7b98 eabd 9de9 79ba
000003f0: 79c7 4bbe 1d89 c2bd 58c6 6ebd 4df1 16be

l2.weight f4 [256, 256]
0.05631877 -0.047376376 -0.22290048 0.1450397 0.08039 -0.71481633 0.09094056 -0.049082786
-0.018524745 -0.120102495 -0.043106247 0.2230348 0.025749324 -0.09672656 -0.14938052 0.10120294
-0.18275717 0.047873028 -0.062377844 0.009307904 0.0006659679 0.09701813 0.11903699 0.0728
-0.0032838583 0.067475304 0.012609383 -0.028336449 -0.023377998 -0.20862266 0.122667804 -0.042923912
0.2005294 0.03830241 0.111096285 -0.007300717 0.1005134 0.0529481 -0.0057841344 0.08788804
0.101371914 0.1116985 -0.086610235 0.033091903 -0.032080777 0.028633706 -0.010046817 -0.049146507
0.011013379 0.07916952 -0.05287389 0.18829387 0.13703299 0.058284234 -0.11522774 0.044700436
0.18336661 0.09292137 0.051738244 -0.30643994 0.1689788 -0.001871556 0.14871202 0.025047516
-0.055919692 -0.4041665 -0.28410012 -0.08263917 -0.019437093 -0.042687126 -0.10709936 0.2513538
0.11632813 -0.038572755 -0.53751266 -0.0065079895 -0.04957884 -0.054889105 -0.15649071 -0.2930405
0.2152093 -0.27214462 -0.09056636 -0.06332355 0.032171756 -0.038047645 -0.12580198 0.14310898
-0.20574102 -0.23905303 -0.4963549 -0.18951665 -0.07867057 -0.05524052 0.09432318 -0.16218306
-0.032058205 0.112498 0.010162004 -0.14863452 0.06658517 -0.032930434 0.054568943 0.13754258
-0.4954105 -0.050294764 -0.033041127 0.11074659 -0.1506545 -0.01524336 -0.028782457 -0.040009215
0.13468064 -0.112898074 -0.11914446 -0.011227912 -0.13755925 0.009716451 0.093976974 -0.11358695
0.5070723 0.0049238657 0.1856435 -0.018522248 0.4416697 0.004571912 -0.038954496 -0.07211034
0.1466251 0.03386605 0.054165475 -0.16938712 0.06978998 -0.4951687 0.055714697 0.05306558
0.030275328 -0.061246086 -0.026142348 -0.058485795 0.060085002 0.032403104 -0.4537599 -0.013786875
0.07240471 0.27548394 0.26616868 -0.09799368 -0.35511315 -0.36461678 -0.13483167 -0.1883508
0.2590039 -0.56414783 -0.031724866 -0.1874659 0.004337413 0.19922401 -0.035220087 -0.18187818
-0.24922779 0.029264133 0.0060256384 0.03986944 -0.28899735 -0.07695957 0.69255865 -0.13029976
-0.001769051 -0.015569458 0.13882078 -0.03514156 -0.1419076 -0.07732612 0.10995872 0.112458155
-0.056114115 0.1005767 -0.23341954 -0.044296835 -0.029650217 -0.12420539 0.22057061 0.23056948
0.00074646017 -0.24767463 -0.5615384 -0.047073524 -0.04226799 -0.14192358 -0.040817067 0.069943115
-0.0058334805 0.079734705 -0.14597405 -0.2900387 0.029149106 0.15022714 0.07793955 0.007711324
-0.028216224 -0.021526506 0.02185907 -0.023323003 -0.036486022 0.1113086 -0.19089304 0.09252023
0.09720803 -0.05484244 -0.17900608 -0.004965537 0.06148502 -0.09693757 0.02639882 0.02071693
0.01958186 -0.07841298 -0.07954312 0.026191533 0.034467164 -0.15661494 0.23235837 0.07365759
-0.09145757 -0.24076974 0.07907629 0.0888347 0.32604173 -0.014406482 0.16006432 0.004263882
-0.03985082 0.12757096 0.14515097 -0.4613397 0.027927585 0.2261186 0.5235498 0.048940755
0.04008711 -0.41886172 -0.064222336 0.07336441 0.035773072 -0.11217672 -0.1279908 -0.040260542
-0.038162988 0.30101538 0.09006107 -0.25673363 -0.18730864 -0.024039755 0.030188248 0.021919588
00000000: 83ae 663d bb0d 42bd 0640 64be 4a85 143e
00000010: 83a3 a43d 34fe 36bf 0b3f ba3d 080b 49bd
00000020: 35c1 97bc 4cf8 f5bd 2d90 30bd 3c63 643e
00000030: 3ff0 d23c 9318 c6bd 35f7 18be 7d43 cf3d
00000040: b224 3bbe 8216 443d e97f 7fbd 2e80 183c
00000050: 5994 2e3a 71b1 c63d aac9 f33d 2b18 953d
00000060: 0036 57bb 7e30 8a3d 9697 4e3c d721 e8bc
00000070: 3783 bfbc 2ea1 55be 4239 fb3d fcd0 2fbd
00000080: 9457 4d3e fde2 1c3d 7386 e33d da3a efbb
00000090: f8d9 cd3d 1be0 583d d688 bdbb a5fe b33d
000000a0: 149c cf3d 2fc2 e43d b560 b1bd 608b 073d
000000b0: 2267 03bd 3c91 ea3c 689b 24bc d94d 49bd
000000c0: 7671 343c a123 a23d 4b92 58bd 1cd0 403e
000000d0: 6052 0c3e 73bb 6e3d 85fc ebbd ce17 373d
000000e0: 75c4 3b3e 8f4d be3d 7beb 533d b2e5 9cbe
000000f0: c708 2d3e 004f f5ba f747 183e 7330 cd3c
00000100: 0c0c 65bd e9ee cebe 9275 91be ba3e a9bd
00000110: 8a3a 9fbc b2d8 2ebd e956 dbbd 72b1 803e
00000120: 713d ee3d 77fe 1dbd 6e9a 09bf f940 d5bb
00000130: 2f13 4bbd 66d3 60bd 1a3f 20be 6809 96be
00000140: d45f 5c3e 8a56 8bbe db7a b9bd c7af 81bd
00000150: 88c6 033d d9d7 1bbd 3cd2 00be 298b 123e
00000160: c6ad 52be 51ca 74be 3b22 febe a710 42be
00000170: 091e a1bd e243 62bd 832c c13d 5113 26be
00000180: 774f 03bd 5a65 e63d 897e 263c a633 18be
00000190: ce5d 883d 10e2 06bd af83 5f3d f6d7 0c3e
000001a0: 72a6 fdbe e201 4ebd 2256 07bd 1ccf e23d
000001b0: 2c45 1abe 49bf 79bc 30c9 ebbc b4e0 23bd
000001c0: b9e9 093e 1b37 e7bd 0302 f4bd 47f5 37bc
000001d0: 55dc 0cbe c031 1f3c 0077 c03d 46a0 e8bd
000001e0: 7ecf 013f 6158 a13b 5419 3e3e f8bb 97bc
000001f0: 8822 e23e facf 953b c08e 1fbd 96ae 93bd
00000200: e424 163e 21b7 0a3d 9edc 5d3d d173 2dbe
00000210: 0dee 8e3d c086 fdbe 1835 643d 4b5b 593d
00000220: f703 f83c 2ddd 7abd 7a28 d6bc cd8e 6fbd
00000230: b11b 763d 1eb9 043d 3853 e8be 58e2 61bc
00000240: ec48 943d 3b0c 8d3e 4347 883e e9b0 c8bd
00000250: 64d1 b5be 0daf babe 5011 0abe 08df 40be
00000260: 299c 843e fe6b 10bf eff1 01bd 10f7 3fbe
00000270: db20 8e3b 6101 4c3e f042 10bd 463e 3abe
00000280: 9235 7fbe 56bb ef3c b872 c53b 234e 233d
00000290: 76f7 93be fb9c 9dbd 864b 313f 4d6d 05be
000002a0: 80df e7ba 0a17 7fbc 0927 0e3e 99f0 0fbd
000002b0: 3a50 11be 285d 9ebd 0a32 e13d 7650 e63d
000002c0: ead7 65bd 28fb cd3d 8805 6fbe 9970 35bd
000002d0: 03e5 f2bc 655f febd 43dd 613e 681a 6c3e
000002e0: 18ae 433a 6b9e 7dbe fbc0 0fbf 2bd0 40bd
000002f0: 3321 2dbd 6a54 11be cc2f 27bd 563e 8f3d
00000300: c826 bfbb f34b a33d 397a 15be f47f 94be
00000310: 1bca ee3c 25d5 193e c59e 9f3d 46af fc3b
00000320: b625 e7bc 5b58 b0bc cb11 b33c e20f bfbc
00000330: 5e72 15bd c3f5 e33d 7779 43be 3f7b bd3d
00000340: 0115 c73d 77a2 60bd 5f4d 37be f2b5 a2bb
00000350: b7d7 7b3d 3487 c6bd 5742 d83c 8db6 a93c
00000360: 236a a03c fc96 a0bd 81e7 a2bd a08f d63c
00000370: 712d 0d3d ab5f 20be 5aef 6d3e cad9 963d
00000380: 1b4e bbbd 588c 76be c0f2 a13d f8ee b53d
00000390: f1ee a63e 2a09 6cbc e7e7 233e 09b8 8b3b
000003a0: 9d3a 23bd f6a1 023e 75a2 143e b834 ecbe
000003b0: 64c8 e43c a28b 673e 5c07 063f 1a76 483d
000003c0: 6232 243d 0b75 d6be 0087 83bd 1440 963d
000003d0: c986 123d e8bc e5bd 0510 03be 3de8 24bd
000003e0: cb50 1cbd b01e 9a3e f071 b83d 9772 83be
000003f0: d6cd 3fbe 05ef c4bc 584d f73c b590 b33c

l2.bias f4 [256]
-0.1916298 -0.06211593 -0.11819892 -0.028576009 -0.07703809 -0.06935439 -0.10924254 0.01706132
-0.10419042 -0.08638926 0.24939573 -0.08909051 -0.010042329 -0.015226241 0.16412106 -0.20729518
-0.16884401 -0.064787626 -0.078270935 -0.0051574046 0.17098008 0.030360706 0.13103172 -0.20002349
-0.007985759 -0.14066274 -0.101854675 -0.17176037 -0.03282083 -0.2914255 0.10600885 -0.08335419
-0.1630395 -0.027167832 -0.03696983 -0.006139035 -0.08284357 -0.05185202 -0.10301592 -0.02819185
0.12928225 -0.16767156 -0.067861564 -0.040255535 -0.056303043 -0.076574 -0.028184744 -0.17891507
0.24650516 0.059067003 -0.072817184 0.025800891 -0.08482032 -0.091611326 0.045342207 0.0022316612
0.16055597 -0.13866764 -0.037129395 0.08709423 -0.14248754 -0.14689842 -0.21095508 0.06883862
-0.014310389 -0.11046158 -0.024650287 -0.06738102 0.106454864 -0.08200384 0.02634278 0.13255325
0.0070714774 -0.053750064 0.021709174 0.017622016 -0.1761364 0.012290377 0.016767072 -0.10173771
-0.0539756 -0.07128775 -0.08857572 -0.07067797 -0.08767377 -0.04535504 -0.030922538 -0.041039966
-0.1382682 -0.035076447 -0.08080892 -0.0560131 0.07919192 0.024755638 -0.09368907 0.058830038
-0.06163481 -0.030705148 -0.083586514 0.12972024 -0.04526198 0.0049760374 -0.027757853 0.17551371
-0.14191285 -0.022569155 -0.046532832 -0.11129176 -0.07763106 -0.10517597 0.059909772 -0.18388146
-0.17433558 -0.04730397 -0.08677287 -0.0910857 0.0146903135 -0.0834666 -0.05067452 0.21755399
0.022317607 -0.078773566 -0.1748073 0.09798752 -0.15056247 -0.11693651 -0.02552259 -0.036731794
-0.08247467 -0.19620864 -0.12076698 -0.09200436 -0.118183374 -0.089350194 -0.061902598 -0.17535809
0.025897838 -0.08614254 -0.0064079445 0.14166039 -0.015371514 -0.114755765 0.05665434 -0.035665486
-0.025847033 0.24092744 -0.17274626 0.04843886 -0.056534745 -0.12187274 -0.07327097 -0.12175957
0.011244642 -0.02769647 -0.10453699 0.10283639 -0.23946618 -0.1029183 -0.09127567 -0.0029844085
-0.056219358 -0.039213095 -0.09674662 -0.097385645 -0.021244539 -0.10319238 -0.069524966 0.01528395
0.01201995 -0.13068019 -0.060873512 0.13168404 -0.08580877 -0.024394251 -0.067682974 -0.10058369
-0.12892257 0.017475327 -0.2757209 -0.057492808 -0.20048976 -0.03976124 -0.108382 -0.18445395
-0.1355091 -0.03902664 -0.030406833 0.031413455 -0.0027917381 -0.119768836 -0.05366229 -0.08694253
-0.08002042 -0.17516267 -0.043546837 -0.07814318 -0.0636262 0.14294335 -0.09387093 -0.013823217
-0.033615172 -0.1169351 0.028873777 -0.06922748 0.006209001 0.12048858 -0.037188064 -0.06233554
-0.12988603 0.122984126 -0.09110153 -0.023381576 -0.038917128 -0.2533363 -0.060801093 -0.06271372
-0.030327588 -0.046497516 -0.0011570854 -0.0038786703 -0.05895272 0.09566337 -0.11438937 -0.09112717
0.013087099 0.006112102 -0.09614404 -0.08185569 -0.130375 -0.054383013 -0.16525401 -0.036711443
-0.11222217 -0.09357544 -0.066771924 -0.095550664 -0.06226932 -0.014270899 -0.08653829 -0.060403667
-0.04556534 -0.099439085 0.097445 0.13976824 0.41668338 -0.2902115 0.055889204 -0.08847733
-0.13772619 0.24729766 -0.16084665 0.07615183 -0.031234274 0.104732305 -0.09933188 0.0073658866
00000000: 9a3a 44be 466d 7ebd 4612 f2bd 3c18 eabc
00000010: 25c6 9dbd ad09 8ebd 8eba dfbd 2ec4 8b3c
00000020: c961 d5bd daec b0bd 9861 7f3e 1675 b6bd
00000030: 9588 24bc 7c77 79bc 5a0f 283e 3045 54be
00000040: 72e5 2cbe 60af 84bd 834c a0bd 72ff a8bb
00000050: 6715 2f3e 04b7 f83c 2e2d 063e f5d2 4cbe
00000060: b3d6 02bc e509 10be 2f99 d0bd f3e1 2fbe
00000070: 226f 06bd b935 95be 2b1b d93d 9ab5 aabd
00000080: d4f3 26be 138f debc ad6d 17bd f529 c9bb
00000090: e4a9 a9bd c962 54bd 03fa d2bd 98f2 e6bc
000000a0: 9162 043e 18b2 2bbe 01fb 8abd fde2 24bd
000000b0: 059e 66bd d4d2 9cbd b1e3 e6bc 8335 37be
000000c0: d96b 7c3e 3ef0 713d 2d21 95bd 645c d33c
000000d0: 47b6 adbd b89e bbbd c0b8 393d 1041 123b
000000e0: c968 243e e4fe 0dbe fe14 18bd 765e b23d
000000f0: 41e8 11be 8a6c 16be 9c04 58be 43fb 8c3d
00000100: 1f76 6abc ae39 e2bd 66ef c9bc 0fff 89bd
00000110: 0205 da3d a1f1 a7bd d0cc d73c 0abc 073e
00000120: dab7 e73b 0729 5cbd 70d7 b13c 0c5c 903c
00000130: 1a5d 34be 945d 493c 195b 893c dc5b d0bd
00000140: 8515 5dbd 50ff 91bd 3067 b5bd 9dbf 90bd
00000150: 4e8e b3bd 35c6 39bd 4351 fdbc 8619 28bd
00000160: 2e96 0dbe 52ac 0fbd 267f a5bd fe6d 65bd
00000170: 602f a23d 56cc ca3c 0ee0 bfbd c4f7 703d
00000180: c874 7cbd 5d89 fbbc 682f abbd 62d5 043e
00000190: a064 39bd 070e a33b 7064 e3bc deb9 333e
000001a0: 9a51 11be f3e2 b8bc 3699 3ebd efec e3bd
000001b0: 08fd 9ebd 8066 d7bd f363 753d 6c4b 3cbe
000001c0: 0785 32be cfc1 41bd f9b5 b1bd 248b babd
000001d0: a4af 703c 89f0 aabd 1690 4fbd 79c6 5e3e
000001e0: 6ad3 b63c 0954 a1bd af00 33be aead c83d
000001f0: 0c2d 1abe 697c efbd c014 d1bc 1474 16bd
00000200: 7be8 a8bd ebea 48be ae54 f7bd c86c bcbd
00000210: 200a f2bd 3cfd b6bd 948d 7dbd 1291 33be
00000220: b427 d43c 806b b0bd bcf9 d1bb 6c0f 113e
00000230: cdd8 7bbc 1205 ebbd 620e 683d f915 12bd
00000240: 28bd d3bc afb5 763e 65e4 30be d367 463d
00000250: fa90 67bd 6a98 f9bd 170f 96bd 155d f9bd
00000260: 723b 383c b5e3 e2bc 7d17 d6bd e39b d23d
00000270: 9f36 75be d4c6 d2bd bdee babd 1196 43bb
00000280: 4546 66bd e99d 20bd 1823 c6bd 2072 c7bd
00000290: 0709 aebc 8756 d3bd 1b63 8ebd 8869 7a3c
000002a0: 53ef 443c 07d1 05be 8156 79bd 2ed8 063e
000002b0: 82bc afbd 74d6 c7bc 5f9d 8abd d2fe cdbd
000002c0: 4704 04be 6b28 8f3c 4a2b 8dbe 947d 6bbd
000002d0: 304d 4dbe afdc 22bd 62f7 ddbd 7fe1 3cbe
000002e0: e6c2 0abe 66da 1fbd c017 f9bc 65ab 003d
000002f0: 98f5 36bb 5d49 f5bd fdcc 5bbd ed0e b2bd
00000300: bfe1 a3bd d85d 33be 2b5e 32bd 8809 a0bd
00000310: 744e 82bd be5f 123e 673f c0bd c67a 62bc
00000320: 10b0 09bd ab7b efbd b388 ec3c 23c7 8dbd
00000330: e074 cb3b b7c2 f63d 8352 18bd 8d53 7fbd
00000340: d800 05be 1adf fb3d 7093 babd b88a bfbc
00000350: 9167 1fbd 4cb5 81be 910a 79bd 0d70 80bd
00000360: 9071 f8bc 2e74 3ebd 58a9 97ba 4a31 7ebb
00000370: 6878 71bd 28eb c33d f944 eabd e2a0 babd
00000380: 466b 563c 0748 c83b 2be7 c4bd f5a3 a7bd
00000390: 0681 05be b9c0 5ebd 5938 29be bd5e 16bd
000003a0: bdd4 e5bd 7ba4 bfbd b8bf 88bd 11b0 c3bd
000003b0: 1d0e 7fbd 7dd0 69bc fd3a b1bd d669 77bd
000003c0: b9a2 3abd b8a6 cbbd 3f91 c73d 681f 0f3e
000003d0: 8657 d53e 9a96 94be 14ec 643d 9a33 b5bd
000003e0: 1808 0dbe 993b 7d3e fcb4 24be 7ef5 9b3d
000003f0: 05df ffbc e47d d63d 836e cbbd 895d f13b

mean_layer.weight f4 [1, 256]
0.12593296 0.041028798 -0.019973941 -0.14441337 0.033158287 0.029986456 0.038731042 0.008238351
0.010439585 -0.008344583 -0.0027712155 0.008973375 0.009617062 -0.003012643 0.023301883 0.15794604
-0.079090156 -0.057476792 0.013277114 -0.19627029 -0.17899534 -0.10562573 -0.0011162127 -0.43813315
-0.010450034 0.13864578 0.16071011 -0.020289645 9.487238e-05 0.3046301 -0.0036344335 -0.0048196916
-0.05031572 0.035906866 0.25598368 0.025285115 0.0037004084 0.005679201 0.14915793 -0.011836328
-0.0066693854 -0.18147807 0.015113861 -0.018441873 -0.0017047098 0.008279271 0.20049953 0.06879431
0.010867423 0.08886099 0.0047546416 -0.1042042 0.120948054 -0.058886904 0.028884366 -0.23137447
0.0010737388 -0.36848968 -0.19954547 0.013208551 0.042654976 -0.00020273785 -0.48519585 -0.023089206
0.029782485 0.0034160656 0.019587291 -0.006035685 -0.07433162 -0.01817283 0.0018298624 0.024849184
-0.028415741 -0.00059331226 0.0027671256 0.0073234783 0.02768417 -0.02156197 0.08423 0.04815216
0.272036 -0.04676857 -0.20476411 0.0008760515 -0.0004941778 -0.0017467663 -0.007779564 0.048054814
-0.07242685 0.006849962 -0.0065215398 0.17925239 0.009346177 -0.06587491 -0.016090138 0.002053283
-0.00301548 -0.009737489 0.0056751 0.009602545 -0.017095122 0.13185117 -0.011058806 0.035874736
0.036716204 -0.0069638644 0.016154159 -0.0071570273 -0.053555865 -0.0039509297 0.041152805 -0.13600492
-0.062050514 -0.04039981 0.0043127593 -0.0053051375 -0.13559757 0.009008834 -0.3434866 -0.16491024
-0.061576113 -0.021840831 -0.013368588 0.13625109 -0.012487357 -0.2632052 -0.002699195 0.17069396
0.03177534 0.14822227 0.03153395 -0.0011316049 -0.06584614 0.010039947 0.026930518 0.12055513
0.031184543 0.20511597 0.23121725 -0.003527544 0.009292329 0.06704061 -0.020313459 0.0066289045
0.25745443 -0.0055040987 0.065386556 -0.12031436 0.025133532 -0.04197143 0.02813178 0.025382703
-0.17456707 -0.027296308 0.050014533 -0.027603611 0.06683772 0.100286275 0.09974781 0.0013016536
0.013127974 -0.037994172 0.08787983 -0.0129317455 -0.039719265 0.12879778 0.04264899 0.07974454
0.0031589705 -0.0683072 -0.018236985 0.004857091 0.016801799 0.006597918 0.009721589 -0.0186317
-0.21136455 -0.26109695 0.22574295 0.10364221 -0.27567267 0.007348415 0.27977306 0.3234559
-0.29989925 -0.053169884 -0.026578145 0.18242623 0.026099592 -0.008507437 -0.25002334 0.0034600287
-0.026552519 0.010571119 0.0008543668 -0.64736176 0.001425008 0.0044397945 -0.0015340678 0.0026482218
0.009392561 0.014079661 -0.057971925 0.0040669055 0.05066321 -0.0026934324 -0.024629962 0.025510052
-0.38401273 -0.0087777795 -0.00982706 0.0077230036 -0.26446766 -0.04461995 0.023204662 0.0072960295
-0.010869291 -0.018034784 -0.03412892 -0.06068734 -0.02724776 0.12936507 0.026905663 -0.027858391
-0.022976596 -0.09019344 0.26939616 0.0022136942 -0.017562756 -0.18048498 0.23214884 -0.0073355953
-0.002835997 0.17342097 -0.011654679 -0.013376186 0.010743168 -0.0014778839 0.008391079 -0.35530537
-0.29511508 0.032524247 -0.010726159 -0.0029960272 0.004545119 -0.021425996 0.04381981 -0.004824261
0.059670378 0.006222914 0.07467393 0.09176411 0.0038675128 0.0036572455 0.3578043 -0.025296539
00000000: 92f4 003e d00d 283d 64a0 a3bc 19e1 13be
00000010: fcd0 073d 28a6 f53c 71a4 1e3d 26fa 063c
00000020: cb0a 2b3c b8b7 08bc 489d 35bb 1005 133c
00000030: e290 1d3c c36f 45bb 97e3 be3c 9bbc 213e
00000040: 05fa a1bd c96c 6bbd 4188 593c 14fb 48be
00000050: 8e4a 37be 4d52 d8bd e24d 92ba fd52 e0be
00000060: 9f36 2bbc 29f9 0d3e 3191 243e 7836 a6bc
00000070: 39f6 c638 7af8 9b3e ad2f 6ebb 81ee 9dbb
00000080: db17 4ebd 1413 133d 4b10 833e bb22 cf3c
00000090: 8d82 723b 9718 ba3b dbbc 183e 28ed 41bc
000000a0: dc8a dabb 63d5 39be 21a0 773c 6913 97bc
000000b0: 9270 dfba c8a5 073c c04f 4d3e 08e4 8c3d
000000c0: 470d 323c c0fc b53d d3cc 9b3b 0369 d5bd
000000d0: 9db3 f73d 6533 71bd e89e ec3c 6eed 6cbe
000000e0: b2bc 8c3a aeaa bcbe a655 4cbe ae68 583c
000000f0: fcb6 2e3d 0796 54b9 976b f8be 9325 bdbc
00000100: 66fa f33c 12e0 5f3b 8775 a03c ffc6 c5bb
00000110: 2d3b 98bd 30df 94bc fed7 ef3a 8490 cb3c
00000120: 21c8 e8bc 8388 1bba aa58 353b caf9 ef3b
00000130: eac9 e23c baa2 b0bc c780 ac3d 333b 453d
00000140: 4d48 8b3e 6690 3fbd afad 51be d2a6 653a
00000150: b68b 01ba c0f3 e4ba b6eb febb 20d5 443d
00000160: 8754 94bd a575 e03b a4b2 d5bb f08d 373e
00000170: b520 193c 6de9 86bd 77cf 83bc 5f90 063b
00000180: 5c9f 45bb fd89 1fbc 30f6 b93b fe53 1d3c
00000190: 120b 8cbc fe03 073e ff2f 35bc 63f1 123d
000001a0: bb63 163d 2131 e4bb ba55 843c 7f85 eabb
000001b0: 655d 5bbd cd76 81bb d88f 283d e044 0bbe
000001c0: ae28 7ebd 457a 25bd 0c52 8d3b b8d6 adbb
000001d0: 17da 0abe ca99 133c 7add afbe 3bde 28be
000001e0: 3c37 7cbd 8beb b2bc ec07 5bbc 6885 0b3e
000001f0: c597 4cbc d5c2 86be fae4 30bb 66ca 2e3e
00000200: dc26 023d 94c7 173e be29 013d 5c52 94ba
00000210: 57da 86bd 977e 243c 649d dc3c 9ce5 f63d
00000220: ba76 ff3c ec09 523e 37c4 6c3e 5e2e 67bb
00000230: da3e 183c 964c 893d 6968 a6bc 4837 d93b
00000240: 11d1 833e ba5b b4bb 63e9 853d 6067 f6bd
00000250: d6e4 cd3c 3cea 2bbd 9e74 e63c 63ef cf3c
00000260: b6c1 32be 829c dfbc 0adc 4c3d f820 e2bc
00000270: 37e2 883d e462 cd3d 9448 cc3d 3f9c aa3a
00000280: b716 573c c79f 1bbd 57fa b33d acdf 53bc
00000290: abb0 22bd 91e3 033e b5b0 2e3d 1b51 a33d
000002a0: bb06 4f3b a5e4 8bbd bb65 95bc 3b28 9f3b
000002b0: eda3 893c 5933 d83b 4d47 1f3c 82a1 98bc
000002c0: f36f 58be 80ae 85be 2929 673e 5e42 d43d
000002d0: f824 8dbe f9ca f03b 6a3e 8f3e 039c a53e
000002e0: 658c 99be aac8 59bd 69ba d9bc f1cd 3a3e
000002f0: d0ce d53c c762 0bbc 0f03 80be a6c1 623b
00000300: ab84 d9bc 7d32 2d3c 96f7 5f3a 80b9 25bf
00000310: 56c7 ba3a b27b 913b c612 c9ba ca8d 2d3b
00000320: 42e3 193c 61ae 663c f873 6dbd ad43 853b
00000330: 3a84 4f3d 4c84 30bb c6c4 c9bc 75fa d03c
00000340: 519d c4be add0 0fbc ad01 21bc 4011 fd3b
00000350: 4e68 87be 69c3 36bd b417 be3c 8813 ef3b
00000360: 1c15 32bc afbd 93bc c4ca 0bbd 4a93 78bd
00000370: b236 dfbc 4778 043e 4469 dc3c 4837 e4bc
00000380: 6a39 bcbc 57b7 b8bd 4bee 893e a013 113b
00000390: c5df 8fbc 0ed1 38be 6db8 6d3e 6f5f f0bb
000003a0: 22dc 39bb 4495 313e 44f3 3ebc ca27 5bbc
000003b0: 1d04 303c 8eb5 c1ba bc7a 093c 96ea b5be
000003c0: 5319 97be 2538 053d c6bc 2fbc ff58 44bb
000003d0: 39ef 943b 9285 afbc 677c 333d d614 9ebb
000003e0: ed68 743d 96e9 cb3b a5ee 983d d2ee bb3d
000003f0: 1976 7d3b 66ae 6f3b 2032 b73e b03a cfbc

log_std_layer.weight f4 [1, 256]
0.25754696 0.057903808 0.0063668876 -0.20457806 -0.044000342 0.05838333 0.027036708 0.0142109785
0.018139856 0.0032337902 -0.36691695 0.010163681 -4.97307e-05 -0.034691595 -0.58161634 -0.010453918
0.031091526 -0.039545786 0.063461 0.21538146 -0.18460059 0.064155795 -0.19299497 0.41577917
0.025737949 -0.13326064 0.06686091 0.080867164 -0.00048209447 0.2939695 -0.09271251 -0.027349085
0.09589998 -0.01893832 0.07098342 -0.0066034505 0.04091184 0.0052137827 0.2858806 0.028372424
-0.21127148 -0.07042936 0.025936007 -0.0013682113 -0.009022679 0.028603898 0.002422198 0.06520427
-0.25756434 -0.73942363 -0.013143479 -0.35911822 0.21541806 -0.36361325 -0.20069118 0.42303035
-0.36801586 0.12359033 0.38784194 -0.23443148 0.06139857 0.09265727 0.35635605 -0.2598806
0.062723935 0.032459162 -0.052041452 -0.0119640175 -0.076951385 0.002475394 -0.0753406 -0.5196304
0.04327278 0.018220134 -0.06534665 0.016742947 0.081093945 0.030877993 -0.33293825 -0.022671895
-0.60570085 0.034075473 0.19700392 -0.016575607 -0.0057812114 -0.0059818192 0.001148596 0.0089268135
-0.04451247 -0.028217716 -0.038841493 0.08602366 -0.18916368 0.088728435 0.051746115 -0.105652414
0.026788928 0.05565331 -0.07210603 -0.25008693 0.006004815 0.02484832 0.01937267 -0.8547283
0.015849454 0.008139227 -0.22649549 0.048367392 -0.0088240495 0.046174314 -0.20701057 0.18027192
-0.40223888 -0.026110884 0.005384152 0.025873344 0.14374928 0.04412457 0.19994044 -0.02624329
-0.4897792 -0.0097579 0.06342019 0.4025604 0.029453566 0.3457527 0.022801701 -0.004559897
-0.0660145 -0.051194955 0.022678526 0.06149827 -0.116249576 0.026835034 -0.013413655 -0.03854631
-0.32909852 0.03952032 -0.16767782 -0.22470112 0.020391047 0.014862659 -0.25555563 0.027215607
0.4050961 -0.61290526 -0.00027532957 0.037841197 -0.3137101 0.11529022 -0.029780693 0.015710115
0.1953217 -0.03666158 0.005225792 -0.2003884 0.16204692 0.48944706 -0.053724565 -0.00823076
-0.112797454 -0.06710274 0.022722652 -0.043848123 -0.006237425 -0.067783915 -0.003665339 0.025496257
-0.07129348 0.37488142 0.05809526 -0.21832292 -0.007465757 -0.07376132 0.012095047 0.07159124
0.13688444 0.16345614 0.17226858 0.1101588 0.085102536 -0.04859199 0.44733095 0.18850407
0.17503363 -0.020894878 0.042706978 0.091951646 0.0208101 -0.023378778 0.18510291 0.012160996
0.01343799 0.19662945 0.07009861 0.25194865 -0.010835998 -0.12205773 0.022431603 -0.22279836
-0.042367086 0.023361385 0.27010018 0.00063042616 -0.051806457 -0.37153247 0.0064834286 -0.03575985
0.16739087 -0.71531504 0.00028333053 -0.04619179 0.28538764 -0.055133723 -0.031503912 -0.31563053
0.06367841 -0.0025436643 0.04748897 -0.15884289 0.034296196 -0.7665573 -0.081764884 -0.023841029
-0.06312109 -0.0122405235 -0.008710151 -0.01243774 0.04326936 0.17558475 0.1394585 -0.0108330725
-0.06867528 0.16159712 -0.031782605 0.026731731 0.018539943 -0.11674973 -0.008809913 0.26977304
0.25375986 0.0063101733 -0.39295816 -0.39106867 -0.48707226 0.07395477 -0.3432069 -0.022398626
-0.19698963 -0.34965497 -0.0099901175 -0.32082447 -0.0018471405 -0.36777246 0.19537921 0.027847316
00000000: 32dd 833e 8b2c 6d3d 53a1 d03b e97c 51be
00000010: b439 34bd 5c23 6f3d 167c dd3c 2ad5 683c
00000020: 099a 943c ffed 533b 8adc bbbe 9185 263c
00000030: ef95 50b8 c618 0ebd cfe4 14bf e946 2bbc
00000040: a8b3 fe3c c3fa 21bd d7f7 813d f58c 5c3e
00000050: f007 3dbe 1d64 833d 79a0 45be 02e1 d43e
00000060: 64d8 d23c 7a75 08be 5fee 883d af9d a53d
00000070: a0c1 fcb9 2c83 963e 0ee0 bdbd 300b e0bc
00000080: 3567 c43d 8924 9bbc c15f 913d c261 d8bb
00000090: 2c93 273d 61d8 aa3b f15e 923e 496d e83c
000000a0: 8d57 58be 453d 90bd c077 d43c 8e55 b3ba
000000b0: dcd3 13bc b952 ea3c bdbd 1e3b d189 853d
000000c0: 79df 83be de4a 3dbf bf57 57bc 58de b7be
000000d0: 8d96 5c3e 842b babe fd81 4dbe 6f97 d83e
000000e0: 936c bcbe ed1c fd3d 3893 c63e ce0e 70be
000000f0: 117d 7b3d 18c3 bd3d 4d74 b63e 120f 85be
00000100: 6875 803d e6f3 043d 6b29 55bd ba04 44bc
00000110: b098 9dbd 383a 223b 2c4c 9abd 7f06 05bf
00000120: cc3e 313d 6442 953c 77d4 85bd 8128 893c
00000130: 9514 a63d d8f3 fc3c e276 aabe 69ba b9bc
00000140: 360f 1bbf b992 0b3d 65bb 493e 91c9 87bc
00000150: 5170 bdbb 2303 c4bb 7d8c 963a c541 123c
00000160: b552 36bd d728 e7bc 4218 1fbd 2c2d b03d
00000170: 20b4 41be 41b7 b53d bcf3 533d 4b60 d8bd
00000180: 7474 db3c baf4 633d 54ac 93bd 650b 80be
00000190: 0ac4 c43b b48e cb3c 6fb3 9e3c 79cf 5abf
000001a0: b7d6 813c 645a 053c 6fee 67be e31c 463d
000001b0: bf92 10bc 4721 3d3d 94fa 53be 3499 383e
000001c0: 41f2 cdbe 7ee6 d5bc 8a6d b03b 56f4 d33c
000001d0: 0333 133e f7bb 343d 30bd 4c3e 2bfc d6bc
000001e0: 57c4 fabe 99df 1fbc 72e2 813d 661c ce3e
000001f0: 9b48 f13c 7f06 b13e a2ca ba3c 306b 95bb
00000200: 9c32 87bd cdb1 51bd 51c8 b93c 9ce5 7b3d
00000210: 4214 eebd 25d5 db3c f2c4 5bbc bce2 1dbd
00000220: 9a7f a8be 0fe0 213d bcb3 2bbe 0d18 66be
00000230: 200b a73c 8382 733c 30d8 82be 44f3 de3c
00000240: c268 cf3e 5ce7 1cbf 1c5a 90b9 5fff 1a3d
00000250: 9c9e a0be 471d ec3d a4f6 f3bc 80b2 803c
00000260: 6902 483e 742a 16bd 1f3d ab3b 9e32 4dbe
00000270: a1ef 253e ce98 fa3e 4a0e 5cbd 4fda 06bc
00000280: 5a02 e7bd 296d 89bd db24 ba3c 179a 33bd
00000290: 5063 ccbb 4bd2 8abd 2f36 70bb 87dd d03c
000002a0: 5102 92bd 75f0 bf3e 4cf5 6d3d 0b90 5fbe
000002b0: 4fa3 f4bb 2d10 97bd 4e2a 463c 6e9e 923d
000002c0: 6f2b 0c3e 0c61 273e 2d67 303e f09a e13d
000002d0: 3d4a ae3d 6508 47bd 9008 e53e 3607 413e
000002e0: 043c 333e bc2b abbc 83ed 2e3d 2551 bc3d
000002f0: f179 aa3c da84 bfbc 9e8b 3d3e ea3e 473c
00000300: 042b 5c3c 3b59 493e dc8f 8f3d 6aff 803e
00000310: 7889 31bc 67f9 f9bd 7bc2 b73c 4125 64be
00000320: 1c89 2dbd 6060 bf3c 924a 8a3e 2f43 253a
00000330: 0233 54bd 8139 bebe f172 d43b ec78 12bd
00000340: 8368 2b3e e31e 37bf fb8b 9439 9a33 3dbd
00000350: 541e 923e e6d3 61bd 3f0a 01bd 539a a1be
00000360: d469 823d 9bb3 26bb cb83 423d b6a7 22be
00000370: 2b7a 0c3d 193d 44bf 5974 a7bd 434e c3bc
00000380: a145 81bd 7a8c 48bc 05b5 0ebc aac7 4bbc
00000390: 363b 313d 7dcc 333e 36ce 0e3e 337d 31bc
000003a0: a0a5 8cbd b779 253e 7a2e 02bd 81fc da3c
000003b0: 14e1 973c 7c1a efbd 7457 10bc b11f 8a3e
000003c0: d0ec 813e 92c5 ce3b d031 c9be 273a c8be
000003d0: 8961 f9be 9975 973d d1b8 afbe 537d b7bc
000003e0: a6b7 49be fa05 b3be 97ad 23bc 1b43 a4be
000003f0: c01b f2ba ac4c bcbe 7d11 483e 0e20 e43c
