eval_files/models/parking/models/_actor.pth (torch, 282959 bytes, 8 tensors)

l1.weight f4 [256, 12]
2.1267712 -1.0650319 -0.32583988 0.12845214 -0.43139943 0.36173946 0.9302377 -0.18970865
-0.028762592 -0.038966548 -0.9251076 -0.29891437 0.2382408 -1.8554391 0.15155765 0.008053877
0.018765142 0.4695676 2.4952257 -0.27357522 0.11348366 0.16570681 0.20080076 -0.44905347
-2.589544 1.1473224 0.1858802 0.21497698 -0.17759989 0.4585023 2.5181928 -0.07318024
0.24011177 -0.46655867 0.34157735 -0.24647698 1.302982 -2.2532234 -0.3338857 -0.027958054
-0.20079103 -0.37111482 1.8989292 0.27724388 -0.46333197 0.0670457 -1.7097453 0.45262438
-3.0701706 0.88584906 -0.3698333 0.1808863 0.38098875 -0.42504033 2.3490307 0.734479
-0.17403498 0.20471087 0.75026435 0.02795935 -0.90454614 2.2920206 0.7387943 -0.10080543
-0.71221656 -0.108248524 -0.77603483 -0.28816453 -0.1904299 -0.19701466 -0.65431464 0.09598595
1.2289977 2.0754037 -0.057575695 -0.025768036 -0.24892469 -0.16545033 -2.8769732 0.07045299
-1.1284075 -0.34071344 -1.0208559 -0.27865368 -0.33110884 0.0457922 -0.39334437 0.17646433
0.28989035 0.7713312 -0.20648737 -0.69453174 0.30495468 0.18778574 -0.10559453 -0.46232584
-0.34732464 -2.8512845 -0.30940714 0.13438468 0.13678436 0.33273482 0.8655531 0.47893378
0.95118177 -0.43365517 -0.93028605 0.26909322 -0.23078182 3.0686615 -0.19134459 0.005853992
0.6277876 0.12083243 -0.06651417 0.5243808 -0.7546721 0.24119994 -1.2922937 -0.09896745
-0.44991913 -1.6866273 0.5141256 -0.14663047 0.654012 -0.17775834 -0.9130179 0.12988342
0.20079163 0.69615823 -0.1467611 0.33001822 -0.32539693 1.672821 0.4063726 -0.154626
0.13714878 -0.35742542 -1.5570344 0.028033122 -0.69616544 0.64672 -0.06708239 0.32164076
2.3207264 -2.9652412 -0.04488681 -0.043127242 0.5088858 0.39841545 -0.9415194 0.8878087
-0.17576766 0.20161289 -0.056694284 -0.24719942 0.8850372 -2.9290106 0.43625367 -0.28241885
-0.18325838 0.51546055 -1.294959 1.1267484 -0.2398721 -0.14510402 0.18065102 0.3132543
-3.7074168 -0.68196595 -0.022374837 0.064993516 0.048202988 -0.116107516 4.1672254 0.19078663
-0.26817873 -0.10895108 -0.36733475 0.007558298 -2.01343 1.9489312 0.3781426 -0.15939078
0.45222065 0.42938134 -0.39721408 0.18337698 1.3000762 0.06045651 1.4990922 -0.065813124
-2.8875613 -0.64921445 -0.28677836 -0.28854266 0.26148596 0.3688444 2.7805948 0.007951435
-0.80390984 -0.21609566 -0.54328454 -0.07215715 -0.20886329 0.4556512 -0.29999554 -0.8183132
0.2250691 0.49307612 0.3907778 1.0199677 -0.76011735 0.26122484 -0.052198127 0.48180312
3.964845 -0.1754177 -0.12786107 -0.043184597 -0.590263 -0.061906315 -0.94214827 -0.51574653
0.32506695 0.37141097 0.87974876 0.13001522 0.44597054 -3.2563868 0.14495456 0.38085374
-0.5782673 0.27265137 0.294685 0.5198573 0.92816657 0.22702065 0.65949756 -0.17831576
0.3423359 1.1745696 0.38631406 0.024567101 -0.3053974 0.10439805 -2.9343407 -0.08946983
-0.39204106 0.5706134 -0.21632147 -0.056233056 2.2797363 -0.8510742 -0.12049054 -0.2605822
00000000: 051d 0840 f752 88bf 7cd4 a6be f588 033e
00000010: 63e0 dcbe ea35 b93e 0f24 6e3f fc42 42be
00000020: 879f ebbc 639b 1fbd dad3 6cbf 4e0b 99be
00000030: 65f5 733e 077f edbf ee31 1b3e 69f4 033c
00000040: 5bb9 993c 2a6b f03e c7b1 1f40 0d12 8cbe
00000050: 1f6a e83d 0caf 293e b79e 4d3e 56ea e5be
00000060: 17bb 25c0 76db 923f 6157 3e3e ed22 5c3e
00000070: bfdc 35be d0c0 ea3e 122a 2140 86df 95bd
00000080: dcdf 753e c7e0 eebe 3ae3 ae3e 7664 7cbe
00000090: 1dc8 a63f d034 10c0 11f3 aabe 4a08 e5bc
000000a0: 2a9c 4dbe c302 bebe 1d10 f33f e9f2 8d3e
000000b0: d939 edbe 424f 893d efd8 dabf 62be e73e
000000c0: ad7d 44c0 01c7 623f ca5a bdbe 423a 393e
000000d0: f510 c33e e39e d9be 8556 1640 d106 3c3f
000000e0: 3a36 32be ba9f 513e 5311 403f 020b e53c
000000f0: 5690 67bf 77b0 1240 a021 3d3f 1473 cebd
00000100: d353 36bf 67b1 ddbd 38aa 46bf 4d8a 93be
00000110: 0e00 43be 36be 49be 2a81 27bf 4894 c43d
00000120: cc4f 9d3f 6ad3 0440 7ed4 6bbd 7d17 d3bc
00000130: 1de6 7ebe d06b 29be 5420 38c0 a849 903d
00000140: a86f 90bf fe71 aebe 68ab 82bf b2ab 8ebe
00000150: 1987 a9be 9a90 3b3d 6f64 c9be 11b3 343e
00000160: 826c 943e f675 453f 6d71 53be d5cc 31bf
00000170: 0523 9c3e e84a 403e f241 d8bd f9b5 ecbe
00000180: 89d4 b1be 727b 36c0 9d6a 9ebe 239c 093e
00000190: 3311 0c3e 385c aa3e e394 5d3f cf36 f53e
000001a0: a680 733f 0d08 debe 3a27 6ebf 96c6 893e
000001b0: 1252 6cbe f364 4440 d6ef 43be d8d2 bf3b
000001c0: b0b6 203f fe76 f73d 9538 88bd d23d 063f
000001d0: 3132 41bf 1efd 763e e169 a5bf 72af cabd
000001e0: cd5b e6be 67e3 d7bf bc9d 033f 4c26 16be
000001f0: 556d 273f 4806 36be 8bbb 69bf 2900 053e
00000200: 529c 4d3e 6d37 323f 8b48 16be 26f8 a83e
00000210: 6d9a a6be 001f d63f 1210 d03e 4756 1ebe
00000220: bb70 0c3e 7700 b7be e74c c7bf b8a5 e53c
00000230: e637 32bf 718f 253f 7e62 89bd 19ae a43e
00000240: c886 1440 83c6 3dc0 3bdb 37bd 31a6 30bd
00000250: 5746 023f 1cfd cb3e 6a07 71bf 6e47 633f
00000260: 70fc 33be 9c73 4e3e 4438 68bd d821 7dbe
00000270: cc91 623f e974 3bc0 a45c df3e 3499 90be
00000280: 16a8 3bbe 39f5 033f 37c1 a5bf 4b39 903f
00000290: 08a1 75be 2696 14be 95fc 383e de62 a03e
000002a0: 5146 6dc0 5295 2ebf 6f4b b7bc 521b 853d
000002b0: 7f70 453d c7c9 edbd e959 8540 925d 433e
000002c0: b94e 89be be21 dfbd 4d13 bcbe 99ab f73b
000002d0: 0adc 00c0 9476 f93f e89b c13e 5637 23be
000002e0: 7789 e73e dfd7 db3e a55f cbbe 2dc7 3b3e
000002f0: e668 a63f 3fa1 773d 41e2 bf3f 08c9 86bd
00000300: cecd 38c0 eb32 26bf 9dd4 92be ddbb 93be
00000310: 7de1 853e 2cd9 bc3e 44f5 3140 bc46 023c
00000320: 09cd 4dbf 2e48 5dbe b214 0bbf 21c7 93bd
00000330: 42e0 55be 1d4b e93e 0499 99be f97c 51bf
00000340: 8478 663e 7974 fc3e 0714 c83e 4d8e 823f
00000350: 0d97 42bf 43bf 853e b4cd 55bd e6ae f63e
00000360: 05c0 7d40 b3a0 33be 03ee 02be 55e2 30bd
00000370: 7a1b 17bf 7a91 7dbd a130 71bf f707 04bf
00000380: 2d6f a63e 9429 be3e 3737 613f b622 053e
00000390: 4056 e43e a468 50c0 f86e 143e 43ff c23e
000003a0: 5309 14bf f698 8b3e f4e0 963e 5e15 053f
000003b0: 539c 6d3f 1a78 683e d5d4 283f 6898 36be
000003c0: a746 af3e 4c58 963f f5ca c53e f240 c93c
000003d0: 0c5d 9cbe a5ce d53d 3dcc 3bc0 f53b b7bd
000003e0: 9bb9 c8be b813 123f 6083 5dbe a254 66bd
000003f0: 33e7 1140 00e0 59bf bfc3 f6bd 086b 85be

l1.bias f4 [256]
-0.713529 -0.6775448 -0.46754915 -0.77404255 -0.5774068 -0.56709456 -0.46470368 -0.5449229
-0.43891183 -0.7880205 -0.7993179 -0.96269464 -0.6365423 -0.3804383 0.0013674852 -0.59692425
-0.36953947 -1.135534 -0.43571424 -0.9835763 -0.263453 -0.47529942 -0.54059386 -0.7690427
-1.0700808 -1.1579736 -0.8953944 -0.41356853 -0.72919804 -0.65025556 -0.3481841 -0.26846695
-0.57157046 -0.66915935 -0.5640647 -0.8264747 -0.5729398 -0.6290942 -0.70426404 -0.7072225
-0.5479482 -0.6427152 -0.63981247 -0.73586535 -0.71863586 -0.473826 -0.5173173 0.03684763
-0.7127985 -0.8269306 -0.98755074 -0.485147 -0.67565113 -0.50684166 -0.7241885 -0.33837545
-0.5185198 -0.89393246 0.092819005 -0.5574102 -0.68880457 -0.3658324 -0.37893143 -1.186512
-0.65219384 -0.17943111 -0.76160383 -0.119407 -0.6153891 -0.5920259 -0.7871047 -0.55195457
-0.9242459 -0.39697182 -0.5417929 -0.93344045 -0.52793705 -0.6091375 -0.75326514 -0.6832909
-0.471527 0.047366466 -0.7837658 -0.5624383 -0.38000646 -0.50625837 -0.26365563 -1.0903834
-0.6019512 -0.6032249 -0.9650866 -0.84165245 -0.7415574 -0.5064586 -0.8566996 0.07662774
-1.1516767 -0.5751867 -0.79285824 -0.17161554 -0.6255869 -0.85554904 -1.0023936 -0.6138665
-0.47031444 0.0998556 -0.6916056 -0.48584524 -0.84677136 -0.8061439 -0.68445885 -0.8039394
0.11371654 -0.7153339 -0.6527141 -0.66702193 -0.90491426 -0.59854287 -0.66959095 -0.59753495
-0.71009237 -0.4980458 -0.60817873 -0.19238298 -1.213725 -0.3725826 -0.6074725 -0.78785115
-0.67759085 -1.0754395 -0.4743856 -0.7828559 -0.43770137 -0.1962104 -0.60241085 -0.7768108
-0.84991795 -0.46847612 -0.20946412 -0.2950054 -0.80396116 -0.702986 -0.5539907 -0.6842465
-0.5816628 -0.6056856 -0.22831789 -0.36294523 -0.9158644 -0.84480727 -0.4204545 -0.90577495
-0.5015951 -0.68652385 -0.5701245 -0.86755085 -0.35364035 -0.5029324 -0.70836323 -0.29989797
-0.6039503 -1.0728576 -1.2670398 -1.0451424 -1.218479 -0.38388106 -0.64377624 -0.7722909
-0.38602233 -0.4714377 -0.8763945 -0.2793494 -0.75527376 -1.038679 -0.91162294 -0.31694233
-0.5757414 -0.62270534 -0.6255356 -0.20716874 -0.9763697 -0.5668614 -0.7026772 -1.2719659
-0.43598878 -0.8096097 -0.2320516 -0.68212444 0.0806427 -0.8414837 -0.6456521 -0.96406317
0.07811191 -1.0634614 -0.923093 -1.0184634 -0.4107305 -0.7152016 -1.0590758 -0.53867614
-0.5583552 -0.86163616 -0.56707096 -0.6873461 -0.15126978 -1.0603471 -0.60310787 -0.6827237
-0.412003 -0.9892651 -0.2874563 -1.0819774 -0.6241993 -0.43865153 -0.93828225 -0.8291694
-0.84702206 -0.5469868 -0.6858556 -0.88443667 -0.3160048 -0.536221 -0.930895 -0.5606558
-0.47602984 -0.46452218 -0.7642253 -0.17389736 -0.6572705 -0.8000659 -0.77858335 -0.2041627
-0.572101 -0.2592811 -0.6832677 -0.7902699 -0.5546166 -0.48712197 -0.49487996 -0.0067643276
-0.3394744 -0.53416306 -0.005083691 -0.3025344 -0.9104416 0.08823923 -0.81513286 -0.8233611
-0.23075488 -0.710294 -0.6206534 -0.8296218 -0.658531 -0.1276199 -0.8825211 -0.8760012
00000000: d6a9 36bf 9373 2dbf 9a62 efbe a727 46bf
00000010: efd0 13bf 1c2d 11bf a4ed edbe 1180 0bbf
00000020: 0db9 e0be b6bb 49bf 19a0 4cbf 2873 76bf
00000030: 70f4 22bf cfc8 c2be 303d b33a 07d0 18bf
00000040: 4734 bdbe 2e59 91bf f015 dfbe a8cb 7bbf
00000050: 50e3 86be 725a f3be 5c64 0abf fbdf 44bf
00000060: 68f8 88bf 7b38 94bf 9138 65bf 41bf d3be
00000070: b9ac 3abf 2677 26bf 3045 b2be 8074 89be
00000080: 7152 12bf 074e 2bbf 8b66 10bf d993 53bf
00000090: 2fac 12bf 510c 21bf a64a 34bf 890c 35bf
000000a0: 5546 0cbf fc88 24bf c0ca 23bf ac61 3cbf
000000b0: 85f8 37bf 5299 f2be e86e 04bf 8aed 163d
000000c0: f679 36bf b9b1 53bf 20d0 7cbf 3065 f8be
000000d0: 79f7 2cbf 60c0 01bf 6b64 39bf 8c3f adbe
000000e0: b7bd 04bf c2d8 64bf e417 be3d 6fb2 0ebf
000000f0: 7f55 30bf 624e bbbe 4d03 c2be a0df 97bf
00000100: 2df6 26bf cabc 37be 78f8 42bf a88b f4bd
00000110: 248a 1dbf 028f 17bf b27f 49bf e54c 0dbf
00000120: 619b 6cbf e43f cbbe f1b2 0abf f4f5 6ebf
00000130: e226 07bf 6ff0 1bbf fcd5 40bf 27ec 2ebf
00000140: fd6b f1be 5703 423d e0a4 48bf f5fb 0fbf
00000150: 3590 c2be 269a 01bf dffd 86be af91 8bbf
00000160: 7919 1abf f26c 1abf ea0f 77bf 8976 57bf
00000170: b5d6 3dbf 45a7 01bf aa50 5bbf 01ef 9c3d
00000180: 246a 93bf 703f 13bf c2f8 4abf fcbb 2fbe
00000190: 7726 20bf 4305 5bbf 6f4e 80bf 5b26 1dbf
000001a0: 0ecd f0be 1881 cc3d 110d 31bf b5c0 f8be
000001b0: 02c6 58bf 725f 4ebf b238 2fbf f9ce 4dbf
000001c0: 38e4 e83d 1f20 37bf 4518 27bf f3c1 2abf
000001d0: 76a8 67bf 1b3a 19bf 506a 2bbf 0df8 18bf
000001e0: 9dc8 35bf dcff febe 9ab1 1bbf 0b00 45be
000001f0: 575b 9bbf 26c3 bebe 5183 1bbf 9db0 49bf
00000200: 9876 2dbf 00a8 89bf abe2 f2be 3f69 48bf
00000210: 651a e0be 61eb 48be 9937 1abf 13dd 46bf
00000220: 3994 59bf 1adc efbe c37d 56be f30a 97be
00000230: 66d0 4dbf e4f6 33bf 56d2 0dbf c72a 2fbf
00000240: dae7 14bf 360e 1bbf 2acc 69be f5d3 b9be
00000250: 1776 6abf 4a45 58bf d045 d7be dee0 67bf
00000260: 8968 00bf 07c0 2fbf aef3 11bf d017 5ebf
00000270: 5910 b5be 2ec0 00bf 4b57 35bf 3a8c 99be
00000280: 7d9c 1abf 6653 89bf 5c2e a2bf 3ac7 85bf
00000290: 1ff7 9bbf 0f8c c4be 85ce 24bf dbb4 45bf
000002a0: b8a4 c5be 4860 f1be 645b 60bf e206 8fbe
000002b0: 9f59 41bf 6ff3 84bf 1f60 69bf 4446 a2be
000002c0: ca63 13bf 9e69 1fbf 1a23 20bf 0b24 54be
000002d0: 5df3 79bf d41d 11bf a7e2 33bf c7cf a2bf
000002e0: ec39 dfbe 9542 4fbf ef9e 6dbe b59f 2ebf
000002f0: 0028 a53d 7a6b 57bf 7549 25bf d8cc 76bf
00000300: 23f9 9f3d 811f 88bf d34f 6cbf 025d 82bf
00000310: 454b d2be 7417 37bf cc8f 87bf aee6 09bf
00000320: 5ef0 0ebf 3094 5cbf 902b 11bf eaf5 2fbf
00000330: 77e6 1abe 74b9 87bf 4765 1abf fbc6 2ebf
00000340: 0ff2 d2be 7a40 7dbf 792d 93be 3c7e 8abf
00000350: 86cb 1fbf ef96 e0be 4433 70bf 7244 54bf
00000360: 70d6 58bf 5407 0cbf 3c94 2fbf 716a 62bf
00000370: 62cb a1be c845 09bf 224f 6ebf 2387 0fbf
00000380: 2fba f3be dad5 edbe 45a4 43bf 2612 32be
00000390: e142 28bf 1ed1 4cbf 3d51 47bf 0710 51be
000003a0: 3675 12bf 7ec0 84be a2ea 2ebf 214f 4abf
000003b0: 5afb 0dbf 0d68 f9be e860 fdbe 4ba7 ddbb
000003c0: 97cf adbe e9be 08bf 1795 a6bb cae5 9abe
000003d0: b312 69bf c5b6 b43d 8cac 50bf cbc7 52bf
000003e0: 024b 6cbe d4d5 35bf 24e3 1ebf 1862 54bf
000003f0: 7d95 28bf cbae 02be e7ec 61bf 9d41 60bf

l2.weight f4 [256, 256]
-0.018078085 0.009012358 -0.04912873 -0.029949773 0.042074896 -0.043994423 -0.06928442 -0.033854816
-0.037588175 0.017422913 -0.040067445 -0.02399592 -0.068837516 -0.053813245 -0.016965203 -0.04659562
-0.04168954 0.02690525 0.0057633375 -0.0012873673 0.026544895 -0.04286607 -0.12772422 -0.011921459
0.029665794 -0.038144987 -0.025912259 -0.024189712 -0.07150476 0.059501372 0.008363232 -0.034086067
-0.06361376 -0.07832459 -0.09947498 0.0154745625 0.07675947 -0.0950482 -0.046823047 -0.010838451
-0.06759381 0.011454286 -0.080004334 -0.07830244 -0.047897104 -0.02039822 0.03365065 -0.06763343
-0.058122035 0.031755175 -0.03489638 -0.0005021819 0.087618075 -0.022623416 0.020143593 -0.043909274
-0.05785721 -0.10695656 0.059437204 -0.081046164 0.01719013 -0.07169013 -0.035250384 0.028054494
0.02561079 0.027807446 -0.07066888 0.035474624 -0.027565654 -0.08408365 -0.066720136 -0.10586706
-0.15661475 -0.029628472 -0.058465477 -0.028211577 -0.0010527505 -0.08816025 -0.040751413 -0.03333911
0.05115043 0.05321672 -0.0099297585 -0.012544899 0.027772276 -0.038862642 -0.14927255 0.0330449
-0.022875637 -0.038631164 -0.001100201 -0.020714177 0.04526437 0.036262315 -0.081328996 -0.08742042
-0.016964423 -0.033761308 0.009687456 -0.09892419 -0.08126838 -0.01192411 0.012556068 -0.06773536
-0.059141096 -0.04704143 -0.07057917 -0.011147594 0.049659755 0.014482214 0.058910664 -0.055150855
-0.08728673 0.02724989 -0.026168145 -0.06588764 0.03594499 -0.009152303 -0.053073805 0.019461947
-0.1172442 -0.06822569 -1.2207254e-05 -0.057596784 -0.029069213 0.042933263 -0.02159056 -0.03327537
-0.03439296 -0.06021517 -0.09765567 0.0029476113 -0.047389854 -0.003587547 -0.07709522 -0.019533893
-0.09021857 -0.03568927 -0.028422909 -0.03247974 0.031934034 -0.039601482 -0.07824357 -0.030990822
-0.0352674 -0.018979445 -0.14388742 0.036589444 -0.04056649 -0.053868096 0.0204947 -0.03471496
-0.045143317 -0.08135397 -0.07902129 -0.017379103 -0.055738933 0.022422915 -0.05241455 -0.01426589
-0.09713777 -0.041637447 -0.09562614 -0.035959765 -0.023733478 -0.038083177 -0.062542826 -0.015409028
-0.062589794 -0.04550342 0.041095413 -0.010533291 -0.001914396 -0.06368098 -0.0751567 0.04677254
-0.023411846 0.04099492 0.019765245 -0.054976266 -0.039273195 -0.0052014156 0.015755478 -0.04191596
0.011376968 -0.11751286 -0.04108384 0.05263805 0.0068997624 -0.01009492 -0.06333076 -0.008943011
-0.10240651 -0.031199574 -0.010170825 -0.09031512 -0.078488074 -0.06194721 0.036218483 -0.06841313
-0.07530207 0.06907037 0.017302914 -0.06094679 -0.023892853 -0.09608225 -0.050509162 -0.0043159346
-0.08630197 -0.029936774 -0.021253558 0.009333461 -0.00073300925 -0.0152003905 -0.010470348 -0.05195613
-0.06767352 -0.052977648 -0.018732985 0.04399769 -0.06872773 0.045342527 -0.008019082 -0.01732167
-0.03573308 -0.029446727 0.058177426 -0.020908749 -0.033220492 -0.021582978 -0.021569015 -0.0112973135
-0.069775306 -0.06707165 -0.06364132 -0.07449588 -0.09267024 -0.019235415 0.012138097 -0.075241216
-0.059050098 -0.07434063 -0.13663821 0.01692482 -0.010155606 -0.019195467 -0.03194499 0.020398833
-0.085713625 -0.09694823 -0.11306899 -0.046259746 -0.053865112 0.025496086 -0.04326824 -0.03546901
00000000: 7e18 94bc 92a8 133c 353b 49bd 3a59 f5bc
00000010: ba56 2c3d 7f33 34bd fde4 8dbd 59ab 0abd
00000020: 0ff6 19bd 7fba 8e3c c31d 24bd 1793 c4bc
00000030: affa 8cbd 476b 5cbd 9cfa 8abc 0ddb 3ebd
00000040: a7c2 2abd 6668 dc3c 61da bc3b e1bc a8ba
00000050: ae74 d93c 5594 2fbd 23ca 02be 3952 43bc
00000060: ae05 f33c eb3d 1cbd f245 d4bc 8129 c6bc
00000070: 1671 92bd b6b7 733d f005 093c d59d 0bbd
00000080: ee47 82bd a568 a0bd 8ab9 cbbd 0589 7d3c
00000090: 1234 9d3d a1a8 c2bd 86c9 3fbd c293 31bc
000000a0: a06e 8abd c2aa 3b3c 50d9 a3bd 085d a0bd
000000b0: c12f 44bd 2b1a a7bc 44d5 093d 6583 8abd
000000c0: 5f11 6ebd b711 023d 82ef 0ebd dba4 03ba
000000d0: 1b71 b33d be54 b9bc 2d04 a53c 36da 33bd
000000e0: affb 6cbd 0a0c dbbd 6d74 733d 88fb a5bd
000000f0: 51d2 8c3c 46d2 92bd b562 10bd 8ad2 e53c
00000100: b8cd d13c 71cc e33c d9ba 90bd d74d 113d
00000110: 5ed1 e1bc 0c34 acbd 91a4 88bd d4d0 d8bd
00000120: 9e5f 20be 69b7 f2bc 7f79 6fbd f71b e7bc
00000130: 72fc 89ba 5c8d b4bd f4ea 26bd 978e 08bd
00000140: 1d83 513d c7f9 593d 6db0 22bc 1f89 4dbc
00000150: af82 e33c 6f2e 1fbd e7da 18be 175a 073d
00000160: b065 bbbc b63b 1ebd 9f34 90ba c7b0 a9bc
00000170: 2267 393d cb87 143d d18f a6bd 7a09 b3bd
00000180: f9f8 8abc 4c49 0abd 23b8 1e3c c498 cabd
00000190: 0970 a6bd 585d 43bc f7b7 4d3c d6b8 8abd
000001a0: ef3d 72bd 84ae 40bd d08b 90bd 66a4 36bc
000001b0: 0768 4b3d cf46 6d3c 4f4c 713d dde5 61bd
000001c0: 63c3 b2bd 293b df3c 945e d6bc 19f0 86bd
000001d0: 0e3b 133d 8bf3 15bc eb63 59bd a96e 9f3c
000001e0: ba1d f0bd e9b9 8bbd c2cd 4cb7 9bea 6bbd
000001f0: 8f22 eebc cada 2f3d b0de b0bc c14b 08bd
00000200: a2df 0cbd 2fa4 76bd b2ff c7bd b62c 413b
00000210: dd1b 42bd 0d1d 6bbb 19e4 9dbd 8b05 a0bc
00000220: 83c4 b8bd e92e 12bd 29d7 e8bc 7a09 05bd
00000230: 43cd 023d 2a35 22bd 2a3e a0bd 77e0 fdbc
00000240: 8d74 10bd c87a 9bbc 3957 13be d0de 153d
00000250: 0c29 26bd cba4 5cbd 80e4 a73c 4631 0ebd
00000260: 33e8 38bd e99c a6bd ead5 a1bd 9f5e 8ebc
00000270: 824e 64bd 43b0 b73c a4b0 56bd 7bbb 69bc
00000280: 2bf0 c6bd 078c 2abd a3d7 c3bd 8c4a 13bd
00000290: b66c c2bc 1bfd 1bbd 7416 80bd 2676 7cbc
000002a0: 142f 80bd cb61 3abd aa53 283d d393 2cbc
000002b0: 78ec faba 2c6b 82bd c2eb 99bd 9094 3f3d
000002c0: 33ca bfbc 4aea 273d b9ea a13c cb2e 61bd
000002d0: eedc 20bd a370 aabb a211 813c 12b0 2bbd
000002e0: 7666 3a3c 95aa f0bd 8747 28bd ff9a 573d
000002f0: 6717 e23b 2a65 25bc 8fb3 81bd b585 12bc
00000300: 81ba d1bd 4096 ffbc 88a3 26bc 22f7 b8bd
00000310: 5bbe a0bd 5cbc 7dbd d559 143d 2f1c 8cbd
00000320: f937 9abd c474 8d3d d7be 8d3c 57a3 79bd
00000330: f2ba c3bc c5c6 c4bd b2e2 4ebd af6c 8dbb
00000340: 16bf b0bd f73d f5bc f11b aebc 5feb 183c
00000350: 6b27 40ba 0f0b 79bc d38b 2bbc f3cf 54bd
00000360: 6a98 8abd 17ff 58bd eb75 99bc ec36 343d
00000370: 20c1 8cbd 16b9 393d 7862 03bc 2de6 8dbc
00000380: da5c 12bd 433a f1bc 744b 6e3d d348 abbc
00000390: 3612 08bd c9ce b0bc 81b1 b0bc 5e18 39bc
000003a0: 5be6 8ebd dc5c 89bd 6156 82bd 4c91 98bd
000003b0: e5c9 bdbd 9793 9dbc dede 463c 1118 9abd
000003c0: 84de 71bd e63f 98bd e3ea 0bbe eca5 8a3c
000003d0: b363 26bc d03f 9dbc c0d8 02bd 741b a73c
000003e0: a08a afbd cb8c c6bd b790 e7bd dc7a 3dbd
000003f0: aaa1 5cbd 2bdd d03c 0a3a 31bd f447 11bd

l2.bias f4 [256]
-0.07215994 -0.06615296 -0.07386477 -0.050090633 -0.10193125 0.13453238 -0.11314386 0.4436458
-0.3262217 -0.05486241 -0.052437223 -0.18286107 0.13742743 -0.098831415 0.4991395 -0.11283437
0.16535187 -0.095683865 -0.06826272 -0.0129097095 -0.01921771 -0.045428902 -0.034718223 0.6321186
0.25168467 -0.09379922 0.5721436 -0.108276576 0.055469174 -0.0063463203 -0.032391768 -0.030246306
-0.3064029 -0.038849514 -0.015599748 -0.09501932 0.3415033 -0.022005668 -0.060991526 -0.032805298
-0.04611404 -0.02428655 -0.047630284 -0.0020974106 0.43045634 0.6139562 0.8248723 0.6371536
0.08869153 -0.09258157 -0.028079223 0.033291675 -0.11629415 -0.06906011 -0.0906462 -0.056220222
-0.02067659 -0.31765592 -0.16668494 -0.08978614 -0.03884133 -0.029730396 -0.0004921877 -0.04570883
-0.061732795 -0.056601014 -0.08649333 -0.033592578 -0.1394356 -0.07368507 0.4532567 -0.067833304
0.55234337 0.1206529 -0.07691255 0.5152326 0.12466919 0.5338856 0.06300667 0.3625743
0.44221005 0.11912158 -0.06672307 0.5179708 0.23008583 -0.0110758925 -0.037598927 -0.04909117
-0.0334721 0.35316512 0.11398185 -0.03659077 -0.05022385 0.1417607 -0.041352894 0.11897728
0.038094185 0.5170442 0.16434172 -0.060365267 -0.002896439 -0.08214369 0.490232 -0.03511045
0.5175356 -0.034357686 0.58962995 -0.091284364 -0.028524932 0.38385972 -0.06673244 0.4826644
-0.055403776 -0.065042816 0.3069193 -0.05094313 -0.21836944 -0.0893059 0.33462754 0.24593131
-0.09865005 0.14744163 -0.09873373 -0.024466613 -0.08031758 -0.07202168 0.32182452 0.09322413
-0.07408959 -0.09846324 -0.10144096 0.70344627 -0.06443279 0.34035453 -0.045107424 -0.09817136
-0.05943366 -0.4207506 0.564867 0.4669534 -0.042937044 -0.036595266 -0.05415567 -0.21273738
0.48477295 -0.0064410754 0.12618099 -0.030309368 -0.096571214 -0.050126277 0.29932675 -0.04391429
-0.014557749 0.47196504 -0.011366997 -0.39577934 0.5236963 -0.033406764 0.47189718 0.024744716
-0.11697363 -0.0614246 -0.040699247 -0.05711941 -0.09017061 -0.043350708 -0.12956664 -0.047194935
-0.07420346 0.31446066 -0.015376043 -0.007730999 -0.09649581 -0.10458906 -0.086763844 -0.088422135
0.42752987 -0.09451463 -0.010035185 -0.10863639 0.21018556 0.19309808 -0.051628742 0.03586514
-0.094176635 -0.031168023 -0.004627652 0.550803 -0.11818859 -0.034366317 -0.082851656 -0.05345476
-0.11772222 -0.06975737 -0.06884429 0.52271295 -0.032078587 -0.13636361 0.38367382 -0.38087338
-0.08114055 -0.0013721256 -0.11249095 -0.32095572 -0.1055439 0.21220261 0.29695255 -0.23455656
0.6015301 -0.41023296 -0.28014994 -0.0219869 -0.083510555 -0.14000396 -0.058816127 -0.052760247
0.26645392 -0.07647285 -0.09466895 -0.04626083 -0.00042200182 -0.010655066 -0.07307787 0.18642637
-0.03414828 -0.058419853 -0.13393396 0.32595804 -0.13393788 -0.06452233 -0.10913219 -0.5989356
0.35352898 0.48754027 -0.14741401 -0.047759615 0.39760077 -0.028027007 -0.08533399 -0.08839525
-0.03308392 -0.069722585 -0.027760327 -0.1371874 -0.06193419 -0.6029296 0.01302626 0.18756987
-0.07347583 -0.77975947 -0.08368981 -0.094978794 -0.081067756 -0.029451173 -0.06406192 -0.07478284
00000000: 97c8 93bd 347b 87bd 6a46 97bd d62b 4dbd
00000010: 55c1 d0bd dbc2 093e f8b7 e7bd 8b25 e33e
00000020: 8806 a7be 68b7 60bd 6ac8 56bd ef3f 3bbe
00000030: c7b9 0c3e 2068 cabd 368f ff3e b515 e7bd
00000040: 0052 293e e7f5 c3bd 53cd 8bbd 3f83 53bc
00000050: 756e 9dbc a813 3abd b234 0ebd 86d2 213f
00000060: d0dc 803e ce19 c0bd 0178 123f 1cc0 ddbd
00000070: a533 633d cbf4 cfbb 3bad 04bd 1ac7 f7bc
00000080: d7e0 9cbe ab20 1fbd 1696 7fbc 7d99 c2bd
00000090: 85d9 ae3e 3b45 b4bc 40d2 79bd d95e 06bd
000000a0: 13e2 3cbd 96f4 c6bc f917 43bd b674 09bb
000000b0: c664 dc3e 3c2c 1d3f d52a 533f 801c 233f
000000c0: e8a3 b53d 689b bdbd 6606 e6bc da5c 083d
000000d0: a12b eebd 636f 8dbd b7a4 b9bd 2d47 66bd
000000e0: f461 a9bc cca3 a2be 75af 2abe cce1 b7bd
000000f0: 1618 1fbd 298d f3bc 2806 01ba 2f39 3bbd
00000100: 87db 7cbd 77d6 67bd 6a23 b1bd 5f98 09bd
00000110: 35c8 0ebe 33e8 96bd 4311 e83e 30ec 8abd
00000120: 6066 0d3f de18 f73d 5484 9dbd 49e6 033f
00000130: 8f52 ff3d baac 083f a409 813d 57a3 b93e
00000140: 5b69 e23e 04f6 f33d 1ba6 88bd bc99 043f
00000150: 9f9b 6b3e a977 35bc 5501 1abd d313 49bd
00000160: 0a1a 09bd 0fd2 b43e 516f e93d 34e0 15bd
00000170: 86b7 4dbd b829 113e a761 29bd 5caa f33d
00000180: a608 1c3d 025d 043f 3249 283e 9241 77bd
00000190: 2fd2 3dbb f33a a8bd b0ff fa3e facf 0fbd
000001a0: 377d 043f a5ba 0cbd fdf1 163f 4cf3 babd
000001b0: 1ead e9bc 4389 c43e 04ab 88bd ca1f f73e
000001c0: 12ef 62bd 2b35 85bd 8724 9d3e bea9 50bd
000001d0: 3d9c 5fbe 03e6 b6bd 4d54 ab3e 6bd5 7b3e
000001e0: 0a09 cabd f0fa 163e e934 cabd 356e c8bc
000001f0: 8b7d a4bd 1a80 93bd 2fc6 a43e 4bec be3d
00000200: 48bc 97bd 18a7 c9bd 47c0 cfbd 0e15 343f
00000210: 57f5 83bd f342 ae3e 90c2 38bd 110e c9bd
00000220: b670 73bd 9f6c d7be 209b 103f 8414 ef3e
00000230: c1de 2fbd ebe4 15bd 56d2 5dbd d4d7 59be
00000240: 2934 f83e a80f d3bb 9735 013e 5a4b f8bc
00000250: 21c7 c5bd 3651 4dbd 5b41 993e 78df 33bd
00000260: a083 6ebc 67a5 f13e a43c 3abc 97a3 cabe
00000270: f610 063f 88d5 08bd 829c f13e 6eb5 ca3c
00000280: df8f efbd 5d98 7bbd 41b4 26bd 0bf6 69bd
00000290: 5eab b8bd 8390 31bd 1ead 04be 7a4f 41bd
000002a0: fcf7 97bd fd00 a13e cceb 7bbc 5254 fdbb
000002b0: 989f c5bd ca32 d6bd 3eb1 b1bd aa16 b5bd
000002c0: 32e5 da3e e390 c1bd 9e6a 24bc c17c debd
000002d0: e23a 573e 81bb 453e a978 53bd 53e7 123d
000002e0: aedf c0bd 1554 ffbc 8fa3 97bb 6d01 0d3f
000002f0: dc0c f2bd b2c3 0cbd 21ae a9bd 61f3 5abd
00000300: 5918 f1bd f4dc 8ebd 3cfe 8cbd 84d0 053f
00000310: d664 03bd e7a2 0bbe e570 c43e d601 c3be
00000320: 042d a6bd e5d8 b3ba a861 e6bd 4f54 a4be
00000330: 6627 d8bd a44b 593e 2a0a 983e 982f 70be
00000340: e0fd 193f 0e0a d2be d06f 8fbe df1d b4bc
00000350: 9507 abbd 335d 0fbe 2ee9 70bd 211b 58bd
00000360: a66c 883e cc9d 9cbd cbe1 c1bd ff7b 3dbd
00000370: 2040 ddb9 9692 2ebc daa9 95bd 8ee6 3e3e
00000380: 11df 0bbd a849 6fbd fc25 09be f9e3 a63e
00000390: 0327 09be 4924 84bd b380 dfbd d853 19bf
000003a0: c001 b53e e19e f93e b3f3 16be 969f 43bd
000003b0: 5492 cb3e e598 e5bc 96c3 aebd 9208 b5bd
000003c0: 0183 07bd b7ca 8ebd a069 e3bc db7a 0cbe
000003d0: b5ae 7dbd 9859 1abf 186c 553c 5112 403e
000003e0: 7f7a 96bd 519e 47bf 9065 abbd 3e84 c2bd
000003f0: da06 a6bd 9643 f1bc e532 83bd bf27 99bd

mean_layer.weight f4 [2, 256]
0.04051101 0.0040793475 0.4297241 -0.003506667 -0.04454824 0.33993176 0.0057826266 0.08750912
0.44853023 0.10010309 -0.049808756 -0.10056722 0.5460103 -0.0034753152 0.1561646 -0.03217167
0.068354495 0.019163426 -0.0029134937 -0.013580479 0.005233943 0.024413161 -2.1394992 -1.384471
-0.07663744 0.039184332 -0.02120871 -0.0015336345 0.18937016 -0.012484296 -0.01153378 0.25403646
0.76256144 -0.0058754287 -0.025176603 -0.0075649493 0.07629138 -0.023636373 0.022536501 0.039599437
-0.010061956 -0.0101598725 0.001027589 -0.036869697 -0.810973 -1.6804658 0.076849125 0.07039479
-1.3145127 -0.054294705 0.016181614 -0.668757 0.0047262707 0.037983283 -0.0014757798 -0.020025322
0.0038765683 0.29525447 1.0345694 0.018272482 0.00053129264 0.018389517 0.06424534 0.02289512
0.011869307 0.019438455 0.011337004 0.020691719 -0.017718047 -0.011498035 -0.11387598 -1.474375
-0.12033861 0.28754413 2.8109477 0.3412002 1.3735045 -0.085326254 -0.19027223 0.18605796
0.24886855 -0.25753197 -0.017240085 -0.34912592 0.27287582 0.0045076064 -0.026341787 -0.08193386
0.08355717 -0.48757336 0.093739994 -0.019869057 0.00026449308 -0.5797625 -0.011417983 0.20849186
-0.3292731 0.26628593 -1.8759519 -0.03728162 -0.0121864155 0.1972999 0.024106728 -0.026120745
-0.6544296 0.016041389 -0.21845903 0.015083318 -0.035357185 -0.51061755 0.023349762 0.05519701
0.033328496 0.020797076 0.25954673 -0.0059290077 -0.33517298 0.015580264 -0.013223252 0.06637795
-0.77418095 0.7989737 -0.035338324 -0.0030807809 0.033700645 -0.05038336 0.52950126 0.30226314
-0.6605925 -0.0034246787 -0.019904649 -0.13895784 0.04844163 0.28267464 -0.015452076 -0.06329234
-0.04354317 -0.32511166 -0.22944161 -0.16484469 -0.05320181 0.0076570855 0.05028747 0.6931057
-0.06058144 -0.038420774 0.2780303 0.0069441223 -0.0024140785 -0.040561303 0.09659201 -0.0029599033
-0.013863181 0.20252015 -0.01475017 -0.83193696 0.3661077 -0.033897825 0.3205959 -0.48795015
-0.0057147727 -0.044371005 -0.0048923027 -0.13499932 -0.022647314 0.012281236 0.17128101 0.022125546
0.016221475 0.5191789 -0.02538222 -0.03946406 -0.005968025 0.034622114 -0.014866488 -0.010793705
-0.08213812 -0.04474311 -1.6133065 -0.028876273 -0.37022632 0.3127526 -0.040097285 -3.228111
-0.46121082 -0.020566365 -0.018669441 -0.2728822 3.7022117e-05 0.029874405 -0.015126889 -0.021715738
0.9691434 -0.008603479 -0.0004485911 -3.017441 -0.045571167 -0.10557036 0.14907621 0.9231805
0.04644596 0.84857476 -0.022511521 -1.4391365 0.0019983978 -2.9791386 -0.20830785 -0.27058086
0.35086817 -0.9194263 -0.80625093 0.019536104 -0.015680997 0.017404294 0.8091739 -0.032861598
0.3473313 -0.020086057 0.014911438 -0.028105715 0.2062188 0.0060823867 -0.036505494 0.52432775
-0.04388888 -0.031352583 -0.04426452 0.32839185 0.042848766 -0.00904269 -0.047530245 0.115929104
0.33786973 0.047324933 -0.051340234 0.032092772 -1.3455824 -0.08671309 -0.018289601 -0.016278828
-0.01868488 -0.053666923 0.03562147 -0.046464827 -0.014412204 -0.5929425 -0.0135832885 -0.46169832
-0.021350117 -0.8910051 0.042820618 0.0126228575 0.025018495 -0.100820206 0.05057009 0.02784753
00000000: dfee 253d 0cac 853b cc04 dc3e 1cd0 65bb
00000010: 3778 36bd 890b ae3e 307c bd3b fb37 b33d
00000020: c1a5 e53e d902 cd3d 4404 4cbd 30f6 cdbd
00000030: 55c7 0b3f 1dc2 63bb 9de9 1f3e 71c6 03bd
00000040: 71fd 8b3d 9efc 9c3c 50f0 3ebb a880 5ebc
00000050: 7f81 ab3b 1cfe c73c 8eed 08c0 5936 b1bf
00000060: 17f4 9cbd c07f 203d e3bd adbc 3c04 c9ba
00000070: 40ea 413e ef8a 4cbc 2ef8 3cbc 1111 823e
00000080: 3a37 433f ab86 c0bb 2a3f cebc 65e3 f7bb
00000090: a83e 9c3d 11a1 c1bc 789e b83c 0533 223d
000000a0: e7da 24bc 9875 26bc 2ab0 863a ae04 17bd
000000b0: ed9b 4fbf 8119 d7bf 1363 9d3d 252b 903d
000000c0: f441 a8bf 2064 5ebd 4e8f 843c a933 2bbf
000000d0: d5de 9a3b 5c94 1b3d f46e c1ba 250c a4bc
000000e0: 060e 7e3b 982b 973e c56c 843f 2cb0 953c
000000f0: 7246 0b3a 9da5 963c 1093 833d 8c8e bb3c
00000100: 7b77 423c 653d 9f3c d7be 393c ae81 a93c
00000110: 7025 91bc 4162 3cbc cf37 e9bd 52b8 bcbf
00000120: 1774 f6bd fc38 933e 91e6 3340 cbb1 ae3e
00000130: ffce af3f 88bf aebd b9d6 42be fa85 3e3e
00000140: 66d7 7e3e 3bdb 83be 143b 8dbc a2c0 b2be
00000150: 61b6 8b3e 8bb4 933b bbca d7bc f1cc a7bd
00000160: 0620 ab3d 37a3 f9be c1fa bf3d 6fc4 a2bc
00000170: a9ab 8a39 516b 14bf 7e12 3bbc e47e 553e
00000180: 7c96 a8be a156 883e 311f f0bf 9db4 18bd
00000190: 88a9 47bc fc08 4a3e 797b c53c 2cfb d5bc
000001a0: b388 27bf 3b69 833c b9b3 5fbe 0520 773c
000001b0: b2d2 10bd d5b7 02bf 0048 bf3c 4316 623d
000001c0: 7683 083d a15e aa3c 4fe3 843e 1f48 c2bb
000001d0: cb9b abbe 5d44 7f3c 57a6 58bc 2af1 873d
000001e0: b930 46bf 8a89 4c3f ebbe 10bd ede6 49bb
000001f0: b009 0a3d c85e 4ebd 658d 073f 3cc2 9a3e
00000200: 971c 29bf 9370 60bb 130f a3bc f74a 0ebe
00000210: bb6a 463d bbba 903e b42a 7dbc 6a9f 81bd
00000220: 535a 32bd 0975 a6be bef2 6abe 0ccd 28be
00000230: 24ea 59bd 4ae8 fa3b 3cfa 4d3d 606f 313f
00000240: 3e24 78bd 1a5f 1dbd fd59 8e3e 858b e33b
00000250: 8435 1ebb 9c23 26bd 08d2 c53d f0fa 41bb
00000260: 6522 63bc 7161 4f3e b2aa 71bc d2f9 54bf
00000270: 7872 bb3e 72d8 0abd 2525 a43e 9ad4 f9be
00000280: fd42 bbbb 5fbe 35bd 9c4f a0bb 433d 0abe
00000290: dc86 b9bc 3d37 493c 4a64 2f3e a240 b53c
000002a0: e6e2 843c e9e8 043f 60ee cfbc 11a5 21bd
000002b0: 6c8f c3bb ebcf 0d3d 9292 73bc 14d8 30bc
000002c0: 0838 a8bd 8d44 37bd d480 cebf ef8d ecbc
000002d0: 4e8e bdbe 1c21 a03e 0d3d 24bd 5f99 4ec0
000002e0: d323 ecbe cb7a a8bc a8f0 98bc 37b7 8bbe
000002f0: 3248 1b38 2bbb f43c c5d6 77bc 34e5 b1bc
00000300: c819 783f 9bf5 0cbc e130 ebb9 c11d 41c0
00000310: d5a8 3abd 4635 d8bd 6fa7 183e 8f55 6c3f
00000320: 1e3e 3e3d 323c 593f 156a b8bc a035 b8bf
00000330: 8df7 023b 35aa 3ec0 a74e 55be 9389 8abe
00000340: fea4 b33e 865f 6bbf 7666 4ebf 2e0a a03c
00000350: 6f75 80bc 7393 8e3c 0526 4f3f e299 06bd
00000360: 68d5 b13e 848b a4bc 1b4f 743c f53d e6bc
00000370: 052b 533e c24e c73b c986 15bd 583a 063f
00000380: d4c4 33bd 916b 00bd b74e 35bd fa22 a83e
00000390: 3082 2f3d ca27 14bc 13af 42bd 3d6c ed3d
000003a0: 43fd ac3e cad7 413d 234a 52bd b673 033d
000003b0: 0b3c acbf a296 b1bd 13d4 95bc 2d5b 85bc
000003c0: 0911 99bc d9d1 5bbd d2e7 113d e751 3ebd
000003d0: 2a21 6cbc 14cb 17bf 718c 5ebc b963 ecbe
000003e0: 71e6 aebc e918 64bf ac64 2f3d 1ad0 4e3c
000003f0: 96f3 cc3c d37a cebd 9522 4f3d 8120 e43c

mean_layer.bias f4 [2]
0.10968556 -0.111574836
00000000: d3a2 e03d 5981 e4bd

log_std_layer.weight f4 [2, 256]
0.074022226 0.030890575 -0.052016426 0.072417624 0.0108584715 0.18324673 -0.030758215 0.038015038
0.05373586 -0.21088712 -0.04218815 0.23490357 -0.04936424 0.03931231 0.009704858 -0.051668294
-0.05561703 0.030024199 -0.020992732 -0.017384758 0.0053838324 0.0687608 0.09275989 0.23287912
0.06224872 0.09369088 -0.097993344 -0.00912553 -0.11853007 0.034601126 0.06515142 0.02162444
0.91800946 0.024132635 0.05812662 0.04304787 -0.039554026 -0.0076399646 -0.00691088 0.034565214
0.021507429 0.073936686 0.0037165894 -0.014332909 -0.12863775 1.0608543 -0.0057011973 -0.01735957
0.29065132 -0.034687765 0.025513738 0.031491462 0.044729576 0.036917977 0.026445352 0.025617946
0.008485236 -0.03717352 0.01698394 0.0019133026 -0.007873298 0.065107554 -0.06106491 0.023460083
0.061390966 -0.08047417 0.025098227 -0.02716516 0.03404533 0.04019205 0.012983744 0.57845044
-0.06181531 0.12551771 0.43384257 0.03565034 0.76910526 -0.015154909 0.20706211 -0.01532468
0.051760856 -0.14407872 -0.042044025 0.05049717 0.26003194 0.07742781 0.046851445 0.027151141
0.04874337 -0.102475844 -0.031990223 0.022766719 -0.0032416584 0.047669683 0.013390967 0.06586883
0.15564893 0.027608423 1.0020111 0.019698504 0.09109901 0.15345249 0.06074328 0.0060980003
-0.20968668 -0.005950069 -0.0042626667 -0.047020137 0.07086072 0.084115565 0.08663266 -0.017755779
-0.01992224 -0.021444453 -0.030606084 0.009580743 -0.05079604 0.005726553 -0.1298332 0.019678839
-0.037462305 0.2201019 -0.02371239 0.058701422 0.0029543885 -0.02216781 0.14250024 0.0033656347
-0.5486806 0.002831913 0.050316986 -0.35213867 0.043173857 0.04780068 -0.061692607 0.029904949
-0.06665458 0.06065725 0.046210308 0.1588231 0.061625402 -0.0005701792 -0.030332597 0.168419
-0.016753456 0.07608252 -0.025856808 -0.0008045444 0.018460428 0.019838633 -0.032651823 -0.03998987
0.014545117 -0.2773991 -0.024322238 0.32852948 0.18403386 -0.021189397 0.08072258 -0.04161483
-0.037537407 -0.059710324 -0.005078143 -0.004604294 0.04374276 -0.054156728 -0.13128746 -0.042773794
-0.025143746 0.22024004 0.033202812 -0.059049852 -0.022933962 0.022964548 0.044106297 0.04485297
0.0011886721 -0.013317387 0.35896066 0.046533328 -0.09229969 -0.033783395 -0.015373731 0.15950438
-0.13248806 0.035268594 0.02007073 0.11433003 -0.0011742474 -0.0020146784 -0.047382962 -0.0054288185
0.042091597 0.017045448 -0.040963415 0.3322765 -0.062266994 -0.024591507 -0.005532723 0.02624854
0.0056218635 0.24525417 0.015677107 0.37048963 0.047773752 0.6073537 -0.048149027 0.025887411
0.14038494 0.51456773 0.25294298 0.039405666 -0.020305432 0.07896631 0.13517773 0.08783666
0.028939249 0.03768024 -0.03407197 0.08348514 0.021871448 0.088429734 0.005462671 0.005957144
-0.015984735 0.04355127 0.018790849 -0.010968779 -0.10533611 -0.003448748 0.053156815 0.20603356
0.070872225 0.0514769 0.002441138 -0.025392577 -0.13223006 0.06811471 0.03965903 0.048652586
-0.0041474863 0.023346482 0.07494101 0.06868947 -0.014199301 -0.14345261 -0.036833275 0.117141835
0.12318428 0.2868749 -0.0011408642 0.03875041 -0.028856903 -0.003763584 -0.028916102 -0.012523183
00000000: f798 973d 3b0e fd3c 2d0f 55bd b14f 943d
00000010: bbe7 313c 08a5 3b3e a7f8 fbbc a8b5 1b3d
00000020: 221a 5c3d cbf2 57be 7bcd 2cbd 908a 703e
00000030: 2832 4abd f205 213d 2001 1f3c 22a2 53bd
00000040: afce 63bd 4ff5 f53c f3f8 abbc 7b6a 8ebc
00000050: dc6a b03b 76d2 8c3d e6f8 bd3d dd77 6e3e
00000060: 84f8 7e3d 01e1 bf3d bcb0 c8bd 3f83 15bc
00000070: e5bf f2bd e9b9 0d3d 1c6e 853d bd25 b13c
00000080: ab02 6b3f ceb1 c53c 2e16 6e3d f752 303d
00000090: 6703 22bd ab58 fabb aa74 e2bb 4194 0d3d
000000a0: 5930 b03c 1e6c 973d 0692 733b 94d4 6abc
000000b0: 9db9 03be 13ca 873f 1cd1 babb a835 8ebc
000000c0: 40d0 943e c214 0ebd 3002 d13c 31fd 003d
000000d0: 5c36 373d 4e37 173d eca3 d83c badc d13c
000000e0: a905 0b3c 4343 18bd e721 8b3c c8c7 fa3a
000000f0: 01ff 00bc 1c57 853d 331f 7abd 5c2f c03c
00000100: 1875 7b3d a4cf a4bd cc9a cd3c 7889 debc
00000110: 1e73 0b3d 6ba0 243d c5b9 543c 5415 143f
00000120: 0d32 7dbd b787 003e 9d20 de3e 1706 123d
00000130: 15e4 443f 4c4c 78bc 1708 543e 5e14 7bbc
00000140: 3103 543d 5f89 13be 5b36 2cbd 1fd6 4e3d
00000150: e822 853e 7992 9e3d 4de7 3f3d 126c de3c
00000160: 21a7 473d dbde d1bd 2e08 03bd 4581 ba3c
00000170: 0172 54bb 4941 433d c965 5b3c 3de6 863d
00000180: 6f62 1f3e 0f2b e23c e641 803f c25e a13c
00000190: 1e92 ba3d a622 1d3e f2cd 783d bcd1 c73b
000001a0: 1bb8 56be ccf8 c2bb d7ad 8bbb 3098 40bd
000001b0: 6d1f 913d c844 ac3d 776c b13d 9174 91bc
000001c0: f733 a3bc 47ac afbc 9cb9 fabc 8cf8 1c3c
000001d0: 820f 50bd cfa5 bb3b fff2 04be 8435 a13c
000001e0: 1372 19bd 6462 613e 7c40 c2bc e770 703d
000001f0: 6a9e 413b 4499 b5bc 95eb 113e fb91 5c3b
00000200: 5576 0cbf 9e97 393b 2f19 4e3d 854b b4be
00000210: 12d7 303d a5ca 433d 63b1 7cbd 39fb f43c
00000220: 3282 88bd bd73 783d 0547 3d3d 86a2 223e
00000230: eb6a 7c3d 1478 15ba 117c f8bc 0876 2c3e
00000240: 8b3e 89bc 27d1 9b3d a8d1 d3bc 10e8 52ba
00000250: 533a 973c a184 a23c ebbd 05bd 6bcc 23bd
00000260: a44e 6e3c 4107 8ebe 6e3f c7bc 0435 a83e
00000270: 5f73 3c3e 6395 adbc e151 a53d 5074 2abd
00000280: d3c0 19bd d092 74bd 8d66 a6bb 9edf 96bb
00000290: 9c2b 333d 72d3 5dbd 3870 06be 9333 2fbd
000002a0: 42fa cdbc 9b86 613e acff 073d 42de 71bd
000002b0: 01e0 bbbc 2620 bc3c cea8 343d bfb7 373d
000002c0: 38cd 9b3a 2b31 5abc b1c9 b73e bb99 3e3d
000002d0: 9f07 bdbd 7560 0abd 1ae2 7bbc 1e55 233e
000002e0: f3aa 07be cd75 103d 5f6b a43c dd25 ea3d
000002f0: 34e9 99ba b208 04bb a314 42bd 3be4 b1bb
00000300: 3d68 2c3d e5a2 8b3c 41c9 27bd 2520 aa3e
00000310: ad0b 7fbd 2174 c9bc d84b b5bb 2e07 d73c
00000320: 9c37 b83b e923 7b3e 476d 803c d1b0 bd3e
00000330: 69ae 433d 887b 1b3f ea37 45bd d611 d43c
00000340: 12c1 0f3e b6ba 033f be81 813e d667 213d
00000350: 9457 a6bc 17b9 a13d 086c 0a3e b5e3 b33d
00000360: 0112 ed3c 9856 1a3d 0d8f 0bbd 42fa aa3d
00000370: c02b b33c a61a b53d 3500 b33b 2534 c33b
00000380: 6bf2 82bc d162 323d 44ef 993c 65b6 33bc
00000390: 75ba d7bd 6404 62bb f6ba 593d 76fa 523e
000003a0: 7525 913d 71d9 523d 80fb 1f3b 1804 d0bc
000003b0: 5167 07be ba7f 8b3d 8271 223d ef47 473d
000003c0: a3e7 87bb 1f41 bf3c ac7a 993d 11ad 8c3d
000003d0: 2fa4 68bc 3ee5 12be 7dde 16bd 0fe8 ef3d
000003e0: 0a48 fc3d 44e1 923e 0d89 95ba c0b8 1e3d
000003f0: 5065 ecbc 76a6 76bb 76e1 ecbc 092e 4dbc

log_std_layer.bias f4 [2]
-1.0472236 -1.479337
00000000: 6c0b 86bf ea5a bdbf
