eval_files/models/parking/models/_critic.pth (torch, 562433 bytes, 10 tensors)

l1.weight f4 [256, 14]
0	0x3f182c55	0.59442645
1	0xbfdf3a89	-1.7439739
2	0xbd720831	-0.059089843
3	0x3e35c6bb	0.17751591
4	0x3de054d8	0.10953683
5	0x3dfe18fc	0.12407109
6	0x3ede6c20	0.43441868
7	0x3e2c7bb8	0.1684407
8	0xbe309244	-0.17243296
9	0x3e6e3ac1	0.232646
10	0xbc0d6a74	-0.008631337
11	0x3e94dd8e	0.29075283
12	0xbdf53d6c	-0.11974606
13	0xbd5b0595	-0.05347212
14	0xbedba654	-0.42900336
15	0xc07f604c	-3.9902525
16	0xbca8d25d	-0.020608122
17	0xbba78854	-0.005112687
18	0x3dd8ce1b	0.105861865
19	0x3e4140e3	0.18872409
20	0x3e8b3bdd	0.2719411
21	0x3d1f544b	0.038898747
22	0xbea6634b	-0.3249763
23	0xbede6ec4	-0.43443882
24	0xbcfc6bb0	-0.030813068
25	0x3eacb7f2	0.3373409
26	0xbd243d1b	-0.040097337
27	0xbb3029fa	-0.0026880489
28	0xbf1b2971	-0.6061011
29	0x405cd7c3	3.450669
30	0xbcdec4b8	-0.027193412
31	0xbe18c788	-0.14919865
32	0x3d830791	0.063979276
33	0x3d6906a1	0.056891087
34	0xbe3454a4	-0.17610413
35	0xbdc926ef	-0.09821879
36	0xbef53536	-0.4789216
37	0x3ec55dcc	0.38548124
38	0x3f20c9a2	0.6280767
39	0x3dc69190	0.096957326
40	0xbd2687ee	-0.040656976
41	0x3d065a7f	0.032801148
42	0xbe8ce0a3	-0.27515134
43	0xbf6d797d	-0.927635
44	0x3e9b0172	0.3027454
45	0x3eee7561	0.46573928
46	0xbe969f02	-0.29418188
47	0xbe1282b8	-0.14307678
48	0xbfb31be2	-1.3992884
49	0xbd9d6a67	-0.0768631
50	0x3d13678e	0.03598743
51	0x3eb70c34	0.35751498
52	0x3e254c5b	0.16142409
53	0xbe6e4111	-0.23267008
54	0xbd9cc228	-0.0765422
55	0xbd89d4f7	-0.06730073
56	0x3f4a6664	0.79062486
57	0xbfa2d27b	-1.2720484
58	0xbcd62f07	-0.026145471
59	0x3e7f42a0	0.24927759
60	0xbe1a89a4	-0.15091568
61	0x3d9e1b59	0.0772006
62	0xbf9ad344	-1.2095723
63	0x3f3d5ebf	0.73972696
64	0xbee5ccda	-0.44882852
65	0xbd572b34	-0.052531436
66	0xbe2b6e1f	-0.16741227
67	0xbe035384	-0.12824827
68	0xbdadecc0	-0.08492422
69	0xbd0ba584	-0.034093395
70	0xbf84a619	-1.0363189
71	0xbf80b527	-1.0055283
72	0x3dd63d8c	0.10460958
73	0x3e12b692	0.14327458
74	0xbb808a83	-0.003922762
75	0x3e889437	0.2667558
76	0xbd4761e2	-0.048677333
77	0xbef6038c	-0.4804958
78	0xbde4e7ea	-0.111770466
79	0x3e123d2f	0.14281152
80	0x3d75f833	0.060051154
81	0xbe034cfd	-0.12822337
82	0x3d17869a	0.0369936
83	0x3e5ca976	0.21549019
84	0xbec09579	-0.3761404
85	0xbfe1f449	-1.7652675
86	0xbe75f60a	-0.24019638
87	0x3da735b8	0.08164543
88	0x3eadf7ff	0.33978269
89	0x3eaf263a	0.34208852
90	0xbf0e46fa	-0.5557705
91	0x3e77185e	0.24130389
92	0x3ea39b46	0.31954402
93	0x3dfe45a5	0.124156274
94	0x3bdccb0b	0.006738072
95	0xbdfcfd27	-0.123529725
96	0x3cd3f083	0.02587152
97	0xbe907c8b	-0.2822002
98	0xbf1721bb	-0.59035844
99	0xbe1235a1	-0.1427827
100	0xbe0e7278	-0.13910854
101	0x3d9b4825	0.0758212
102	0x3e6690c3	0.2251616
103	0xbf0e62ac	-0.5561931
104	0xbfa363db	-1.2764848
105	0x3ab9ef68	0.0014185729
106	0x3e00a570	0.1256311
107	0xbed198a2	-0.40936762
108	0xbcc13a69	-0.023587422
109	0xbed54503	-0.41654214
110	0x3d25f843	0.040519964
111	0xbc5bbce7	-0.013411737
112	0x3f8cc722	1.099827
113	0xbedf2d43	-0.4358922
114	0xbdfe5f60	-0.12420535
115	0x3e0ef64f	0.13961147
116	0x3e935652	0.28776795
117	0xbe0a7261	-0.13520195
118	0x3e650410	0.22364831
119	0xbe92553e	-0.2858066
120	0x3cb3e91c	0.021961741
121	0x3efa15e3	0.48844823
122	0xbf24dfaa	-0.64403784
123	0xbd8ea84b	-0.06965693
124	0xbc47cb5a	-0.012194479
125	0x3d5f75a3	0.054555546
126	0xbf60160c	-0.8753364
127	0x3f651eb0	0.8949995
128	0x3d2dc1f3	0.042421293
129	0xbe0081bd	-0.12549491
130	0xbe1fda53	-0.15610628
131	0x3e66b5f8	0.22530353
132	0x3f80cb4d	1.0062042
133	0xbf0cf6ce	-0.55064094
134	0x3eaad26a	0.33363658
135	0x3ee46f3d	0.44616118
136	0x3e02f5dd	0.12789102
137	0xbdf37bbc	-0.11888835
138	0xbc9ed2b8	-0.019387588
139	0x3d60bc6f	0.054867204
140	0x3f3c5722	0.73570454
141	0xbe351991	-0.17685534
142	0x3d8f117a	0.06985755
143	0x3d1d56b3	0.03841276
144	0xbb0d1d77	-0.0021532455
145	0xbf189117	-0.5959639
146	0xc011d85d	-2.2788308
147	0x3e9644e0	0.29349422
148	0xbd9413d2	-0.07230343
149	0xbc421539	-0.01184588
150	0xbeb71ffd	-0.35766593
151	0x3e21fe26	0.15819606
152	0xbdd7336a	-0.10507853
153	0xbc7cedb5	-0.015437533
154	0x3ece61d1	0.40309003
155	0xc022530e	-2.5363193
156	0xbe4621a0	-0.19348764
157	0xbe71eb8c	-0.2362501
158	0xbe72b2f4	-0.23701078
159	0x3f1e45d8	0.61825323
160	0x3fa50e51	1.2894994
161	0xbe9b2944	-0.3030492
162	0xbdd1d478	-0.10245603
163	0x3c8f1a5b	0.017468622
164	0x3e154655	0.14577611
165	0x3e13df83	0.14440732
166	0xbc8bc689	-0.017062442
167	0xbd0e5c5d	-0.034756053
168	0x3fd27201	1.6441041
169	0xbec56eb4	-0.38561022
170	0x3ea99c07	0.33126852
171	0x3d15580a	0.036460914
172	0xbf4e1a32	-0.8050872
173	0xbeb5780c	-0.3544315
174	0x3ea1cbda	0.3160084
175	0x3f944326	1.1582992
176	0x3e6756d6	0.22591719
177	0x3d042108	0.032258064
178	0x3f59f203	0.85134906
179	0xbdfa91d5	-0.122348465
180	0xbed2d111	-0.4117513
181	0x3df40041	0.11914111
182	0x3e6dc81f	0.23220871
183	0x3ff1855e	1.8868825
184	0xbd190d76	-0.037366353
185	0x3e1e589d	0.15463491
186	0x3e8bea96	0.27327412
187	0x3defd483	0.11710455
188	0x3ea036bd	0.31291762
189	0xbed5e831	-0.4177871
190	0x3e389a5a	0.1802763
191	0x3eefedee	0.46861213
192	0xbe4a8a86	-0.19779405
193	0x3e4ffbaf	0.20310853
194	0x3e1dd0d6	0.15411696
195	0xbdd07f7b	-0.10180565
196	0xbfc15522	-1.5104105
197	0xbf5f8db7	-0.87325615
198	0x3d5ef238	0.054430217
199	0x3c94d940	0.01817
200	0xbe43cca0	-0.19121027
201	0x3e2dbed2	0.16967323
202	0x3f2886df	0.65830797
203	0x3efcacd2	0.493506
204	0xbe0cf9ce	-0.13767168
205	0x3c8b7fad	0.017028654
206	0xbf1d7bb0	-0.6151686
207	0x3df741b1	0.120730765
208	0x3d3ad818	0.04561624
209	0x3e46e5ee	0.19423649
210	0x3ebdf4c0	0.37100792
211	0xbf539539	-0.8264957
212	0x3dfe4ea5	0.12417344
213	0xbe44816c	-0.19189996
214	0xbce232ad	-0.027612055
215	0xbe87ded4	-0.26537192
216	0xbebac742	-0.36480147
217	0x3f5c2e63	0.8600828
218	0x3ead9655	0.33903757
219	0x3dc4742a	0.09592469
220	0x3e447e07	0.191887
221	0x3efedb02	0.49776465
222	0xbe03e2ad	-0.12879439
223	0xbd4ac87f	-0.049507614
224	0x3f2165f8	0.63046217
225	0xbe7bd126	-0.24591503
226	0xbd51b9ca	-0.051202573
227	0xbe2c76db	-0.16842215
228	0xbd4648d8	-0.048409313
229	0xbd6b4f08	-0.057448417
230	0xbfcc1c69	-1.594617
231	0x3f00fa5c	0.5038202
232	0x3ed0be8a	0.4077037
233	0xbd380783	-0.04492904
234	0x3ecdc27d	0.40187445
235	0x3dabcb5a	0.083883956
236	0xbd4b0a9f	-0.049570676
237	0xbd8e5c84	-0.0695124
238	0x3f3a310c	0.7273109
239	0x3f55a677	0.8345713
240	0xbef716ad	-0.48259488
241	0x3e7c9c70	0.24669051
242	0x3f6d9837	0.92810386
243	0x3d208bb0	0.039195716
244	0x3ea754df	0.3268194
245	0x3e9372d4	0.28798544
246	0x3e349213	0.17633848
247	0xbe358db7	-0.17729841
248	0xbe8e0fb2	-0.2774635
249	0xbe04743e	-0.12934968
250	0xbe9c8642	-0.3057118
251	0x3d2f954b	0.042866986
252	0x3ee6fe07	0.45115682
253	0x3fa21863	1.2663692
254	0x3d9f6bf9	0.07784266
255	0x3e8eaeb7	0.27867672

l1.bias f4 [256]
0	0xbec744aa	-0.38919574
1	0xbb0efdf5	-0.002181885
2	0xbf0504eb	-0.5196063
3	0xbed3edf3	-0.41392478
4	0xbd9df81a	-0.07713337
5	0xbe847c28	-0.25875974
6	0xbf2899ef	-0.65859884
7	0xbe9daa84	-0.30794156
8	0x3df28f5b	0.11843749
9	0x3e2fdf91	0.17175128
10	0xbebf26d3	-0.37334308
11	0xbf1b8646	-0.6075176
12	0xbf351fe7	-0.70751804
13	0xbf0cf04d	-0.5505417
14	0xbe1d3918	-0.15353811
15	0xbe78645a	-0.24257031
16	0xbe1e0ded	-0.15435
17	0xbf3fc895	-0.7491544
18	0xbed35413	-0.4127508
19	0xbf157db1	-0.58394915
20	0xbf448898	-0.76770926
21	0xbee609c1	-0.44929317
22	0xbe487906	-0.19577417
23	0xbe2df0a9	-0.16986336
24	0xbdf220be	-0.11822651
25	0xbe775f9b	-0.24157564
26	0xbf06cefa	-0.5265957
27	0xbbcc4bbd	-0.0062346146
28	0xbc2841f4	-0.010269631
29	0xbed3bd3b	-0.4135531
30	0xbebbbb6c	-0.3666643
31	0xbf1f93c5	-0.62334853
32	0xbea1f485	-0.31631866
33	0xbeabdcf6	-0.33567017
34	0xbed31e70	-0.4123416
35	0xbedd17c2	-0.43182188
36	0x3f0d5554	0.55208325
37	0xbf13ee52	-0.5778552
38	0xbe3d1915	-0.184666
39	0xbe4b7b5e	-0.1987128
40	0xbeab041d	-0.33401576
41	0x3de0d8a1	0.10978819
42	0xbec5f6d0	-0.38664865
43	0xbe96530a	-0.2936023
44	0xbf0e6917	-0.55629104
45	0xbe97c478	-0.2964208
46	0xbefb2936	-0.4905488
47	0xbe4d293d	-0.20035262
48	0xbe997a3f	-0.2997608
49	0xbed57270	-0.4168887
50	0xbe8a0c4f	-0.26962516
51	0xbf0e8a45	-0.5567973
52	0xba8df77c	-0.0010831202
53	0xbea13d04	-0.31491864
54	0x3d386a37	0.04502317
55	0xbe4f91b7	-0.2027043
56	0xbf3e117a	-0.7424542
57	0x3ce09d5f	0.02741879
58	0xbeda9366	-0.4269058
59	0xbd125311	-0.03572375
60	0xbeeae463	-0.4587737
61	0xbe63d93d	-0.22250839
62	0xbe91ef95	-0.285031
63	0xbf16f12c	-0.5896175
64	0xbdb01c7c	-0.08599183
65	0xbf243a20	-0.6415119
66	0x3dbdb752	0.09263481
67	0xbe94e9b3	-0.29084548
68	0xbf2972d5	-0.66190845
69	0xbeff513e	-0.4986667
70	0xbf193d8e	-0.5985955
71	0xbf38f6ea	-0.7225176
72	0x3cb84b9e	0.022496995
73	0xbf73fbfb	-0.95306367
74	0xbe0fc03e	-0.14038178
75	0xbe7d39c1	-0.24729063
76	0xbedaf358	-0.42763782
77	0xbf2af300	-0.6677704
78	0xbe52a341	-0.20570089
79	0xbf2a52f3	-0.6653282
80	0xbeef0e89	-0.46690777
81	0xbed76589	-0.42069653
82	0xbbf4eaea	-0.007474293
83	0xbf0d8e6e	-0.55295455
84	0xbe7f7133	-0.24945526
85	0xbe6b0fa0	-0.22955179
86	0xbe44f02e	-0.19232246
87	0xbea6fc35	-0.32614294
88	0xbe8dcb68	-0.2769425
89	0x3ce3804b	0.027771136
90	0xbe3b1d31	-0.18272854
91	0xbf1189f9	-0.56851155
92	0xbe0a533b	-0.13508312
93	0xbe9e9b9b	-0.30978093
94	0xbe088505	-0.13331993
95	0xbefba0c3	-0.4914609
96	0xbf0f2751	-0.5591937
97	0xbf295a3d	-0.6615332
98	0xbea4bcc0	-0.32175255
99	0xbf4f5da1	-0.8100224
100	0xbf3d967e	-0.7405776
101	0xbf0657cd	-0.52477723
102	0xbe47174c	-0.19442481
103	0xbf127ea4	-0.5722449
104	0xbdc453d3	-0.09586301
105	0xbf003e11	-0.50094706
106	0xbecccaa8	-0.39998364
107	0xbe60f07e	-0.2196674
108	0xbee28b0f	-0.44246718
109	0xbf00fd99	-0.5038696
110	0xbf0007dd	-0.50012
111	0xbeb86897	-0.36017296
112	0xbe199c86	-0.15001115
113	0xbe54f13b	-0.20795147
114	0xbf14fc76	-0.58197725
115	0xbf0a6f43	-0.5407602
116	0xbf3de9e4	-0.74185014
117	0x3ace4613	0.0015737436
118	0xbbaa06a1	-0.0051887785
119	0xbd58df52	-0.05294735
120	0xbeb9998b	-0.36249956
121	0xbf138cac	-0.57636523
122	0xbe89aecf	-0.2689118
123	0xbeadcead	-0.33946744
124	0xbf041beb	-0.516051
125	0x3ea7d8a5	0.32782474
126	0xbf3dd777	-0.741569
127	0xbedaeee2	-0.42760378
128	0xbf41708c	-0.7556236
129	0xbedc4577	-0.43021747
130	0xbf428155	-0.75978595
131	0xbe37d119	-0.17950858
132	0xbeaec06b	-0.34131178
133	0xbf2a764b	-0.6658675
134	0xbe8f85e0	-0.28031826
135	0xbe7a4fe3	-0.24444537
136	0xbd088c39	-0.03333685
137	0xbe36a9b1	-0.1783817
138	0xbe9994b9	-0.2999628
139	0xbe625861	-0.22104026
140	0xbe542a69	-0.20719303
141	0xbd6b0d7e	-0.057385914
142	0x3d1baba2	0.03800548
143	0x3d1ef696	0.03880938
144	0xbedd74e9	-0.43253258
145	0xbf2a439d	-0.6650942
146	0xbed2079a	-0.41021425
147	0xbec6fe4e	-0.38865894
148	0xbf2e4373	-0.6807167
149	0xbd9d25f4	-0.076732546
150	0xbe28b0bf	-0.16473673
151	0xbf14ffab	-0.5820262
152	0xbeb8d5b7	-0.3610055
153	0xbe8573f3	-0.26065025
154	0x3ec158a6	0.37762946
155	0xbef01de2	-0.468978
156	0xbe709df0	-0.23497748
157	0xbe6e0754	-0.23244983
158	0xbde084bb	-0.10962816
159	0xbe1f8834	-0.15579301
160	0xbce00520	-0.027346194
161	0xbebaaaa5	-0.36458316
162	0xbe518e6e	-0.20464489
163	0xbec7dac0	-0.3903408
164	0xbea14f54	-0.31505835
165	0xbd6a9751	-0.057273213
166	0xbf2bd8f3	-0.67127913
167	0xbeb5df6c	-0.3552202
168	0xbd807580	-0.06272411
169	0xbb85e208	-0.004085783
170	0xbf245139	-0.64186436
171	0xbe18ace3	-0.14909701
172	0xbe23c377	-0.15992533
173	0xbf33e9f4	-0.7027886
174	0xbe68fa23	-0.2275167
175	0xbc1f9351	-0.009739713
176	0xbd8a39c3	-0.067492984
177	0xbebea74a	-0.37237006
178	0x3ea8b189	0.3294795
179	0xbc177037	-0.009243063
180	0xbe42ae31	-0.19011761
181	0x3e511529	0.20418228
182	0xbdfe34b7	-0.12412398
183	0xbea54e3c	-0.3228625
184	0xbf262585	-0.64901
185	0xbf30f1bd	-0.69118863
186	0xbed992c1	-0.42494777
187	0xbe9d224b	-0.30690226
188	0xbf067690	-0.5252466
189	0xbeabbafe	-0.335411
190	0xbe748f76	-0.23882851
191	0xbe9af34b	-0.30263743
192	0xbdb645f4	-0.08900061
193	0xbeb71743	-0.35759935
194	0x3d57524c	0.05256872
195	0xbec7fb65	-0.39058986
196	0xbe030d96	-0.12798151
197	0xbe33df3d	-0.17565627
198	0xbec8995b	-0.391795
199	0xbe801086	-0.25012606
200	0xbec3a58c	-0.3821224
201	0xbedbb9a1	-0.4291506
202	0xbeecc644	-0.46245015
203	0x3d8244ac	0.06360754
204	0xbecc8782	-0.39947134
205	0xbe701c8a	-0.23448387
206	0xbf618519	-0.88093716
207	0xbe99d0c6	-0.30042094
208	0xbf2c39d2	-0.67275727
209	0xbcf8459d	-0.030306632
210	0xbdd18eb1	-0.10232294
211	0xbe9f85dc	-0.31156814
212	0xbf105bd0	-0.56390095
213	0x3d8b1ebd	0.06792972
214	0xbee578a6	-0.4481861
215	0xbf0e42d1	-0.55570704
216	0xbe6e7ca2	-0.23289731
217	0xbe5b5632	-0.214196
218	0xbddf5359	-0.10904569
219	0xbed5a334	-0.41726077
220	0xbec0456d	-0.37552968
221	0xbf28e9e3	-0.6598188
222	0xbe951a3a	-0.29121572
223	0xbdcfe999	-0.10151977
224	0xbe905931	-0.28193048
225	0xbdc29613	-0.09501281
226	0xbe186c3f	-0.14885043
227	0xbe939ffd	-0.28833
228	0xbf176e88	-0.5915303
229	0xbf3c88ed	-0.7364643
230	0xbd483c93	-0.048885893
231	0xbe5410ab	-0.20709483
232	0xbeed1f3d	-0.46312895
233	0x3cee1e39	0.029067146
234	0xbf1a99b0	-0.6039076
235	0xbe6984f7	-0.22804628
236	0xbe90a961	-0.28254226
237	0xbf226c69	-0.6344667
238	0xbe9c09c9	-0.30476215
239	0xbf139278	-0.5764537
240	0xbebedea2	-0.3727923
241	0x3cfca965	0.030842492
242	0xbf5432b8	-0.8288989
243	0xbe27aad7	-0.16373764
244	0xbe15f715	-0.14645036
245	0x3c667767	0.014066554
246	0xbd87f205	-0.066379584
247	0xbe90e39f	-0.2829866
248	0xbce27e12	-0.027648006
249	0xbe3a35ad	-0.18184538
250	0xbdb0d6ee	-0.086347446
251	0xbf492999	-0.785791
252	0xbd8f21d8	-0.06988877
253	0xbf0bf0e8	-0.5466447
254	0xbf40fd51	-0.7538653
255	0xbe91f39a	-0.28506166

l2.weight f4 [256, 256]
0	0x3e90bffd	0.28271475
1	0xbe2cd633	-0.16878586
2	0x3eee8428	0.46585202
3	0x3e4dc758	0.20095575
4	0xbe7005ad	-0.23439665
5	0xbf27e72c	-0.65587115
6	0xbea36c3a	-0.31918508
7	0x3d07e367	0.033175852
8	0x3cd07b64	0.025449462
9	0x3faa2a3f	1.3294142
10	0x3e272e86	0.16326341
11	0x3e1782f7	0.14796053
12	0xbf39026c	-0.7226932
13	0xbe89e31d	-0.26931086
14	0x3e0d7b96	0.13816676
15	0x3e7e810e	0.24853918
16	0x3eac96f8	0.3370893
17	0xbdce9948	-0.1008783
18	0xbdbf8b26	-0.09352712
19	0xbe9f34a0	-0.31094837
20	0xbdfe8008	-0.12426764
21	0xbdec5ed6	-0.11541526
22	0x3e07a39e	0.13246009
23	0xbfc00abf	-1.500328
24	0x3e9ebd30	0.31003714
25	0xbff217a3	-1.8913463
26	0x3edaf809	0.4276736
27	0xbf246c74	-0.64227986
28	0xbdaa0097	-0.08300894
29	0x3ed4cf4b	0.41564402
30	0xbecefebc	-0.40428722
31	0xbfaceeb9	-1.3510352
32	0x3e49165b	0.19637434
33	0xc004d515	-2.0755055
34	0x3e8f52dc	0.27992904
35	0xbef8dbbe	-0.4860515
36	0x3df4e9ee	0.11958681
37	0xbf869689	-1.051469
38	0x3d515c46	0.05111339
39	0x3c98ac05	0.018636713
40	0xbf33f594	-0.702966
41	0xbe9ba942	-0.3040257
42	0xbf72a638	-0.9478488
43	0xbe350a89	-0.176798
44	0x3def9168	0.11697656
45	0xbfb0dacf	-1.3816775
46	0xbfac0fed	-1.344236
47	0xc02de8a1	-2.7173235
48	0xbc0911d7	-0.00836607
49	0xbd8f9315	-0.070104755
50	0xbea9bbab	-0.33150992
51	0x3fb1263a	1.3839791
52	0xc0413591	-3.0188944
53	0xbfc41bb2	-1.5320952
54	0xc08c246d	-4.3794465
55	0xbdc9d499	-0.09855003
56	0x3ed34cbd	0.41269484
57	0x3e591081	0.21197702
58	0x3ebd1979	0.36933497
59	0x3df60208	0.12012106
60	0xbec34834	-0.38141024
61	0xbd4ff2f5	-0.05076881
62	0x3e5f8f90	0.21832108
63	0x3f12fb56	0.5741476
64	0x3f59dfd3	0.85107154
65	0xbea3c18d	-0.31983605
66	0x3c91644d	0.017748022
67	0xbf72f166	-0.94899595
68	0xbdfea0a6	-0.12432985
69	0xbe677b4a	-0.22605625
70	0x3e39b859	0.1813673
71	0x3ed80fc4	0.42199528
72	0x3d4d17e3	0.05007161
73	0xbeb97586	-0.36222476
74	0xbe507b43	-0.2035952
75	0xbcceeffd	-0.02526092
76	0x3dc07ba3	0.09398582
77	0x3e2fcb07	0.17167293
78	0xbe683742	-0.22677329
79	0xbea5fc23	-0.32418928
80	0x3eb0c9aa	0.34528857
81	0x3d2f10b3	0.042740535
82	0xbe05254b	-0.13002507
83	0xbf14a491	-0.5806361
84	0xbf3f2d79	-0.7467876
85	0xbec26749	-0.37969425
86	0xbf17db61	-0.5931912
87	0x3e5cc20e	0.21558401
88	0x3efd30d4	0.49451315
89	0x3e96ce4a	0.2945426
90	0xbf962e25	-1.1732832
91	0xbeb91038	-0.36145186
92	0xbecddef9	-0.40209177
93	0xbe16b455	-0.14717229
94	0xbfabfedb	-1.3437151
95	0x3c49aefc	0.012309786
96	0x3e523973	0.20529728
97	0x3d601e70	0.054716527
98	0x3f620f6d	0.8830479
99	0xbf23a3db	-0.639219
100	0xbea7e32b	-0.32790503
101	0x3f120cc5	0.57050735
102	0xbf040ab3	-0.51578826
103	0xbf1227eb	-0.5709216
104	0xbe8823e4	-0.26589882
105	0xbf5bd45c	-0.8587091
106	0x3f1b7369	0.60722977
107	0xbf88dc73	-1.0692276
108	0xbe0d320d	-0.13788624
109	0xbe125a12	-0.14292172
110	0xbfb1a5fe	-1.3878782
111	0xbf66f42d	-0.9021633
112	0xbf55dc05	-0.8353885
113	0xbec700c2	-0.38867766
114	0xbdc98900	-0.09840584
115	0xbf9466ff	-1.1593932
116	0xbd5c1f0d	-0.05374055
117	0x3d01cfe8	0.031692415
118	0xbec468d5	-0.3836123
119	0xbf5eb180	-0.86989594
120	0x3f38c152	0.72169983
121	0xbedf4376	-0.43606156
122	0xbf26a6a7	-0.6509804
123	0xbbacd293	-0.005274126
124	0x3e82ae2c	0.25523508
125	0xbf9196d5	-1.1374155
126	0xbf5b1a47	-0.8558697
127	0xbdd4b501	-0.10386086
128	0x3ec6d0eb	0.38831267
129	0x3fae8083	1.3632969
130	0xbeb3c80d	-0.35113564
131	0x3ed9cd58	0.42539477
132	0xbf9f3145	-1.2436911
133	0xbf3d6600	-0.73983765
134	0x3ed9c2ad	0.42531338
135	0xbd80cd96	-0.062892124
136	0xc020f390	-2.5148659
137	0x3d49aa8a	0.049234904
138	0xbe9ebeb7	-0.3100488
139	0xbfb834bf	-1.4391097
140	0xbf73767f	-0.95102686
141	0xbf3d9684	-0.74057794
142	0xbdba3f45	-0.09094099
143	0x3dc05dd4	0.09392896
144	0xbf951770	-1.1647778
145	0x3ed70755	0.4199778
146	0x3e1a18c1	0.15048505
147	0x3e931ac2	0.28731352
148	0xbf8978f0	-1.0740032
149	0x3e37a166	0.17932662
150	0x3e3deae6	0.18546638
151	0xbfdaec9f	-1.7103461
152	0xbea1a7da	-0.31573373
153	0x3bae25c2	0.0053145597
154	0x3d451846	0.048118852
155	0xbd117561	-0.035512332
156	0x3db34b6f	0.08754622
157	0xc010eda8	-2.2645054
158	0xbfafff73	-1.3749832
159	0x3e4b0462	0.1982589
160	0x3e873524	0.2640773
161	0x3e78c45c	0.24293655
162	0x3f407fcf	0.7519502
163	0xbe27aa4f	-0.16373561
164	0xbf14b3d7	-0.58086914
165	0x3cafdd9c	0.021467976
166	0xbf8e3afd	-1.1111752
167	0xbe43c8b9	-0.19119538
168	0xbf48f198	-0.7849364
169	0x3e0ecee4	0.1394611
170	0xc00363e2	-2.0529714
171	0xbf8cd159	-1.1001388
172	0xbe97492d	-0.29548016
173	0xbd6ec93a	-0.058297373
174	0xbe94868c	-0.290089
175	0xc0308e66	-2.7586913
176	0x3fb27c75	1.3944231
177	0xbee73956	-0.4516093
178	0x3ef186f3	0.4717327
179	0xbd845dd9	-0.064632125
180	0xbe46199d	-0.19345708
181	0x3e1e1464	0.15437466
182	0x3f624a30	0.8839445
183	0xbdeb27b5	-0.11482183
184	0xbe945b0f	-0.28975722
185	0x3d68255d	0.056676257
186	0x3d17e530	0.037083805
187	0x3f176e0f	0.5915231
188	0x3e41c177	0.18921457
189	0xbf587b84	-0.8456347
190	0xbf4ea8c4	-0.80726266
191	0x3e89746f	0.26846644
192	0x3f95db4b	1.1707548
193	0xbe0c5aa5	-0.13706453
194	0xbeaf561e	-0.3424539
195	0xbed0bea5	-0.4077045
196	0xbed9478e	-0.42437404
197	0xbe6f9bab	-0.23399226
198	0xbea0e5d7	-0.31425354
199	0x3e1b735a	0.15180722
200	0x3e1157e4	0.14193684
201	0xbda0155c	-0.07816574
202	0x3faac1ff	1.3340453
203	0xbe80fa8e	-0.25191158
204	0xbdf2792c	-0.11839518
205	0xbf0cecab	-0.55048627
206	0xbe962a9f	-0.29329392
207	0xbdd8d57b	-0.10587593
208	0x3da3b9f3	0.079944514
209	0xbefc06c3	-0.4922391
210	0xbf2e2bb5	-0.6803544
211	0xbee96755	-0.4558665
212	0x3ed01b59	0.40645865
213	0xbdc7242a	-0.097236946
214	0xbdd99f51	-0.1062609
215	0x3e27c3b4	0.16383249
216	0xbe9e07fd	-0.3086547
217	0x3c51d5e9	0.012807348
218	0x3df84919	0.12123317
219	0x3eb847dc	0.35992324
220	0x3f5edf37	0.8705935
221	0xbf8f15b7	-1.1178502
222	0xbef5e07d	-0.48022833
223	0xbe036445	-0.12831219
224	0xbf91bf5d	-1.1386524
225	0xbf5461ce	-0.8296174
226	0x3f110772	0.56651986
227	0xbf0b619b	-0.5444581
228	0x3d613891	0.054985587
229	0xbe745831	-0.23861767
230	0xbee6c3f3	-0.45071372
231	0xbfae1f12	-1.3603232
232	0xbf32f7e2	-0.6990949
233	0x3de336bd	0.11094425
234	0xbf6799ad	-0.90468866
235	0xbed42dcd	-0.41441193
236	0xbf023960	-0.508688
237	0xbf9c5afb	-1.2215265
238	0xbdc2b85b	-0.09507819
239	0xbe9a980f	-0.30194137
240	0x3e102261	0.14075615
241	0x3d4253fc	0.047443375
242	0x3f07d2db	0.53056115
243	0xbe12c2db	-0.14332144
244	0x3f7550d0	0.95826435
245	0x3eab10ec	0.33411348
246	0x3d7c7cd6	0.06164249
247	0xbf41b727	-0.75670093
248	0xbfb6dfc7	-1.4287041
249	0xbfd304da	-1.6485856
250	0x3e40b9dd	0.18820901
251	0xbcffa0ea	-0.03120466
252	0x3f362fef	0.7116689
253	0x3f0bfe9c	0.5468538
254	0xbecbfb8e	-0.39840358
255	0x3e0ef81e	0.13961837

l2.bias f4 [256]
0	0x3e42a04f	0.19006465
1	0xbd9c6175	-0.07635776
2	0xbd61469e	-0.054998986
3	0xbd48a712	-0.048987456
4	0xbd29a497	-0.04141673
5	0xbcf02402	-0.029314045
6	0xbd45ee08	-0.048322707
7	0x3da754be	0.0817046
8	0x3e0564e3	0.13026766
9	0x3e5585f6	0.20851883
10	0x3ccf5a7f	0.025311707
11	0xbd4a0c41	-0.049328092
12	0x3eda2516	0.4260642
13	0x3cd26aae	0.025685634
14	0xbd525748	-0.05135277
15	0xbd2972fc	-0.041369423
16	0xbdb2b6eb	-0.08726295
17	0xbc85ea0a	-0.01634695
18	0x3e3ad51e	0.1824536
19	0x3e9f05fa	0.31059247
20	0xbdaf2229	-0.085514374
21	0x3c886d65	0.016653726
22	0x3d39403f	0.045227285
23	0x3e09ea93	0.13468389
24	0xbdf156e5	-0.11784152
25	0x3e5de137	0.21667944
26	0x3cb920d7	0.022598667
27	0xbe0b48ff	-0.13602065
28	0xbdc5c5c0	-0.096568584
29	0x3eebde3d	0.46067992
30	0xbd82ef27	-0.06393271
31	0xbd85832b	-0.06519159
32	0xbda92b91	-0.08260263
33	0xbe9ee682	-0.31035239
34	0xbcd8218b	-0.026383182
35	0xbd8891cc	-0.066684335
36	0x3e853c07	0.2602236
37	0xbd58ba7f	-0.05291223
38	0xbd45a0b4	-0.04824896
39	0xbcfca5f8	-0.030840859
40	0xbd80b368	-0.06284219
41	0xbd2710d2	-0.040787525
42	0x3e01802a	0.12646547
43	0x3ed0fc36	0.40817422
44	0xbb2d5b00	-0.0026451945
45	0xbc2a64b8	-0.01039999
46	0xbda2f112	-0.07956137
47	0x3cea664c	0.028613232
48	0x3d1d18fd	0.03835391
49	0xbda812d4	-0.08206716
50	0x3c5e391e	0.0135634225
51	0x3cba31cb	0.022728821
52	0x3ab11b62	0.0013512189
53	0xbdbaf0e1	-0.09127975
54	0x3c4c5f21	0.012473852
55	0x3d7f78b0	0.062370956
56	0x3e691d02	0.22764972
57	0xbcade342	-0.021226529
58	0x3e327253	0.17426424
59	0x3d3610ae	0.0444495
60	0xbb54bc0b	-0.0032460715
61	0xbe6a222e	-0.22864601
62	0x3dd8f888	0.105942786
63	0x3e29cb64	0.16581494
64	0xbe86458b	-0.26224932
65	0xbd9218d5	-0.071336426
66	0xbd3ff555	-0.046864826
67	0xbe86c25b	-0.26320156
68	0x3e86749e	0.26260847
69	0xbdc6069b	-0.09669229
70	0x3e1b3eb6	0.15160641
71	0x3eba3de3	0.3637534
72	0x3e8af95c	0.2714337
73	0xbdd8ff16	-0.10595529
74	0xbd4e5d54	-0.050381973
75	0xbd9ace61	-0.07558895
76	0x3e4052b6	0.18781552
77	0x3e2cc194	0.16870719
78	0xbda39031	-0.07986487
79	0xbd086709	-0.033301387
80	0xbe42e124	-0.19031197
81	0x3cabf7ec	0.020992242
82	0xbd1cee53	-0.03831322
83	0x3dbf1ecf	0.09332048
84	0x3dc7d7b2	0.097579375
85	0xbd426b02	-0.04746533
86	0xb998cb6e	-0.00029143266
87	0xbe8860e7	-0.2663643
88	0x3e3b4876	0.1828936
89	0x3d9227a3	0.07136466
90	0x3c755a39	0.014975124
91	0x3d453d8e	0.048154406
92	0xbd344279	-0.044008706
93	0xbd1b8c73	-0.03797574
94	0x3e1d6b12	0.15372875
95	0xbdb44faa	-0.08804257
96	0xbd3b9f3e	-0.045806162
97	0xbc286a2a	-0.010279218
98	0x3da316b3	0.07963314
99	0x3de38123	0.11108615
100	0xbe074347	-0.13209258
101	0xbe1722f3	-0.14759426
102	0x3e597053	0.21234255
103	0x3e8c318e	0.27381557
104	0x3d48f695	0.049063284
105	0x3de0b24f	0.1097151
106	0xbd3972ae	-0.045275383
107	0xbdbfa512	-0.093576565
108	0xbd91b8f5	-0.07115356
109	0xbc968517	-0.018374009
110	0xbd5259df	-0.05135524
111	0xbdc78596	-0.09742276
112	0x3caff145	0.021477351
113	0xbdd75543	-0.10514309
114	0x3b9c134b	0.004763042
115	0xbd4bc44e	-0.049747758
116	0xbe5cfcaa	-0.21580759
117	0xbd7b0e6a	-0.061293043
118	0xbd4289fa	-0.047494866
119	0x3ec89d05	0.39182296
120	0x3e28de55	0.16491063
121	0xbd6cdd93	-0.057828497
122	0xbe021257	-0.12702309
123	0xba4194af	-0.00073845213
124	0xbcd98047	-0.026550425
125	0x3c109535	0.008824636
126	0x3c3169cb	0.010828446
127	0xbdff59f0	-0.12468326
128	0xbe3a24ce	-0.18178102
129	0x3dccfde8	0.10009366
130	0x3ea800ce	0.32813114
131	0xbc7515ae	-0.014958782
132	0xbd131469	-0.035908137
133	0xbc65ce0c	-0.014026176
134	0xbb819cf8	-0.0039554797
135	0xbddef0ba	-0.10885759
136	0xbd86d68f	-0.065838926
137	0xbc071389	-0.008244404
138	0xbb81a94a	-0.0039569484
139	0xbd9b4edb	-0.075834
140	0x3e273ab7	0.16330992
141	0xbc9257d4	-0.017864145
142	0xbe3be7ee	-0.18350193
143	0xbf23989c	-0.6390474
144	0xbd1217e7	-0.035667326
145	0x3bf11d6e	0.0073582446
146	0x3e5df795	0.21676476
147	0x3c23904e	0.009983135
148	0x3e302e43	0.17205147
149	0xbd89b0db	-0.06723186
150	0x3e1295ed	0.14315005
151	0xbdfc269f	-0.12312054
152	0x3e2c98a7	0.16855107
153	0x3edc1c38	0.4299028
154	0x3bca8ae4	0.006181108
155	0x3dacce73	0.084378146
156	0xbe185e28	-0.14879668
157	0xbd8ca5b2	-0.068675414
158	0x3e383f5c	0.1799292
159	0x3c328797	0.010896585
160	0x3d274ee2	0.040846713
161	0x3c134b53	0.008990127
162	0x3d381551	0.044942204
163	0x3c1bae06	0.00950194
164	0xbda56b13	-0.080770634
165	0x3c7c26cd	0.01539011
166	0xbda7f4d5	-0.08200995
167	0x3cd8aa6d	0.026448453
168	0x3d305e96	0.043058954
169	0x3e1f6a20	0.15567827
170	0x3ddaa107	0.10675245
171	0x3dcb3a50	0.099232316
172	0xbd8f0a60	-0.06984401
173	0xbdc43fd0	-0.09582484
174	0xbdb23e4a	-0.08703287
175	0x3e3abe28	0.18236601
176	0x3ea90474	0.3301121
177	0x3c077ed0	0.008269981
178	0x3d94a60b	0.07258233
179	0x3dbcdca4	0.09221771
180	0xbc36fbd1	-0.011168436
181	0x3e9e7305	0.30947128
182	0xbcd35745	-0.02579845
183	0xbd8bb284	-0.068211585
184	0xbdb88cfa	-0.09011264
185	0xbd65bf23	-0.056090485
186	0x3dcd8d6d	0.100367405
187	0xbda6d634	-0.08146325
188	0xbd99bf1d	-0.07507155
189	0xbdabf31b	-0.08395978
190	0xbd932c83	-0.07186224
191	0xbd4c46d8	-0.04987225
192	0x3c024118	0.00795009
193	0xbda1af34	-0.078947455
194	0x3bcb9970	0.0062133595
195	0xbbdee7de	-0.006802543
196	0xbdbbe8f2	-0.0917529
197	0x3bea04cd	0.0071416856
198	0xbcbacc35	-0.022802452
199	0x3c824aa9	0.015904741
200	0xbdc1eafa	-0.09468646
201	0xbd892115	-0.06695763
202	0xbd31bc3d	-0.04339241
203	0x3bcf1806	0.0063200025
204	0x3c9c9425	0.01911361
205	0xbdd9b352	-0.10629906
206	0xbce56afb	-0.028005114
207	0x3e5287bc	0.20559591
208	0x3b5bc7b9	0.0033535792
209	0xbcbef917	-0.023312135
210	0xbcc44524	-0.02395875
211	0xbe25e21d	-0.16199537
212	0x3f0ab8a2	0.5418798
213	0x3e17901d	0.14801069
214	0xbd8d2f08	-0.06893736
215	0xbebbbb7e	-0.36666483
216	0x3f173f60	0.5908108
217	0x3c8f26fa	0.01747464
218	0xbd82cbb2	-0.06386508
219	0xbe8e9af5	-0.27852598
220	0xbd13368f	-0.035940703
221	0x3f233d0a	0.63765013
222	0x3ead04d3	0.33792743
223	0x3e24da4c	0.16098899
224	0xbd620fcc	-0.055190846
225	0x3d8ee672	0.06977548
226	0x3e4ec4ce	0.20192263
227	0xbda4151f	-0.08011841
228	0x3cd9e0a2	0.026596371
229	0xbd4e4d61	-0.050366763
230	0x3dea77a8	0.11448604
231	0x3d95f0d4	0.07321325
232	0xbd8934c5	-0.06699518
233	0x3d78b398	0.06071815
234	0x3afac918	0.0019133417
235	0x3dcf4b66	0.10121803
236	0x3d8dcf3d	0.06924293
237	0x3db48fe9	0.08816511
238	0xbea8eb2a	-0.32991916
239	0xbd99aad9	-0.0750329
240	0xbcfbf132	-0.03075466
241	0x3cb6150b	0.022226831
242	0x3cd79bc6	0.026319396
243	0x3d97a20c	0.07403955
244	0x3ee7b3a3	0.4525424
245	0xbb46812e	-0.00302894
246	0xbdb83fee	-0.089965686
247	0xbd5f7473	-0.054554414
248	0x3e569019	0.20953406
249	0x3d4b8ba6	0.049693726
250	0xbd891b6b	-0.06694683
251	0xbd36025f	-0.044435855
252	0xbcbe8dcb	-0.023260972
253	0xbdab978b	-0.08378514
254	0x3d33ce56	0.04389795
255	0xbd61dbd6	-0.055141293

l3.weight f4 [1, 256]
0	0xbf4db17a	-0.8034893
1	0x3cd9b064	0.026573367
2	0xbbdbe515	-0.0067106583
3	0x3c2729d4	0.010202844
4	0x3e50e5ac	0.20400113
5	0x3e730b1e	0.2373471
6	0x3c12ed66	0.008967733
7	0x3d675a12	0.056482382
8	0x3f131399	0.5745178
9	0x3f02b08c	0.5105064
10	0x3ed20914	0.4102255
11	0x3d09f159	0.033677433
12	0x3ec7f887	0.390568
13	0x3c2d20bc	0.0105668865
14	0xbcf2faeb	-0.029660663
15	0xbcc00cdd	-0.023443634
16	0xbd390758	-0.04517302
17	0xbcfa2c09	-0.030538576
18	0x3e43a34c	0.19105262
19	0xbea55de2	-0.3229819
20	0x3c9a18a7	0.018810583
21	0x3cdca154	0.026932396
22	0x3e15808b	0.14599817
23	0x3f11e923	0.56996363
24	0x3f442320	0.76616096
25	0x3f0656f5	0.52476436
26	0x3f101e18	0.5629592
27	0x3bd0d98d	0.0063735903
28	0xbcea455d	-0.028597528
29	0xbef064fe	-0.4695205
30	0xbf0df87e	-0.55457294
31	0x3cdbb5b0	0.026820034
32	0xbd2938b5	-0.041313846
33	0xbf7aba8a	-0.97940886
34	0xbcee2a64	-0.029072948
35	0x3f0017ab	0.50036114
36	0x3f8d4b0f	1.1038531
37	0x3caf4298	0.021394059
38	0x3ecc2fd1	0.3988023
39	0x3c2ddea6	0.010612166
40	0xbca6e85a	-0.020374466
41	0x3b23558d	0.0024922818
42	0xbf1b07fe	-0.6055907
43	0x3ec2c76a	0.38042766
44	0xbca41f29	-0.02003439
45	0xbc57a5ee	-0.013162119
46	0xbb9eece9	-0.0048500192
47	0x3decc4f7	0.115610056
48	0xbf7e03e2	-0.99224675
49	0x3c511b6a	0.012762884
50	0xbc828fbe	-0.015937682
51	0xc04ef96b	-3.2339733
52	0x3c1fa020	0.009742767
53	0xba9f6625	-0.0012161179
54	0xbf5cb96c	-0.8622043
55	0xbf366de0	-0.71261406
56	0x3eb5bf24	0.3549739
57	0x3c2d4e75	0.010577788
58	0x3e818331	0.25295404
59	0x3eb10a42	0.3457814
60	0xbc387bc1	-0.011259974
61	0x3f3f1200	0.7463684
62	0x3d82c6a8	0.06385547
63	0x3f887465	1.0660521
64	0xbee510db	-0.44739422
65	0xbc67b2d0	-0.014141753
66	0x3e3799ba	0.17929736
67	0x3f23c025	0.63965064
68	0x3e1dd1ee	0.15412113
69	0xbef4b80d	-0.4779667
70	0x3eaa6937	0.33283398
71	0x3e681836	0.22665486
72	0x3ef32075	0.474857
73	0xbec5b589	-0.38615063
74	0x3c5a60d6	0.013328752
75	0x3cb03225	0.021508286
76	0x3e9555ad	0.29166928
77	0xbfb4fc78	-1.4139547
78	0x3c96ca9d	0.01840716
79	0xbcb051fd	-0.02152347
80	0xbe9bbdc5	-0.3041822
81	0xbc49edcf	-0.012324764
82	0xbe24b5f2	-0.16085032
83	0x3e6f3d6c	0.23363274
84	0x3f7fcbc1	0.9992028
85	0xbb8f377c	-0.004370628
86	0x3cf5e1b2	0.030014846
87	0x3e33b8ff	0.17551039
88	0xbfafa02b	-1.3720754
89	0x3dee2404	0.11627963
90	0xbca71787	-0.02039696
91	0xbe257ac3	-0.16160111
92	0xbcc9eea2	-0.024649922
93	0xbcf3c956	-0.02975909
94	0x3ed085c0	0.40727043
95	0xbbc28669	-0.005936433
96	0xbcc325c6	-0.023821723
97	0xbd220eb3	-0.0395648
98	0x3ea0f6b8	0.3143823
99	0x3e730010	0.23730493
100	0xbf01af04	-0.5065768
101	0x3e287a8c	0.16452998
102	0x3e799fb6	0.24377331
103	0x3e61dff4	0.22058088
104	0x3ebde67c	0.37089908
105	0x3de72715	0.11286751
106	0xbb3dcb27	-0.00289602
107	0x3b7573cf	0.003745306
108	0xbcaf5488	-0.021402612
109	0x3eaa18ca	0.33222038
110	0x3bb004a4	0.005371647
111	0xbe34f5a4	-0.1767183
112	0x3e802d47	0.25034544
113	0x3cacf696	0.021113675
114	0x3f004b20	0.5011463
115	0xbf1ff188	-0.6247792
116	0x3dd8f2b8	0.1059317
117	0xbe8c19d7	-0.27363464
118	0x3a40318e	0.0007331603
119	0x3ec30653	0.38090762
120	0x3ef4f53b	0.47843346
121	0x3a311fa1	0.0006756727
122	0xbeeead7b	-0.4661673
123	0x3cd03123	0.025414055
124	0xbce7ba1c	-0.028286986
125	0x3c594334	0.013260651
126	0x3e923a24	0.28559983
127	0x3e65ede1	0.22454025
128	0x3e9b943b	0.30386528
129	0xbe14499c	-0.14481205
130	0x3e86ec3b	0.26352105
131	0xbb7c7e66	-0.0038527488
132	0xbd380771	-0.04492897
133	0x3c14effe	0.009090422
134	0xbd293cba	-0.04131768
135	0x3c8f0808	0.017459884
136	0x3e221669	0.15828861
137	0x3e12ce27	0.14336453
138	0xbeeeb99a	-0.46625978
139	0x3ccc5833	0.0249444
140	0x3e84068a	0.2578624
141	0x3b1595a1	0.0022824781
142	0x3f1c7753	0.61119574
143	0x3ed5535c	0.4166516
144	0x3eade9f9	0.3396757
145	0x3c8309a9	0.015995817
146	0xc039788f	-2.8979833
147	0x3ec755de	0.389327
148	0xbe968a31	-0.29402307
149	0xbc98d505	-0.018656263
150	0x3e80a37c	0.2512473
151	0xbe93d94b	-0.2887672
152	0x400811a9	2.126078
153	0x3f2276ca	0.6346251
154	0x3cbc7cae	0.02300867
155	0x3f774355	0.96587116
156	0x3e59dfd7	0.21276794
157	0xbcb7e9e7	-0.0224504
158	0xbe9130cf	-0.2835755
159	0xbea41b1f	-0.32051942
160	0x3eafe68c	0.3435558
161	0x3d492bf8	0.049114197
162	0x3ddcd5ce	0.107829675
163	0xbcd3dce4	-0.025862165
164	0x3e8fea11	0.28108266
165	0x3d6a0f87	0.057143714
166	0x400f9a8e	2.2438083
167	0xbbb9227f	-0.005649864
168	0x3eee6590	0.4656186
169	0x3f081dc0	0.53170395
170	0x3eac576c	0.33660448
171	0x3e9ad3b5	0.30239645
172	0xbcf960c2	-0.030441646
173	0x3e2322ff	0.15931319
174	0x3f0ebdd8	0.5575843
175	0x3e87e229	0.26539734
176	0xbea5079b	-0.32232365
177	0x3c21d9fc	0.009878632
178	0x3e01d469	0.12678684
179	0xbebea6ac	-0.37236536
180	0xbd06e5ed	-0.032934118
181	0xbec0ad1b	-0.3763207
182	0x3eaacef9	0.33361033
183	0x3eae3a3b	0.340288
184	0x3cebabf7	0.028768523
185	0xbd3cf2cc	-0.046129987
186	0x3ed8323d	0.4222583
187	0x3dbda2ce	0.09259568
188	0xbf25eafd	-0.6481169
189	0xbd028dc1	-0.03187347
190	0x3c69709c	0.01424804
191	0x3de77c30	0.11302984
192	0xbc100e9c	-0.008792546
193	0xbc287ee4	-0.010284159
194	0xbca4b540	-0.020105958
195	0x3bdaab1b	0.0066732294
196	0xbc1d4e25	-0.009601151
197	0xbb6c8654	-0.0036090808
198	0x3cb347e7	0.021884872
199	0x3cc2d9ee	0.023785558
200	0xbc157089	-0.009121069
201	0xbc94d5ba	-0.018168319
202	0x3be2fc4b	0.0069270483
203	0xbcab7f8d	-0.020934844
204	0xbd5581c5	-0.05212571
205	0x3a90b094	0.0011038953
206	0x3ee9495c	0.4556378
207	0x3ef3f8a3	0.47650632
208	0x3cc3b084	0.02388788
209	0x3ca63d10	0.020292789
210	0x39a2bef7	0.00031041328
211	0xbf311ad0	-0.6918154
212	0xbec72cce	-0.3890137
213	0x3e706305	0.23475273
214	0x3ba15975	0.004923994
215	0xbe3d78e5	-0.18503149
216	0xbea34ee8	-0.31896138
217	0x3e0e2070	0.13879561
218	0xbcafea00	-0.021473885
219	0x3fbd61c7	1.4795464
220	0xbeb11590	-0.34586763
221	0xbedd31fa	-0.43202192
222	0x3f669339	0.90068394
223	0x3e5644f9	0.20924748
224	0xbc1f7fba	-0.009735042
225	0xbed177f5	-0.40911832
226	0x3e1c079d	0.15237279
227	0xbf0f6b20	-0.56022835
228	0xbebbb3f6	-0.36660737
229	0xbca8b1de	-0.020592626
230	0x3e542cce	0.20720217
231	0xbed148b2	-0.40875775
232	0x3c63ea3e	0.013910828
233	0x3f086404	0.5327761
234	0x3c959f7e	0.018264528
235	0x3e375448	0.17903244
236	0x3dd9064f	0.105969064
237	0xbf64e4a6	-0.8941139
238	0x3ef96de1	0.48716643
239	0xbc7438db	-0.0149061335
240	0xbc413248	-0.011791773
241	0x3eba40a1	0.36377433
242	0xbee0673e	-0.43828768
243	0x3e8689ff	0.26277158
244	0xbe75258e	-0.23940107
245	0x3ce772cb	0.02825298
246	0xbd4165db	-0.047216278
247	0x3c9f1498	0.019419
248	0xbfa89bbb	-1.3172525
249	0x3f1ad10b	0.60475224
250	0x3cded7ef	0.027202575
251	0xbd603708	-0.054739982
252	0xbcecabf0	-0.02889058
253	0x3cd36cdc	0.025808744
254	0xbf443927	-0.7664971
255	0xbbb11e65	-0.0054052346

l4.weight f4 [256, 14]
0	0x3f2c5440	0.67316055
1	0xbfaa35cc	-1.3297668
2	0xbd6a7263	-0.057237994
3	0x3eb8da41	0.36104015
4	0x3df1067b	0.11768814
5	0xbebbba80	-0.36665726
6	0x3ffd8bb1	1.9808255
7	0xbea67a99	-0.3251541
8	0xbd90236c	-0.07038006
9	0x3e317932	0.17331389
10	0xbe5c5a3b	-0.21518795
11	0x3d31dc94	0.04342325
12	0x3c3e8be2	0.01163003
13	0xbd0c23d6	-0.034213863
14	0xbf8ea777	-1.1144856
15	0x3d51441f	0.051090356
16	0x3e3dd944	0.18539912
17	0xbe296587	-0.16542636
18	0xbeb9c491	-0.3628278
19	0x3f18b346	0.5964855
20	0x40297a31	2.648083
21	0xbe101164	-0.14069134
22	0xbd4f9b62	-0.050685294
23	0xbd1acfe2	-0.03779591
24	0xbed3bc53	-0.41354617
25	0xbe4f13fd	-0.20222469
26	0xbdfe1483	-0.12406256
27	0x3d433391	0.0476566
28	0xbfb360cd	-1.4013916
29	0xc038a3e9	-2.8850043
30	0x3e1e91be	0.15485284
31	0xbdc39904	-0.0955067
32	0xbde02672	-0.10944833
33	0x3e0f9adf	0.14023922
34	0x3fcd63aa	1.604604
35	0x3e917cec	0.2841562
36	0xbe3e0cf6	-0.18559632
37	0x3e21ce6f	0.15801404
38	0x3c585f08	0.013206251
39	0xbd79fca2	-0.061031945
40	0xbcf09d51	-0.02937189
41	0x3df992fe	0.1218624
42	0xbeb2e260	-0.34938335
43	0xbeb19a69	-0.34688118
44	0xbe597553	-0.21236162
45	0x3eba35f6	0.36369294
46	0xbef6dede	-0.4821691
47	0x3e462517	0.19350086
48	0x3f1c8f38	0.61156034
49	0xbed85730	-0.4225402
50	0xbdb64a26	-0.089008614
51	0x3c80c7ab	0.01572021
52	0x3e82972f	0.2550597
53	0xbe29e44d	-0.16590996
54	0x3e3a1182	0.18170741
55	0x3e78b11b	0.2428631
56	0xbea613dc	-0.32437027
57	0x3f6c3813	0.9227306
58	0x3e6de680	0.2323246
59	0xbe7ea08f	-0.24865936
60	0xbe9d5a3c	-0.30732906
61	0xbd8808dd	-0.066423155
62	0x3f3ddd90	0.741662
63	0xbf605f72	-0.8764564
64	0x3d264ace	0.040598683
65	0xbd852c5d	-0.06502602
66	0x3d47e8c6	0.048805974
67	0x3eb50ba9	0.35360458
68	0xbd08849b	-0.033329587
69	0xbcad20b2	-0.021133754
70	0xbf476676	-0.7789072
71	0x3d86ee40	0.06588411
72	0x3d968a0d	0.0735055
73	0xbe5d05e8	-0.21584284
74	0x3e9fd146	0.3121435
75	0xbe525060	-0.20538473
76	0x3f636136	0.8882021
77	0xbe69da8c	-0.22837275
78	0x3e456ed5	0.1928056
79	0xbef20d02	-0.4727555
80	0xbea7630d	-0.32692757
81	0x3e8f609d	0.28003398
82	0x3d85366f	0.06504523
83	0xbcc9744f	-0.024591593
84	0x3ea1d078	0.31604362
85	0x3f0d89a7	0.55288166
86	0xbdfa0370	-0.12207687
87	0xbe847cf4	-0.25876582
88	0x3e8d9ead	0.27660123
89	0x3ef3dcfa	0.4762953
90	0xbe401fc0	-0.18762112
91	0xbe8dd83b	-0.27704033
92	0x3e85d442	0.26138502
93	0x3da660dc	0.08123943
94	0x3d378f17	0.044814195
95	0xbbd5660b	-0.0065124086
96	0xbe9461bc	-0.28980815
97	0xbe1fb135	-0.15594943
98	0xbf6e8983	-0.93178576
99	0xc02db9b8	-2.7144604
100	0x3d922416	0.07135789
101	0x3d613ad8	0.05498776
102	0x3e84d3ac	0.25942743
103	0x3e8ee9e2	0.27912813
104	0x3e6799f1	0.22617318
105	0x3cc0402a	0.023468096
106	0xbec949b6	-0.3931405
107	0xbeb47572	-0.35245854
108	0x3e50b3c3	0.20381074
109	0x3e84a69a	0.25908357
110	0xbd7be57d	-0.061498154
111	0xbe0b81f4	-0.13623792
112	0xbe76472b	-0.24050586
113	0x3fa313d8	1.2740431
114	0xbe656218	-0.22400701
115	0xbe2e0659	-0.16994609
116	0xbed88629	-0.42289856
117	0xbd42c646	-0.04755237
118	0xbf39c71e	-0.72569454
119	0x3e80b33d	0.25136748
120	0xbc0ddbfe	-0.008658407
121	0x3cdd75bb	0.027033677
122	0xbdfc5720	-0.12321305
123	0x3e958cb8	0.29208922
124	0x3df15b88	0.11785036
125	0xbe16bcb8	-0.14720428
126	0xbe9a6e2f	-0.30162188
127	0x3caa0d77	0.020758374
128	0xbe61fc33	-0.22068863
129	0xbe30fd76	-0.17284188
130	0x3eb665dc	0.35624588
131	0x3e9a166d	0.30095235
132	0x3f59e074	0.85108113
133	0xbdb411fa	-0.08792491
134	0xbe77a075	-0.24182303
135	0xbd39a113	-0.045319628
136	0xbf2b85ad	-0.6700085
137	0x3e978364	0.2959243
138	0xbd8ea97b	-0.069659196
139	0xbe27f522	-0.16402104
140	0x3ff89f36	1.9423587
141	0x3f53478a	0.82531035
142	0xbd5a704e	-0.05332976
143	0xbdecbfec	-0.11560044
144	0xbe8082d2	-0.25099808
145	0x3e13e234	0.14441758
146	0xbf941087	-1.1567544
147	0xbec8c617	-0.3921363
148	0x3e7e4a21	0.24832965
149	0x3d04ba08	0.032403976
150	0x3ea707da	0.32623178
151	0xbd212095	-0.039337713
152	0x3e701e23	0.23448996
153	0xbe23603e	-0.15954682
154	0x3d711a87	0.05886319
155	0xbf09a496	-0.53766763
156	0xbd806715	-0.06269661
157	0xbd8282eb	-0.06372627
158	0xbeafba19	-0.3432167
159	0xbc55a1dd	-0.0130390795
160	0xbff5dc99	-1.9207946
161	0x3ceda3dd	0.0290088
162	0x3f15a787	0.5845875
163	0x3dcde6e0	0.100538015
164	0x3ef5332e	0.4789061
165	0x3e5cf841	0.21579076
166	0x3d377689	0.04479078
167	0x3eb49fe9	0.35278252
168	0x3e532485	0.206194
169	0xbfcf47b7	-1.6193761
170	0x3cb6b485	0.022302875
171	0xbd0b0a2f	-0.03394526
172	0x3c952afa	0.01820897
173	0x3e0b8b8f	0.13627456
174	0xbe9a50b9	-0.30139711
175	0xbf82361c	-1.0172763
176	0x3e487fd4	0.19580013
177	0xbf9136a1	-1.1344796
178	0x3efb18c9	0.49042347
179	0x3db287b0	0.087172866
180	0x3d65b118	0.056077093
181	0x3c9b5d39	0.01896535
182	0xbfca6758	-1.5812788
183	0x401c76c2	2.4447484
184	0x3e5a3d3a	0.21312419
185	0xbd7f6ac7	-0.06235769
186	0x3d66093e	0.056161158
187	0xbcf46699	-0.029834079
188	0x3ff5ff17	1.9218472
189	0x3f3b0162	0.73048985
190	0xbe23aa69	-0.15982975
191	0x3edbc571	0.42924073
192	0xbe83ae17	-0.25718758
193	0x3d993219	0.074802585
194	0xbda442a1	-0.08020521
195	0xbe03b222	-0.12860921
196	0x3eefc817	0.46832344
197	0x4001a15f	2.0254743
198	0x3d353e27	0.044248726
199	0x3dc60b27	0.09670096
200	0xbd55a7bf	-0.05216193
201	0xbd530b6f	-0.051524576
202	0xbeb918b7	-0.36151668
203	0xbe04bc88	-0.12962544
204	0xbe9fb096	-0.31189412
205	0x3dc67c4b	0.09691676
206	0xbd61405f	-0.05499303
207	0xbe3d068d	-0.1845953
208	0xbc2aed45	-0.010432546
209	0xbc848599	-0.016176986
210	0xbf0eb1a4	-0.5573981
211	0xbf0e1501	-0.555008
212	0x3ea4eb2c	0.32210672
213	0xbec24e99	-0.3795059
214	0xbf06ce1d	-0.52658254
215	0x3e7d03d0	0.24708486
216	0x3fb82f2c	1.4389396
217	0x3e344b01	0.17606737
218	0x3ebdd68e	0.37077755
219	0x3dda6c3b	0.106651746
220	0xbe46385d	-0.19357438
221	0xbd160ef6	-0.03663536
222	0xbe5ce9d3	-0.21573572
223	0x3df0e44b	0.117622934
224	0x3fb2fc33	1.3983215
225	0x3f845ba7	1.034047
226	0xbe878f12	-0.2647634
227	0x3da11f19	0.078672595
228	0xbd825751	-0.063643105
229	0x3b44aa53	0.0030008748
230	0xbfdf0e83	-1.7426304
231	0x3e2b38b3	0.16720848
232	0xbcb8b03a	-0.022544969
233	0xbf145401	-0.5794068
234	0xbe27cc94	-0.16386634
235	0x3e2981c1	0.16553403
236	0xbd8bd911	-0.068285115
237	0x3e4840c0	0.1955595
238	0x4006cb4f	2.106159
239	0x3f37b064	0.71753526
240	0x3e92dee9	0.28685692
241	0xbdd0d4bc	-0.10196826
242	0x3da454a8	0.080239594
243	0x3decbfef	0.11560046
244	0xc0191f00	-2.392517
245	0x3f75d314	0.96025205
246	0x3c933eda	0.017974306
247	0x3e2bf5f8	0.16793048
248	0x3df47eb3	0.119382285
249	0x3e19426e	0.14966747
250	0xbcbc28b6	-0.022968631
251	0xbdd2786d	-0.10276876
252	0x3ee0ced6	0.43907803
253	0xbf3a2a73	-0.7272102
254	0xbe97b470	-0.2962985
255	0x3db386dd	0.087659575

l4.bias f4 [256]
0	0xbe87be25	-0.26512256
1	0xbf1d0088	-0.61328936
2	0xbf1084aa	-0.5645243
3	0xbee28409	-0.4424136
4	0xbe5f64dd	-0.2181582
5	0xbe775ba6	-0.24156055
6	0xbf034d66	-0.51289976
7	0xbe98cdb5	-0.29844442
8	0xbf235e8b	-0.63816136
9	0xbebdb606	-0.37052935
10	0xbe9558f7	-0.29169437
11	0xbf078209	-0.5293279
12	0xbe749e58	-0.23888528
13	0xbe9c70e5	-0.30554882
14	0x3d7012ae	0.058611564
15	0xbf15f78b	-0.58580846
16	0xbe86f86d	-0.2636141
17	0xbec14302	-0.37746435
18	0xbf0d2158	-0.55129004
19	0xbe966502	-0.29373938
20	0xbe3b18e2	-0.18271211
21	0xbe979381	-0.29604724
22	0xbf0f4144	-0.5595896
23	0xbeb99211	-0.36244252
24	0xbf0d948e	-0.553048
25	0xbd0df435	-0.034656722
26	0xbbe599db	-0.0070068664
27	0xbeaf84f7	-0.34281132
28	0xbf1ee60b	-0.6206977
29	0xbe068155	-0.13135274
30	0xbeb450df	-0.3521795
31	0xbe941405	-0.28921524
32	0xbe65e497	-0.22450481
33	0xbda84ba1	-0.0821755
34	0xbeb0e533	-0.34549865
35	0xbe680254	-0.22657138
36	0xbe308767	-0.17239152
37	0xbdbef507	-0.09324079
38	0xbe046f40	-0.12933064
39	0xbf06e955	-0.52699786
40	0xbef35871	-0.47528413
41	0xbebd69af	-0.36994693
42	0xbdc512c9	-0.096227236
43	0xbf1958ef	-0.59901327
44	0xbe46f2e0	-0.19428587
45	0x3eecff49	0.46288517
46	0xbf277ecc	-0.6542785
47	0x3c755c3e	0.0149756055
48	0xbe12b8d6	-0.14328322
49	0xbefc3dd4	-0.4926592
50	0xbf348525	-0.7051566
51	0xbf64b65d	-0.89340764
52	0xbef8fe17	-0.48631355
53	0xbd5f4a3a	-0.054514147
54	0x3cea5df1	0.028609248
55	0x3dee6083	0.11639502
56	0xbd0d8a91	-0.034555975
57	0xbf145cbd	-0.5795401
58	0xbeb1e2d4	-0.3474337
59	0xbed460ac	-0.41480005
60	0xbf0bc62f	-0.5459928
61	0xbee11bd0	-0.43966532
62	0xbc76a0bc	-0.0150529705
63	0xbee22103	-0.4416581
64	0xbd41cf45	-0.04731681
65	0x3dd830d0	0.10556185
66	0xbdd75cfb	-0.105157815
67	0xbef155a5	-0.47135654
68	0xbf1e999d	-0.61953145
69	0xbe9f71d4	-0.3114153
70	0xbd277af2	-0.040888734
71	0xbeaeb1e0	-0.34120083
72	0x3c9ab11c	0.01888328
73	0xbed34095	-0.4126021
74	0xbf2674ff	-0.6502227
75	0xbf024732	-0.50889885
76	0x3e84115d	0.25794497
77	0xbe40f97a	-0.18845168
78	0xbe0582f6	-0.13038239
79	0xbf6c5cc5	-0.92329055
80	0xbe4ff880	-0.20309639
81	0xbebbef4d	-0.3670601
82	0x3ec85d69	0.39133766
83	0xbeb3cdcd	-0.3511795
84	0xbebfa22e	-0.3742842
85	0xbe8a2414	-0.2698065
86	0xbed86b32	-0.42269284
87	0xbed270f1	-0.41101792
88	0xbcae5753	-0.021281874
89	0xbedf0767	-0.43560335
90	0xbec2cf98	-0.38049006
91	0xbec6531a	-0.38735276
92	0xbec31f74	-0.38109934
93	0xbcf3665f	-0.0297119
94	0xbf209c02	-0.6273805
95	0xbdee5fe9	-0.11639387
96	0xbea209ac	-0.31648004
97	0xbf05ebb3	-0.52312773
98	0xbec4bb45	-0.38424125
99	0xbebeadde	-0.37242025
100	0xbecb821b	-0.397477
101	0xbf07609e	-0.528818
102	0xbed85824	-0.42254746
103	0x3d433d43	0.047665846
104	0xbdb1cf88	-0.086821616
105	0xbf3b14f5	-0.7307885
106	0xbe2c04e6	-0.16798744
107	0xbea7a4a3	-0.32742795
108	0xbd4bdfc6	-0.049773954
109	0xbf301a71	-0.68790346
110	0xbf151835	-0.5824006
111	0xbf3a7267	-0.72830814
112	0xbe8c149b	-0.2735947
113	0xbc3d114b	-0.0115397675
114	0xbf4f5f1f	-0.8100452
115	0xbee6879d	-0.4502534
116	0xbf81c605	-1.0138556
117	0xbf31e94b	-0.694966
118	0x3e480eec	0.19536942
119	0xbf80671e	-1.0031469
120	0xbf10a742	-0.56505215
121	0xbe686581	-0.2269497
122	0xbf13fd98	-0.5780883
123	0xbe1103f9	-0.14161672
124	0xbefd2aa4	-0.49446595
125	0xbe1b28dd	-0.15152307
126	0xbeab62cd	-0.33473817
127	0xbed36a3d	-0.4129199
128	0xbea422c3	-0.3205777
129	0xbe333076	-0.17498955
130	0xbed62831	-0.4182754
131	0xbefa5755	-0.48894754
132	0x3d32eb86	0.043681644
133	0xbb96e2f2	-0.0046046907
134	0xbe0cbd45	-0.13744076
135	0x3ebac817	0.3648078
136	0xbc67fcc8	-0.014159389
137	0x3ccbf9ce	0.02489939
138	0xbe8564d9	-0.26053503
139	0xbe87fe91	-0.26561406
140	0xbe8a3e7d	-0.270008
141	0xbec46e62	-0.38365465
142	0xbf173298	-0.59061575
143	0xbe45a066	-0.19299468
144	0x3d86669d	0.06562541
145	0xbd6e5924	-0.05819048
146	0xbf007f67	-0.501944
147	0xbf06970c	-0.5257423
148	0xbec4af11	-0.38414815
149	0xbedfccb9	-0.43710878
150	0xbe77b118	-0.2418865
151	0xbde7683b	-0.11299177
152	0xbf0a61da	-0.5405556
153	0xbf2366e8	-0.638289
154	0xbef2f96b	-0.47455916
155	0xbe8b9103	-0.27259073
156	0xbe30b9a1	-0.17258312
157	0xbe2745bd	-0.16335197
158	0x3e3198d0	0.1734345
159	0xbe8c1de4	-0.27366555
160	0xbec6393e	-0.38715547
161	0xbefa1eb3	-0.48851547
162	0xbf1f103b	-0.6213414
163	0xbdf6424c	-0.12024364
164	0xbf0d049c	-0.5508516
165	0xbee10b0b	-0.43953738
166	0xbf88f3c2	-1.0699389
167	0x3ddb3b77	0.107047014
168	0xbe7c1336	-0.24616703
169	0xbf0feeb6	-0.5622362
170	0xbefa09d4	-0.48835623
171	0xbee236cb	-0.4418243
172	0xbf33303d	-0.6999548
173	0xbe099582	-0.13435939
174	0x3e1914a9	0.14949287
175	0xbe9a8480	-0.30179214
176	0xbefdcfc2	-0.4957257
177	0xbe819eac	-0.2531637
178	0xbb4a694f	-0.0030885523
179	0x3cee69ee	0.029103246
180	0xbe39f748	-0.18160737
181	0xbc74f265	-0.0149503695
182	0xbd821890	-0.06352341
183	0xba4859d2	-0.0007642779
184	0xbe6b5aae	-0.2298381
185	0xbe0c8f54	-0.1372655
186	0xbe659909	-0.2242166
187	0xbe860452	-0.2617517
188	0xbe692a4f	-0.22770046
189	0xbedbf194	-0.42957747
190	0xbeebefab	-0.4608129
191	0xbdbd488f	-0.09242355
192	0xbee04025	-0.43798938
193	0xbdb3f7ec	-0.08787522
194	0xbedc1def	-0.42991588
195	0xbf038a23	-0.51382655
196	0xbe383259	-0.17987956
197	0xbf2a6b78	-0.66570234
198	0xbed618eb	-0.41815886
199	0xbe7b18b5	-0.24521144
200	0xbece3e10	-0.40281725
201	0xbe031e65	-0.12804563
202	0x3f021d5b	0.5082604
203	0xbeb28380	-0.34865952
204	0xbed6f8d8	-0.41986728
205	0xbf06149e	-0.5237521
206	0xbed11fd9	-0.4084461
207	0xbd175bee	-0.036952905
208	0xbd2935a0	-0.041310906
209	0x3d8cf185	0.06882004
210	0xbee3bbe8	-0.444793
211	0xbe81007d	-0.25195685
212	0xbed92a9e	-0.42415327
213	0xbe950bb1	-0.29110482
214	0xbe59775c	-0.21236938
215	0xbd8fccbc	-0.07021472
216	0xbef2b149	-0.47400883
217	0xbe8a0a59	-0.2696102
218	0xbe8a380b	-0.26995882
219	0xbe2180d4	-0.157718
220	0xbf0ac45e	-0.5420588
221	0xbe5c7fc5	-0.21533115
222	0xbe94ebf6	-0.29086274
223	0x3bbc157c	0.005739866
224	0xbef397bd	-0.47576705
225	0xbf199860	-0.5999813
226	0xbe49a1a3	-0.19690566
227	0xbe8a7ac0	-0.27046776
228	0xbef18e59	-0.47178915
229	0xbe8ced02	-0.27524573
230	0xbe808baa	-0.25106555
231	0xbe6a4bd7	-0.22880493
232	0xbf466835	-0.7750276
233	0xbf11c998	-0.5694823
234	0x3f02ab64	0.5104277
235	0xbeab08e4	-0.3340522
236	0xbeaf9e8d	-0.34300652
237	0xbf231a02	-0.6371156
238	0xbec2f69d	-0.38078776
239	0xbe0e6bdf	-0.13908337
240	0xbe3740c1	-0.17895795
241	0x3da8ed9d	0.08248446
242	0xbebbc487	-0.36673376
243	0xbe6d7cdf	-0.23192166
244	0xbe05ab90	-0.13053727
245	0x3d95c740	0.073133945
246	0xbf222563	-0.633383
247	0xbddd4715	-0.108045734
248	0x3cbaf330	0.022821039
249	0xbe6f47ad	-0.23367186
250	0xbe478472	-0.19484118
251	0xbf1fc7c9	-0.6241422
252	0xbf02c5ef	-0.5108327
253	0xbe01fdf6	-0.12694535
254	0xbf2277b3	-0.63463897
255	0xbebc93d0	-0.36831522
